{"format": "graph-model", "generatedBy": "2.18.0", "convertedBy": "TensorFlow.js Converter v4.22.0", "signature": {"outputs": {"Identity:0": {"name": "Identity:0"}}}, "modelTopology": {"node": [{"name": "ConstantFolding/model_27/tf.math.divide_1/truediv_recip", "op": "Const", "attr": {"dtype": {"type": "DT_FLOAT"}, "value": {"tensor": {"dtype": "DT_FLOAT", "tensorShape": {}}}}}, {"name": "model_27/tf.strided_slice_39/ones_like/tensor", "op": "Const", "attr": {"value": {"tensor": {"dtype": "DT_INT64", "tensorShape": {"dim": [{"size": "3"}]}}}, "dtype": {"type": "DT_INT64"}}}, {"name": "model_27/tf.strided_slice_39/StridedSlice/end", "op": "Const", "attr": {"value": {"tensor": {"dtype": "DT_INT64", "tensorShape": {"dim": [{"size": "3"}]}}}, "dtype": {"type": "DT_INT64"}}}, {"name": "model_27/tf.strided_slice_39/ones_like", "op": "Const", "attr": {"dtype": {"type": "DT_INT64"}, "value": {"tensor": {"dtype": "DT_INT64", "tensorShape": {"dim": [{"size": "3"}]}}}}}, {"name": "model_27/tf.math.add_280/Add/y", "op": "Const", "attr": {"dtype": {"type": "DT_FLOAT"}, "value": {"tensor": {"dtype": "DT_FLOAT", "tensorShape": {"dim": [{"size": "1"}, {"size": "2"}, {"size": "8400"}]}}}}}, {"name": "model_27/45437", "op": "Const", "attr": {"dtype": {"type": "DT_FLOAT"}, "value": {"tensor": {"dtype": "DT_FLOAT", "tensorShape": {"dim": [{"size": "1"}, {"size": "2"}, {"size": "8400"}]}}}}}, {"name": "model_27/tf.strided_slice_36/StridedSlice/begin", "op": "Const", "attr": {"dtype": {"type": "DT_INT64"}, "value": {"tensor": {"dtype": "DT_INT64", "tensorShape": {"dim": [{"size": "3"}]}}}}}, {"name": "model_27/tf.strided_slice_36/StridedSlice/end", "op": "Const", "attr": {"value": {"tensor": {"dtype": "DT_INT64", "tensorShape": {"dim": [{"size": "3"}]}}}, "dtype": {"type": "DT_INT64"}}}, {"name": "model_27/tf.strided_slice_36/StridedSlice/strides", "op": "Const", "attr": {"value": {"tensor": {"dtype": "DT_INT64", "tensorShape": {"dim": [{"size": "3"}]}}}, "dtype": {"type": "DT_INT64"}}}, {"name": "model_27/tf.reshape_26/Reshape/shape", "op": "Const", "attr": {"dtype": {"type": "DT_INT32"}, "value": {"tensor": {"dtype": "DT_INT32", "tensorShape": {"dim": [{"size": "4"}]}}}}}, {"name": "model_27/tf.compat.v1.transpose_277/transpose/perm", "op": "Const", "attr": {"dtype": {"type": "DT_INT32"}, "value": {"tensor": {"dtype": "DT_INT32", "tensorShape": {"dim": [{"size": "4"}]}}}}}, {"name": "model_27/tf.compat.v1.transpose_278/transpose/perm", "op": "Const", "attr": {"value": {"tensor": {"dtype": "DT_INT32", "tensorShape": {"dim": [{"size": "4"}]}}}, "dtype": {"type": "DT_INT32"}}}, {"name": "model_27/tf.nn.convolution_207/convolution/filter", "op": "Const", "attr": {"dtype": {"type": "DT_FLOAT"}, "value": {"tensor": {"dtype": "DT_FLOAT", "tensorShape": {"dim": [{"size": "1"}, {"size": "1"}, {"size": "16"}, {"size": "1"}]}}}}}, {"name": "model_27/tf.compat.v1.transpose_283/transpose/perm", "op": "Const", "attr": {"dtype": {"type": "DT_INT32"}, "value": {"tensor": {"dtype": "DT_INT32", "tensorShape": {"dim": [{"size": "4"}]}}}}}, {"name": "model_27/tf.reshape_29/Reshape/shape", "op": "Const", "attr": {"value": {"tensor": {"dtype": "DT_INT32", "tensorShape": {"dim": [{"size": "3"}]}}}, "dtype": {"type": "DT_INT32"}}}, {"name": "model_27/tf.strided_slice_38/ones_like/tensor", "op": "Const", "attr": {"dtype": {"type": "DT_INT64"}, "value": {"tensor": {"dtype": "DT_INT64", "tensorShape": {"dim": [{"size": "3"}]}}}}}, {"name": "model_27/tf.strided_slice_38/StridedSlice/end", "op": "Const", "attr": {"dtype": {"type": "DT_INT64"}, "value": {"tensor": {"dtype": "DT_INT64", "tensorShape": {"dim": [{"size": "3"}]}}}}}, {"name": "model_27/tf.strided_slice_38/ones_like", "op": "Const", "attr": {"dtype": {"type": "DT_INT64"}, "value": {"tensor": {"dtype": "DT_INT64", "tensorShape": {"dim": [{"size": "3"}]}}}}}, {"name": "model_27/tf.concat_42/concat/axis", "op": "Const", "attr": {"dtype": {"type": "DT_INT32"}, "value": {"tensor": {"dtype": "DT_INT32", "tensorShape": {}}}}}, {"name": "model_27/tf.math.multiply_873/Mul/y", "op": "Const", "attr": {"value": {"tensor": {"dtype": "DT_FLOAT", "tensorShape": {"dim": [{"size": "1"}, {"size": "1"}, {"size": "8400"}]}}}, "dtype": {"type": "DT_FLOAT"}}}, {"name": "model_27/tf.nn.convolution_172/convolution/filter", "op": "Const", "attr": {"dtype": {"type": "DT_FLOAT"}, "value": {"tensor": {"dtype": "DT_FLOAT", "tensorShape": {"dim": [{"size": "3"}, {"size": "3"}, {"size": "256"}, {"size": "64"}]}}}}}, {"name": "model_27/tf.math.add_245/Add/y", "op": "Const", "attr": {"value": {"tensor": {"dtype": "DT_FLOAT", "tensorShape": {"dim": [{"size": "64"}]}}}, "dtype": {"type": "DT_FLOAT"}}}, {"name": "model_27/tf.nn.convolution_174/convolution/filter", "op": "Const", "attr": {"value": {"tensor": {"dtype": "DT_FLOAT", "tensorShape": {"dim": [{"size": "3"}, {"size": "3"}, {"size": "64"}, {"size": "64"}]}}}, "dtype": {"type": "DT_FLOAT"}}}, {"name": "model_27/tf.math.add_247/Add/y", "op": "Const", "attr": {"value": {"tensor": {"dtype": "DT_FLOAT", "tensorShape": {"dim": [{"size": "64"}]}}}, "dtype": {"type": "DT_FLOAT"}}}, {"name": "model_27/tf.nn.convolution_177/convolution/filter", "op": "Const", "attr": {"dtype": {"type": "DT_FLOAT"}, "value": {"tensor": {"dtype": "DT_FLOAT", "tensorShape": {"dim": [{"size": "1"}, {"size": "1"}, {"size": "64"}, {"size": "64"}]}}}}}, {"name": "model_27/tf.math.add_250/Add/y", "op": "Const", "attr": {"dtype": {"type": "DT_FLOAT"}, "value": {"tensor": {"dtype": "DT_FLOAT", "tensorShape": {"dim": [{"size": "64"}]}}}}}, {"name": "model_27/tf.nn.convolution_173/convolution/filter", "op": "Const", "attr": {"dtype": {"type": "DT_FLOAT"}, "value": {"tensor": {"dtype": "DT_FLOAT", "tensorShape": {"dim": [{"size": "3"}, {"size": "3"}, {"size": "256"}, {"size": "256"}]}}}}}, {"name": "model_27/tf.math.add_246/Add/y", "op": "Const", "attr": {"dtype": {"type": "DT_FLOAT"}, "value": {"tensor": {"dtype": "DT_FLOAT", "tensorShape": {"dim": [{"size": "256"}]}}}}}, {"name": "model_27/tf.nn.convolution_175/convolution/filter", "op": "Const", "attr": {"value": {"tensor": {"dtype": "DT_FLOAT", "tensorShape": {"dim": [{"size": "3"}, {"size": "3"}, {"size": "256"}, {"size": "256"}]}}}, "dtype": {"type": "DT_FLOAT"}}}, {"name": "model_27/tf.math.add_248/Add/y", "op": "Const", "attr": {"dtype": {"type": "DT_FLOAT"}, "value": {"tensor": {"dtype": "DT_FLOAT", "tensorShape": {"dim": [{"size": "256"}]}}}}}, {"name": "model_27/tf.nn.convolution_178/convolution/filter", "op": "Const", "attr": {"value": {"tensor": {"dtype": "DT_FLOAT", "tensorShape": {"dim": [{"size": "1"}, {"size": "1"}, {"size": "256"}, {"size": "32"}]}}}, "dtype": {"type": "DT_FLOAT"}}}, {"name": "model_27/tf.math.add_251/Add/y", "op": "Const", "attr": {"dtype": {"type": "DT_FLOAT"}, "value": {"tensor": {"dtype": "DT_FLOAT", "tensorShape": {"dim": [{"size": "32"}]}}}}}, {"name": "model_27/tf.concat_32/concat/axis", "op": "Const", "attr": {"value": {"tensor": {"dtype": "DT_INT32", "tensorShape": {}}}, "dtype": {"type": "DT_INT32"}}}, {"name": "model_27/tf.compat.v1.transpose_236/transpose/perm", "op": "Const", "attr": {"value": {"tensor": {"dtype": "DT_INT32", "tensorShape": {"dim": [{"size": "4"}]}}}, "dtype": {"type": "DT_INT32"}}}, {"name": "model_27/tf.reshape_17/Reshape/shape", "op": "Const", "attr": {"value": {"tensor": {"dtype": "DT_INT32", "tensorShape": {"dim": [{"size": "3"}]}}}, "dtype": {"type": "DT_INT32"}}}, {"name": "model_27/tf.nn.convolution_187/convolution/filter", "op": "Const", "attr": {"value": {"tensor": {"dtype": "DT_FLOAT", "tensorShape": {"dim": [{"size": "3"}, {"size": "3"}, {"size": "512"}, {"size": "64"}]}}}, "dtype": {"type": "DT_FLOAT"}}}, {"name": "model_27/tf.math.add_260/Add/y", "op": "Const", "attr": {"dtype": {"type": "DT_FLOAT"}, "value": {"tensor": {"dtype": "DT_FLOAT", "tensorShape": {"dim": [{"size": "64"}]}}}}}, {"name": "model_27/tf.nn.convolution_189/convolution/filter", "op": "Const", "attr": {"value": {"tensor": {"dtype": "DT_FLOAT", "tensorShape": {"dim": [{"size": "3"}, {"size": "3"}, {"size": "64"}, {"size": "64"}]}}}, "dtype": {"type": "DT_FLOAT"}}}, {"name": "model_27/tf.math.add_262/Add/y", "op": "Const", "attr": {"value": {"tensor": {"dtype": "DT_FLOAT", "tensorShape": {"dim": [{"size": "64"}]}}}, "dtype": {"type": "DT_FLOAT"}}}, {"name": "model_27/tf.nn.convolution_192/convolution/filter", "op": "Const", "attr": {"value": {"tensor": {"dtype": "DT_FLOAT", "tensorShape": {"dim": [{"size": "1"}, {"size": "1"}, {"size": "64"}, {"size": "64"}]}}}, "dtype": {"type": "DT_FLOAT"}}}, {"name": "model_27/tf.math.add_265/Add/y", "op": "Const", "attr": {"value": {"tensor": {"dtype": "DT_FLOAT", "tensorShape": {"dim": [{"size": "64"}]}}}, "dtype": {"type": "DT_FLOAT"}}}, {"name": "model_27/tf.nn.convolution_188/convolution/filter", "op": "Const", "attr": {"dtype": {"type": "DT_FLOAT"}, "value": {"tensor": {"dtype": "DT_FLOAT", "tensorShape": {"dim": [{"size": "3"}, {"size": "3"}, {"size": "512"}, {"size": "256"}]}}}}}, {"name": "model_27/tf.math.add_261/Add/y", "op": "Const", "attr": {"value": {"tensor": {"dtype": "DT_FLOAT", "tensorShape": {"dim": [{"size": "256"}]}}}, "dtype": {"type": "DT_FLOAT"}}}, {"name": "model_27/tf.nn.convolution_190/convolution/filter", "op": "Const", "attr": {"dtype": {"type": "DT_FLOAT"}, "value": {"tensor": {"dtype": "DT_FLOAT", "tensorShape": {"dim": [{"size": "3"}, {"size": "3"}, {"size": "256"}, {"size": "256"}]}}}}}, {"name": "model_27/tf.math.add_263/Add/y", "op": "Const", "attr": {"value": {"tensor": {"dtype": "DT_FLOAT", "tensorShape": {"dim": [{"size": "256"}]}}}, "dtype": {"type": "DT_FLOAT"}}}, {"name": "model_27/tf.nn.convolution_193/convolution/filter", "op": "Const", "attr": {"dtype": {"type": "DT_FLOAT"}, "value": {"tensor": {"dtype": "DT_FLOAT", "tensorShape": {"dim": [{"size": "1"}, {"size": "1"}, {"size": "256"}, {"size": "32"}]}}}}}, {"name": "model_27/tf.math.add_266/Add/y", "op": "Const", "attr": {"dtype": {"type": "DT_FLOAT"}, "value": {"tensor": {"dtype": "DT_FLOAT", "tensorShape": {"dim": [{"size": "32"}]}}}}}, {"name": "model_27/tf.concat_35/concat/axis", "op": "Const", "attr": {"value": {"tensor": {"dtype": "DT_INT32", "tensorShape": {}}}, "dtype": {"type": "DT_INT32"}}}, {"name": "model_27/tf.compat.v1.transpose_254/transpose/perm", "op": "Const", "attr": {"value": {"tensor": {"dtype": "DT_INT32", "tensorShape": {"dim": [{"size": "4"}]}}}, "dtype": {"type": "DT_INT32"}}}, {"name": "model_27/tf.reshape_20/Reshape/shape", "op": "Const", "attr": {"value": {"tensor": {"dtype": "DT_INT32", "tensorShape": {"dim": [{"size": "3"}]}}}, "dtype": {"type": "DT_INT32"}}}, {"name": "model_27/tf.nn.convolution_201/convolution/filter", "op": "Const", "attr": {"dtype": {"type": "DT_FLOAT"}, "value": {"tensor": {"dtype": "DT_FLOAT", "tensorShape": {"dim": [{"size": "3"}, {"size": "3"}, {"size": "512"}, {"size": "64"}]}}}}}, {"name": "model_27/tf.math.add_274/Add/y", "op": "Const", "attr": {"value": {"tensor": {"dtype": "DT_FLOAT", "tensorShape": {"dim": [{"size": "64"}]}}}, "dtype": {"type": "DT_FLOAT"}}}, {"name": "model_27/tf.nn.convolution_203/convolution/filter", "op": "Const", "attr": {"value": {"tensor": {"dtype": "DT_FLOAT", "tensorShape": {"dim": [{"size": "3"}, {"size": "3"}, {"size": "64"}, {"size": "64"}]}}}, "dtype": {"type": "DT_FLOAT"}}}, {"name": "model_27/tf.math.add_276/Add/y", "op": "Const", "attr": {"value": {"tensor": {"dtype": "DT_FLOAT", "tensorShape": {"dim": [{"size": "64"}]}}}, "dtype": {"type": "DT_FLOAT"}}}, {"name": "model_27/tf.nn.convolution_205/convolution/filter", "op": "Const", "attr": {"value": {"tensor": {"dtype": "DT_FLOAT", "tensorShape": {"dim": [{"size": "1"}, {"size": "1"}, {"size": "64"}, {"size": "64"}]}}}, "dtype": {"type": "DT_FLOAT"}}}, {"name": "model_27/tf.math.add_278/Add/y", "op": "Const", "attr": {"dtype": {"type": "DT_FLOAT"}, "value": {"tensor": {"dtype": "DT_FLOAT", "tensorShape": {"dim": [{"size": "64"}]}}}}}, {"name": "model_27/tf.strided_slice_34/ones_like/tensor", "op": "Const", "attr": {"dtype": {"type": "DT_INT64"}, "value": {"tensor": {"dtype": "DT_INT64", "tensorShape": {"dim": [{"size": "4"}]}}}}}, {"name": "model_27/tf.strided_slice_34/StridedSlice/end", "op": "Const", "attr": {"dtype": {"type": "DT_INT64"}, "value": {"tensor": {"dtype": "DT_INT64", "tensorShape": {"dim": [{"size": "4"}]}}}}}, {"name": "model_27/tf.strided_slice_34/ones_like", "op": "Const", "attr": {"value": {"tensor": {"dtype": "DT_INT64", "tensorShape": {"dim": [{"size": "4"}]}}}, "dtype": {"type": "DT_INT64"}}}, {"name": "model_27/tf.strided_slice_32/ones_like/tensor", "op": "Const", "attr": {"dtype": {"type": "DT_INT64"}, "value": {"tensor": {"dtype": "DT_INT64", "tensorShape": {"dim": [{"size": "4"}]}}}}}, {"name": "model_27/tf.strided_slice_32/StridedSlice/end", "op": "Const", "attr": {"dtype": {"type": "DT_INT64"}, "value": {"tensor": {"dtype": "DT_INT64", "tensorShape": {"dim": [{"size": "4"}]}}}}}, {"name": "model_27/tf.strided_slice_32/ones_like", "op": "Const", "attr": {"value": {"tensor": {"dtype": "DT_INT64", "tensorShape": {"dim": [{"size": "4"}]}}}, "dtype": {"type": "DT_INT64"}}}, {"name": "model_27/tf.strided_slice_30/ones_like/tensor", "op": "Const", "attr": {"dtype": {"type": "DT_INT64"}, "value": {"tensor": {"dtype": "DT_INT64", "tensorShape": {"dim": [{"size": "4"}]}}}}}, {"name": "model_27/tf.strided_slice_30/StridedSlice/end", "op": "Const", "attr": {"value": {"tensor": {"dtype": "DT_INT64", "tensorShape": {"dim": [{"size": "4"}]}}}, "dtype": {"type": "DT_INT64"}}}, {"name": "model_27/tf.strided_slice_30/ones_like", "op": "Const", "attr": {"value": {"tensor": {"dtype": "DT_INT64", "tensorShape": {"dim": [{"size": "4"}]}}}, "dtype": {"type": "DT_INT64"}}}, {"name": "model_27/tf.compat.v1.image.resize_nearest_neighbor_3/ResizeNearestNeighbor/size", "op": "Const", "attr": {"value": {"tensor": {"dtype": "DT_INT32", "tensorShape": {"dim": [{"size": "2"}]}}}, "dtype": {"type": "DT_INT32"}}}, {"name": "model_27/tf.concat_29/concat/axis", "op": "Const", "attr": {"dtype": {"type": "DT_INT32"}, "value": {"tensor": {"dtype": "DT_INT32", "tensorShape": {}}}}}, {"name": "model_27/tf.nn.convolution_163/convolution/filter", "op": "Const", "attr": {"value": {"tensor": {"dtype": "DT_FLOAT", "tensorShape": {"dim": [{"size": "1"}, {"size": "1"}, {"size": "768"}, {"size": "256"}]}}}, "dtype": {"type": "DT_FLOAT"}}}, {"name": "model_27/tf.math.add_236/Add/y", "op": "Const", "attr": {"value": {"tensor": {"dtype": "DT_FLOAT", "tensorShape": {"dim": [{"size": "256"}]}}}, "dtype": {"type": "DT_FLOAT"}}}, {"name": "model_27/tf.strided_slice_31/ones_like/tensor", "op": "Const", "attr": {"dtype": {"type": "DT_INT64"}, "value": {"tensor": {"dtype": "DT_INT64", "tensorShape": {"dim": [{"size": "4"}]}}}}}, {"name": "model_27/tf.strided_slice_31/StridedSlice/end", "op": "Const", "attr": {"dtype": {"type": "DT_INT64"}, "value": {"tensor": {"dtype": "DT_INT64", "tensorShape": {"dim": [{"size": "4"}]}}}}}, {"name": "model_27/tf.strided_slice_31/ones_like", "op": "Const", "attr": {"dtype": {"type": "DT_INT64"}, "value": {"tensor": {"dtype": "DT_INT64", "tensorShape": {"dim": [{"size": "4"}]}}}}}, {"name": "model_27/tf.nn.convolution_164/convolution/filter", "op": "Const", "attr": {"value": {"tensor": {"dtype": "DT_FLOAT", "tensorShape": {"dim": [{"size": "3"}, {"size": "3"}, {"size": "128"}, {"size": "128"}]}}}, "dtype": {"type": "DT_FLOAT"}}}, {"name": "model_27/tf.math.add_237/Add/y", "op": "Const", "attr": {"value": {"tensor": {"dtype": "DT_FLOAT", "tensorShape": {"dim": [{"size": "128"}]}}}, "dtype": {"type": "DT_FLOAT"}}}, {"name": "model_27/tf.nn.convolution_165/convolution/filter", "op": "Const", "attr": {"value": {"tensor": {"dtype": "DT_FLOAT", "tensorShape": {"dim": [{"size": "3"}, {"size": "3"}, {"size": "128"}, {"size": "128"}]}}}, "dtype": {"type": "DT_FLOAT"}}}, {"name": "model_27/tf.math.add_238/Add/y", "op": "Const", "attr": {"dtype": {"type": "DT_FLOAT"}, "value": {"tensor": {"dtype": "DT_FLOAT", "tensorShape": {"dim": [{"size": "128"}]}}}}}, {"name": "model_27/tf.nn.convolution_166/convolution/filter", "op": "Const", "attr": {"value": {"tensor": {"dtype": "DT_FLOAT", "tensorShape": {"dim": [{"size": "3"}, {"size": "3"}, {"size": "128"}, {"size": "128"}]}}}, "dtype": {"type": "DT_FLOAT"}}}, {"name": "model_27/tf.math.add_239/Add/y", "op": "Const", "attr": {"value": {"tensor": {"dtype": "DT_FLOAT", "tensorShape": {"dim": [{"size": "128"}]}}}, "dtype": {"type": "DT_FLOAT"}}}, {"name": "model_27/tf.nn.convolution_167/convolution/filter", "op": "Const", "attr": {"dtype": {"type": "DT_FLOAT"}, "value": {"tensor": {"dtype": "DT_FLOAT", "tensorShape": {"dim": [{"size": "3"}, {"size": "3"}, {"size": "128"}, {"size": "128"}]}}}}}, {"name": "model_27/tf.math.add_240/Add/y", "op": "Const", "attr": {"dtype": {"type": "DT_FLOAT"}, "value": {"tensor": {"dtype": "DT_FLOAT", "tensorShape": {"dim": [{"size": "128"}]}}}}}, {"name": "model_27/tf.nn.convolution_168/convolution/filter", "op": "Const", "attr": {"value": {"tensor": {"dtype": "DT_FLOAT", "tensorShape": {"dim": [{"size": "3"}, {"size": "3"}, {"size": "128"}, {"size": "128"}]}}}, "dtype": {"type": "DT_FLOAT"}}}, {"name": "model_27/tf.math.add_241/Add/y", "op": "Const", "attr": {"value": {"tensor": {"dtype": "DT_FLOAT", "tensorShape": {"dim": [{"size": "128"}]}}}, "dtype": {"type": "DT_FLOAT"}}}, {"name": "model_27/tf.nn.convolution_169/convolution/filter", "op": "Const", "attr": {"dtype": {"type": "DT_FLOAT"}, "value": {"tensor": {"dtype": "DT_FLOAT", "tensorShape": {"dim": [{"size": "3"}, {"size": "3"}, {"size": "128"}, {"size": "128"}]}}}}}, {"name": "model_27/tf.math.add_242/Add/y", "op": "Const", "attr": {"dtype": {"type": "DT_FLOAT"}, "value": {"tensor": {"dtype": "DT_FLOAT", "tensorShape": {"dim": [{"size": "128"}]}}}}}, {"name": "model_27/tf.concat_30/concat/axis", "op": "Const", "attr": {"value": {"tensor": {"dtype": "DT_INT32", "tensorShape": {}}}, "dtype": {"type": "DT_INT32"}}}, {"name": "model_27/tf.nn.convolution_170/convolution/filter", "op": "Const", "attr": {"dtype": {"type": "DT_FLOAT"}, "value": {"tensor": {"dtype": "DT_FLOAT", "tensorShape": {"dim": [{"size": "1"}, {"size": "1"}, {"size": "640"}, {"size": "256"}]}}}}}, {"name": "model_27/tf.math.add_243/Add/y", "op": "Const", "attr": {"dtype": {"type": "DT_FLOAT"}, "value": {"tensor": {"dtype": "DT_FLOAT", "tensorShape": {"dim": [{"size": "256"}]}}}}}, {"name": "model_27/tf.compat.v1.pad_12/Pad/paddings", "op": "Const", "attr": {"value": {"tensor": {"dtype": "DT_INT32", "tensorShape": {"dim": [{"size": "4"}, {"size": "2"}]}}}, "dtype": {"type": "DT_INT32"}}}, {"name": "model_27/tf.nn.convolution_171/convolution/filter", "op": "Const", "attr": {"value": {"tensor": {"dtype": "DT_FLOAT", "tensorShape": {"dim": [{"size": "3"}, {"size": "3"}, {"size": "256"}, {"size": "256"}]}}}, "dtype": {"type": "DT_FLOAT"}}}, {"name": "model_27/tf.math.add_244/Add/y", "op": "Const", "attr": {"value": {"tensor": {"dtype": "DT_FLOAT", "tensorShape": {"dim": [{"size": "256"}]}}}, "dtype": {"type": "DT_FLOAT"}}}, {"name": "model_27/tf.strided_slice_28/ones_like/tensor", "op": "Const", "attr": {"value": {"tensor": {"dtype": "DT_INT64", "tensorShape": {"dim": [{"size": "4"}]}}}, "dtype": {"type": "DT_INT64"}}}, {"name": "model_27/tf.strided_slice_28/StridedSlice/end", "op": "Const", "attr": {"value": {"tensor": {"dtype": "DT_INT64", "tensorShape": {"dim": [{"size": "4"}]}}}, "dtype": {"type": "DT_INT64"}}}, {"name": "model_27/tf.strided_slice_28/ones_like", "op": "Const", "attr": {"dtype": {"type": "DT_INT64"}, "value": {"tensor": {"dtype": "DT_INT64", "tensorShape": {"dim": [{"size": "4"}]}}}}}, {"name": "model_27/tf.compat.v1.image.resize_nearest_neighbor_2/ResizeNearestNeighbor/size", "op": "Const", "attr": {"dtype": {"type": "DT_INT32"}, "value": {"tensor": {"dtype": "DT_INT32", "tensorShape": {"dim": [{"size": "2"}]}}}}}, {"name": "model_27/tf.concat_27/concat/axis", "op": "Const", "attr": {"dtype": {"type": "DT_INT32"}, "value": {"tensor": {"dtype": "DT_INT32", "tensorShape": {}}}}}, {"name": "model_27/tf.nn.convolution_155/convolution/filter", "op": "Const", "attr": {"value": {"tensor": {"dtype": "DT_FLOAT", "tensorShape": {"dim": [{"size": "1"}, {"size": "1"}, {"size": "1024"}, {"size": "512"}]}}}, "dtype": {"type": "DT_FLOAT"}}}, {"name": "model_27/tf.math.add_228/Add/y", "op": "Const", "attr": {"dtype": {"type": "DT_FLOAT"}, "value": {"tensor": {"dtype": "DT_FLOAT", "tensorShape": {"dim": [{"size": "512"}]}}}}}, {"name": "model_27/tf.strided_slice_29/ones_like/tensor", "op": "Const", "attr": {"dtype": {"type": "DT_INT64"}, "value": {"tensor": {"dtype": "DT_INT64", "tensorShape": {"dim": [{"size": "4"}]}}}}}, {"name": "model_27/tf.strided_slice_29/StridedSlice/end", "op": "Const", "attr": {"value": {"tensor": {"dtype": "DT_INT64", "tensorShape": {"dim": [{"size": "4"}]}}}, "dtype": {"type": "DT_INT64"}}}, {"name": "model_27/tf.strided_slice_29/ones_like", "op": "Const", "attr": {"value": {"tensor": {"dtype": "DT_INT64", "tensorShape": {"dim": [{"size": "4"}]}}}, "dtype": {"type": "DT_INT64"}}}, {"name": "model_27/tf.nn.convolution_156/convolution/filter", "op": "Const", "attr": {"value": {"tensor": {"dtype": "DT_FLOAT", "tensorShape": {"dim": [{"size": "3"}, {"size": "3"}, {"size": "256"}, {"size": "256"}]}}}, "dtype": {"type": "DT_FLOAT"}}}, {"name": "model_27/tf.math.add_229/Add/y", "op": "Const", "attr": {"dtype": {"type": "DT_FLOAT"}, "value": {"tensor": {"dtype": "DT_FLOAT", "tensorShape": {"dim": [{"size": "256"}]}}}}}, {"name": "model_27/tf.nn.convolution_157/convolution/filter", "op": "Const", "attr": {"value": {"tensor": {"dtype": "DT_FLOAT", "tensorShape": {"dim": [{"size": "3"}, {"size": "3"}, {"size": "256"}, {"size": "256"}]}}}, "dtype": {"type": "DT_FLOAT"}}}, {"name": "model_27/tf.math.add_230/Add/y", "op": "Const", "attr": {"value": {"tensor": {"dtype": "DT_FLOAT", "tensorShape": {"dim": [{"size": "256"}]}}}, "dtype": {"type": "DT_FLOAT"}}}, {"name": "model_27/tf.nn.convolution_158/convolution/filter", "op": "Const", "attr": {"value": {"tensor": {"dtype": "DT_FLOAT", "tensorShape": {"dim": [{"size": "3"}, {"size": "3"}, {"size": "256"}, {"size": "256"}]}}}, "dtype": {"type": "DT_FLOAT"}}}, {"name": "model_27/tf.math.add_231/Add/y", "op": "Const", "attr": {"value": {"tensor": {"dtype": "DT_FLOAT", "tensorShape": {"dim": [{"size": "256"}]}}}, "dtype": {"type": "DT_FLOAT"}}}, {"name": "model_27/tf.nn.convolution_159/convolution/filter", "op": "Const", "attr": {"dtype": {"type": "DT_FLOAT"}, "value": {"tensor": {"dtype": "DT_FLOAT", "tensorShape": {"dim": [{"size": "3"}, {"size": "3"}, {"size": "256"}, {"size": "256"}]}}}}}, {"name": "model_27/tf.math.add_232/Add/y", "op": "Const", "attr": {"dtype": {"type": "DT_FLOAT"}, "value": {"tensor": {"dtype": "DT_FLOAT", "tensorShape": {"dim": [{"size": "256"}]}}}}}, {"name": "model_27/tf.nn.convolution_160/convolution/filter", "op": "Const", "attr": {"value": {"tensor": {"dtype": "DT_FLOAT", "tensorShape": {"dim": [{"size": "3"}, {"size": "3"}, {"size": "256"}, {"size": "256"}]}}}, "dtype": {"type": "DT_FLOAT"}}}, {"name": "model_27/tf.math.add_233/Add/y", "op": "Const", "attr": {"value": {"tensor": {"dtype": "DT_FLOAT", "tensorShape": {"dim": [{"size": "256"}]}}}, "dtype": {"type": "DT_FLOAT"}}}, {"name": "model_27/tf.nn.convolution_161/convolution/filter", "op": "Const", "attr": {"dtype": {"type": "DT_FLOAT"}, "value": {"tensor": {"dtype": "DT_FLOAT", "tensorShape": {"dim": [{"size": "3"}, {"size": "3"}, {"size": "256"}, {"size": "256"}]}}}}}, {"name": "model_27/tf.math.add_234/Add/y", "op": "Const", "attr": {"dtype": {"type": "DT_FLOAT"}, "value": {"tensor": {"dtype": "DT_FLOAT", "tensorShape": {"dim": [{"size": "256"}]}}}}}, {"name": "model_27/tf.concat_28/concat/axis", "op": "Const", "attr": {"value": {"tensor": {"dtype": "DT_INT32", "tensorShape": {}}}, "dtype": {"type": "DT_INT32"}}}, {"name": "model_27/tf.nn.convolution_162/convolution/filter", "op": "Const", "attr": {"value": {"tensor": {"dtype": "DT_FLOAT", "tensorShape": {"dim": [{"size": "1"}, {"size": "1"}, {"size": "1280"}, {"size": "512"}]}}}, "dtype": {"type": "DT_FLOAT"}}}, {"name": "model_27/tf.math.add_235/Add/y", "op": "Const", "attr": {"value": {"tensor": {"dtype": "DT_FLOAT", "tensorShape": {"dim": [{"size": "512"}]}}}, "dtype": {"type": "DT_FLOAT"}}}, {"name": "model_27/tf.concat_31/concat/axis", "op": "Const", "attr": {"value": {"tensor": {"dtype": "DT_INT32", "tensorShape": {}}}, "dtype": {"type": "DT_INT32"}}}, {"name": "model_27/tf.nn.convolution_176/convolution/filter", "op": "Const", "attr": {"value": {"tensor": {"dtype": "DT_FLOAT", "tensorShape": {"dim": [{"size": "1"}, {"size": "1"}, {"size": "768"}, {"size": "512"}]}}}, "dtype": {"type": "DT_FLOAT"}}}, {"name": "model_27/tf.math.add_249/Add/y", "op": "Const", "attr": {"value": {"tensor": {"dtype": "DT_FLOAT", "tensorShape": {"dim": [{"size": "512"}]}}}, "dtype": {"type": "DT_FLOAT"}}}, {"name": "model_27/tf.strided_slice_33/ones_like/tensor", "op": "Const", "attr": {"value": {"tensor": {"dtype": "DT_INT64", "tensorShape": {"dim": [{"size": "4"}]}}}, "dtype": {"type": "DT_INT64"}}}, {"name": "model_27/tf.strided_slice_33/StridedSlice/end", "op": "Const", "attr": {"dtype": {"type": "DT_INT64"}, "value": {"tensor": {"dtype": "DT_INT64", "tensorShape": {"dim": [{"size": "4"}]}}}}}, {"name": "model_27/tf.strided_slice_33/ones_like", "op": "Const", "attr": {"value": {"tensor": {"dtype": "DT_INT64", "tensorShape": {"dim": [{"size": "4"}]}}}, "dtype": {"type": "DT_INT64"}}}, {"name": "model_27/tf.nn.convolution_179/convolution/filter", "op": "Const", "attr": {"value": {"tensor": {"dtype": "DT_FLOAT", "tensorShape": {"dim": [{"size": "3"}, {"size": "3"}, {"size": "256"}, {"size": "256"}]}}}, "dtype": {"type": "DT_FLOAT"}}}, {"name": "model_27/tf.math.add_252/Add/y", "op": "Const", "attr": {"dtype": {"type": "DT_FLOAT"}, "value": {"tensor": {"dtype": "DT_FLOAT", "tensorShape": {"dim": [{"size": "256"}]}}}}}, {"name": "model_27/tf.nn.convolution_180/convolution/filter", "op": "Const", "attr": {"value": {"tensor": {"dtype": "DT_FLOAT", "tensorShape": {"dim": [{"size": "3"}, {"size": "3"}, {"size": "256"}, {"size": "256"}]}}}, "dtype": {"type": "DT_FLOAT"}}}, {"name": "model_27/tf.math.add_253/Add/y", "op": "Const", "attr": {"value": {"tensor": {"dtype": "DT_FLOAT", "tensorShape": {"dim": [{"size": "256"}]}}}, "dtype": {"type": "DT_FLOAT"}}}, {"name": "model_27/tf.nn.convolution_181/convolution/filter", "op": "Const", "attr": {"dtype": {"type": "DT_FLOAT"}, "value": {"tensor": {"dtype": "DT_FLOAT", "tensorShape": {"dim": [{"size": "3"}, {"size": "3"}, {"size": "256"}, {"size": "256"}]}}}}}, {"name": "model_27/tf.math.add_254/Add/y", "op": "Const", "attr": {"value": {"tensor": {"dtype": "DT_FLOAT", "tensorShape": {"dim": [{"size": "256"}]}}}, "dtype": {"type": "DT_FLOAT"}}}, {"name": "model_27/tf.nn.convolution_182/convolution/filter", "op": "Const", "attr": {"value": {"tensor": {"dtype": "DT_FLOAT", "tensorShape": {"dim": [{"size": "3"}, {"size": "3"}, {"size": "256"}, {"size": "256"}]}}}, "dtype": {"type": "DT_FLOAT"}}}, {"name": "model_27/tf.math.add_255/Add/y", "op": "Const", "attr": {"value": {"tensor": {"dtype": "DT_FLOAT", "tensorShape": {"dim": [{"size": "256"}]}}}, "dtype": {"type": "DT_FLOAT"}}}, {"name": "model_27/tf.nn.convolution_183/convolution/filter", "op": "Const", "attr": {"dtype": {"type": "DT_FLOAT"}, "value": {"tensor": {"dtype": "DT_FLOAT", "tensorShape": {"dim": [{"size": "3"}, {"size": "3"}, {"size": "256"}, {"size": "256"}]}}}}}, {"name": "model_27/tf.math.add_256/Add/y", "op": "Const", "attr": {"value": {"tensor": {"dtype": "DT_FLOAT", "tensorShape": {"dim": [{"size": "256"}]}}}, "dtype": {"type": "DT_FLOAT"}}}, {"name": "model_27/tf.nn.convolution_184/convolution/filter", "op": "Const", "attr": {"dtype": {"type": "DT_FLOAT"}, "value": {"tensor": {"dtype": "DT_FLOAT", "tensorShape": {"dim": [{"size": "3"}, {"size": "3"}, {"size": "256"}, {"size": "256"}]}}}}}, {"name": "model_27/tf.math.add_257/Add/y", "op": "Const", "attr": {"value": {"tensor": {"dtype": "DT_FLOAT", "tensorShape": {"dim": [{"size": "256"}]}}}, "dtype": {"type": "DT_FLOAT"}}}, {"name": "model_27/tf.concat_33/concat/axis", "op": "Const", "attr": {"value": {"tensor": {"dtype": "DT_INT32", "tensorShape": {}}}, "dtype": {"type": "DT_INT32"}}}, {"name": "model_27/tf.nn.convolution_185/convolution/filter", "op": "Const", "attr": {"value": {"tensor": {"dtype": "DT_FLOAT", "tensorShape": {"dim": [{"size": "1"}, {"size": "1"}, {"size": "1280"}, {"size": "512"}]}}}, "dtype": {"type": "DT_FLOAT"}}}, {"name": "model_27/tf.math.add_258/Add/y", "op": "Const", "attr": {"value": {"tensor": {"dtype": "DT_FLOAT", "tensorShape": {"dim": [{"size": "512"}]}}}, "dtype": {"type": "DT_FLOAT"}}}, {"name": "model_27/tf.compat.v1.pad_13/Pad/paddings", "op": "Const", "attr": {"value": {"tensor": {"dtype": "DT_INT32", "tensorShape": {"dim": [{"size": "4"}, {"size": "2"}]}}}, "dtype": {"type": "DT_INT32"}}}, {"name": "model_27/tf.nn.convolution_186/convolution/filter", "op": "Const", "attr": {"value": {"tensor": {"dtype": "DT_FLOAT", "tensorShape": {"dim": [{"size": "3"}, {"size": "3"}, {"size": "512"}, {"size": "512"}]}}}, "dtype": {"type": "DT_FLOAT"}}}, {"name": "model_27/tf.math.add_259/Add/y", "op": "Const", "attr": {"value": {"tensor": {"dtype": "DT_FLOAT", "tensorShape": {"dim": [{"size": "512"}]}}}, "dtype": {"type": "DT_FLOAT"}}}, {"name": "model_27/tf.strided_slice_26/ones_like/tensor", "op": "Const", "attr": {"value": {"tensor": {"dtype": "DT_INT64", "tensorShape": {"dim": [{"size": "4"}]}}}, "dtype": {"type": "DT_INT64"}}}, {"name": "model_27/tf.strided_slice_26/StridedSlice/end", "op": "Const", "attr": {"value": {"tensor": {"dtype": "DT_INT64", "tensorShape": {"dim": [{"size": "4"}]}}}, "dtype": {"type": "DT_INT64"}}}, {"name": "model_27/tf.strided_slice_26/ones_like", "op": "Const", "attr": {"dtype": {"type": "DT_INT64"}, "value": {"tensor": {"dtype": "DT_INT64", "tensorShape": {"dim": [{"size": "4"}]}}}}}, {"name": "model_27/tf.strided_slice_24/ones_like/tensor", "op": "Const", "attr": {"dtype": {"type": "DT_INT64"}, "value": {"tensor": {"dtype": "DT_INT64", "tensorShape": {"dim": [{"size": "4"}]}}}}}, {"name": "model_27/tf.strided_slice_24/StridedSlice/end", "op": "Const", "attr": {"value": {"tensor": {"dtype": "DT_INT64", "tensorShape": {"dim": [{"size": "4"}]}}}, "dtype": {"type": "DT_INT64"}}}, {"name": "model_27/tf.strided_slice_24/ones_like", "op": "Const", "attr": {"value": {"tensor": {"dtype": "DT_INT64", "tensorShape": {"dim": [{"size": "4"}]}}}, "dtype": {"type": "DT_INT64"}}}, {"name": "model_27/tf.strided_slice_22/ones_like/tensor", "op": "Const", "attr": {"dtype": {"type": "DT_INT64"}, "value": {"tensor": {"dtype": "DT_INT64", "tensorShape": {"dim": [{"size": "4"}]}}}}}, {"name": "model_27/tf.strided_slice_22/StridedSlice/end", "op": "Const", "attr": {"value": {"tensor": {"dtype": "DT_INT64", "tensorShape": {"dim": [{"size": "4"}]}}}, "dtype": {"type": "DT_INT64"}}}, {"name": "model_27/tf.strided_slice_22/ones_like", "op": "Const", "attr": {"value": {"tensor": {"dtype": "DT_INT64", "tensorShape": {"dim": [{"size": "4"}]}}}, "dtype": {"type": "DT_INT64"}}}, {"name": "model_27/tf.strided_slice_20/ones_like/tensor", "op": "Const", "attr": {"value": {"tensor": {"dtype": "DT_INT64", "tensorShape": {"dim": [{"size": "4"}]}}}, "dtype": {"type": "DT_INT64"}}}, {"name": "model_27/tf.strided_slice_20/StridedSlice/end", "op": "Const", "attr": {"value": {"tensor": {"dtype": "DT_INT64", "tensorShape": {"dim": [{"size": "4"}]}}}, "dtype": {"type": "DT_INT64"}}}, {"name": "model_27/tf.strided_slice_20/ones_like", "op": "Const", "attr": {"dtype": {"type": "DT_INT64"}, "value": {"tensor": {"dtype": "DT_INT64", "tensorShape": {"dim": [{"size": "4"}]}}}}}, {"name": "model_27/tf.compat.v1.pad_7/Pad/paddings", "op": "Const", "attr": {"value": {"tensor": {"dtype": "DT_INT32", "tensorShape": {"dim": [{"size": "4"}, {"size": "2"}]}}}, "dtype": {"type": "DT_INT32"}}}, {"name": "model_27/tf.nn.convolution_104/convolution/filter", "op": "Const", "attr": {"value": {"tensor": {"dtype": "DT_FLOAT", "tensorShape": {"dim": [{"size": "3"}, {"size": "3"}, {"size": "3"}, {"size": "64"}]}}}, "dtype": {"type": "DT_FLOAT"}}}, {"name": "model_27/tf.math.add_141/Add/y", "op": "Const", "attr": {"dtype": {"type": "DT_FLOAT"}, "value": {"tensor": {"dtype": "DT_FLOAT", "tensorShape": {"dim": [{"size": "64"}]}}}}}, {"name": "model_27/tf.compat.v1.pad_8/Pad/paddings", "op": "Const", "attr": {"dtype": {"type": "DT_INT32"}, "value": {"tensor": {"dtype": "DT_INT32", "tensorShape": {"dim": [{"size": "4"}, {"size": "2"}]}}}}}, {"name": "model_27/tf.nn.convolution_105/convolution/filter", "op": "Const", "attr": {"dtype": {"type": "DT_FLOAT"}, "value": {"tensor": {"dtype": "DT_FLOAT", "tensorShape": {"dim": [{"size": "3"}, {"size": "3"}, {"size": "64"}, {"size": "128"}]}}}}}, {"name": "model_27/tf.math.add_142/Add/y", "op": "Const", "attr": {"value": {"tensor": {"dtype": "DT_FLOAT", "tensorShape": {"dim": [{"size": "128"}]}}}, "dtype": {"type": "DT_FLOAT"}}}, {"name": "model_27/tf.nn.convolution_106/convolution/filter", "op": "Const", "attr": {"value": {"tensor": {"dtype": "DT_FLOAT", "tensorShape": {"dim": [{"size": "1"}, {"size": "1"}, {"size": "128"}, {"size": "128"}]}}}, "dtype": {"type": "DT_FLOAT"}}}, {"name": "model_27/tf.math.add_143/Add/y", "op": "Const", "attr": {"value": {"tensor": {"dtype": "DT_FLOAT", "tensorShape": {"dim": [{"size": "128"}]}}}, "dtype": {"type": "DT_FLOAT"}}}, {"name": "model_27/tf.strided_slice_21/ones_like/tensor", "op": "Const", "attr": {"dtype": {"type": "DT_INT64"}, "value": {"tensor": {"dtype": "DT_INT64", "tensorShape": {"dim": [{"size": "4"}]}}}}}, {"name": "model_27/tf.strided_slice_21/StridedSlice/end", "op": "Const", "attr": {"dtype": {"type": "DT_INT64"}, "value": {"tensor": {"dtype": "DT_INT64", "tensorShape": {"dim": [{"size": "4"}]}}}}}, {"name": "model_27/tf.strided_slice_21/ones_like", "op": "Const", "attr": {"dtype": {"type": "DT_INT64"}, "value": {"tensor": {"dtype": "DT_INT64", "tensorShape": {"dim": [{"size": "4"}]}}}}}, {"name": "model_27/tf.nn.convolution_107/convolution/filter", "op": "Const", "attr": {"dtype": {"type": "DT_FLOAT"}, "value": {"tensor": {"dtype": "DT_FLOAT", "tensorShape": {"dim": [{"size": "3"}, {"size": "3"}, {"size": "64"}, {"size": "64"}]}}}}}, {"name": "model_27/tf.math.add_144/Add/y", "op": "Const", "attr": {"value": {"tensor": {"dtype": "DT_FLOAT", "tensorShape": {"dim": [{"size": "64"}]}}}, "dtype": {"type": "DT_FLOAT"}}}, {"name": "model_27/tf.nn.convolution_108/convolution/filter", "op": "Const", "attr": {"dtype": {"type": "DT_FLOAT"}, "value": {"tensor": {"dtype": "DT_FLOAT", "tensorShape": {"dim": [{"size": "3"}, {"size": "3"}, {"size": "64"}, {"size": "64"}]}}}}}, {"name": "model_27/tf.math.add_145/Add/y", "op": "Const", "attr": {"dtype": {"type": "DT_FLOAT"}, "value": {"tensor": {"dtype": "DT_FLOAT", "tensorShape": {"dim": [{"size": "64"}]}}}}}, {"name": "model_27/tf.nn.convolution_109/convolution/filter", "op": "Const", "attr": {"dtype": {"type": "DT_FLOAT"}, "value": {"tensor": {"dtype": "DT_FLOAT", "tensorShape": {"dim": [{"size": "3"}, {"size": "3"}, {"size": "64"}, {"size": "64"}]}}}}}, {"name": "model_27/tf.math.add_148/Add/y", "op": "Const", "attr": {"value": {"tensor": {"dtype": "DT_FLOAT", "tensorShape": {"dim": [{"size": "64"}]}}}, "dtype": {"type": "DT_FLOAT"}}}, {"name": "model_27/tf.nn.convolution_110/convolution/filter", "op": "Const", "attr": {"value": {"tensor": {"dtype": "DT_FLOAT", "tensorShape": {"dim": [{"size": "3"}, {"size": "3"}, {"size": "64"}, {"size": "64"}]}}}, "dtype": {"type": "DT_FLOAT"}}}, {"name": "model_27/tf.math.add_149/Add/y", "op": "Const", "attr": {"value": {"tensor": {"dtype": "DT_FLOAT", "tensorShape": {"dim": [{"size": "64"}]}}}, "dtype": {"type": "DT_FLOAT"}}}, {"name": "model_27/tf.nn.convolution_111/convolution/filter", "op": "Const", "attr": {"dtype": {"type": "DT_FLOAT"}, "value": {"tensor": {"dtype": "DT_FLOAT", "tensorShape": {"dim": [{"size": "3"}, {"size": "3"}, {"size": "64"}, {"size": "64"}]}}}}}, {"name": "model_27/tf.math.add_152/Add/y", "op": "Const", "attr": {"dtype": {"type": "DT_FLOAT"}, "value": {"tensor": {"dtype": "DT_FLOAT", "tensorShape": {"dim": [{"size": "64"}]}}}}}, {"name": "model_27/tf.nn.convolution_112/convolution/filter", "op": "Const", "attr": {"dtype": {"type": "DT_FLOAT"}, "value": {"tensor": {"dtype": "DT_FLOAT", "tensorShape": {"dim": [{"size": "3"}, {"size": "3"}, {"size": "64"}, {"size": "64"}]}}}}}, {"name": "model_27/tf.math.add_153/Add/y", "op": "Const", "attr": {"dtype": {"type": "DT_FLOAT"}, "value": {"tensor": {"dtype": "DT_FLOAT", "tensorShape": {"dim": [{"size": "64"}]}}}}}, {"name": "model_27/tf.concat_22/concat/axis", "op": "Const", "attr": {"value": {"tensor": {"dtype": "DT_INT32", "tensorShape": {}}}, "dtype": {"type": "DT_INT32"}}}, {"name": "model_27/tf.nn.convolution_113/convolution/filter", "op": "Const", "attr": {"value": {"tensor": {"dtype": "DT_FLOAT", "tensorShape": {"dim": [{"size": "1"}, {"size": "1"}, {"size": "320"}, {"size": "128"}]}}}, "dtype": {"type": "DT_FLOAT"}}}, {"name": "model_27/tf.math.add_156/Add/y", "op": "Const", "attr": {"value": {"tensor": {"dtype": "DT_FLOAT", "tensorShape": {"dim": [{"size": "128"}]}}}, "dtype": {"type": "DT_FLOAT"}}}, {"name": "model_27/tf.compat.v1.pad_9/Pad/paddings", "op": "Const", "attr": {"dtype": {"type": "DT_INT32"}, "value": {"tensor": {"dtype": "DT_INT32", "tensorShape": {"dim": [{"size": "4"}, {"size": "2"}]}}}}}, {"name": "model_27/tf.nn.convolution_114/convolution/filter", "op": "Const", "attr": {"value": {"tensor": {"dtype": "DT_FLOAT", "tensorShape": {"dim": [{"size": "3"}, {"size": "3"}, {"size": "128"}, {"size": "256"}]}}}, "dtype": {"type": "DT_FLOAT"}}}, {"name": "model_27/tf.math.add_157/Add/y", "op": "Const", "attr": {"dtype": {"type": "DT_FLOAT"}, "value": {"tensor": {"dtype": "DT_FLOAT", "tensorShape": {"dim": [{"size": "256"}]}}}}}, {"name": "model_27/tf.nn.convolution_115/convolution/filter", "op": "Const", "attr": {"dtype": {"type": "DT_FLOAT"}, "value": {"tensor": {"dtype": "DT_FLOAT", "tensorShape": {"dim": [{"size": "1"}, {"size": "1"}, {"size": "256"}, {"size": "256"}]}}}}}, {"name": "model_27/tf.math.add_158/Add/y", "op": "Const", "attr": {"dtype": {"type": "DT_FLOAT"}, "value": {"tensor": {"dtype": "DT_FLOAT", "tensorShape": {"dim": [{"size": "256"}]}}}}}, {"name": "model_27/tf.strided_slice_23/ones_like/tensor", "op": "Const", "attr": {"dtype": {"type": "DT_INT64"}, "value": {"tensor": {"dtype": "DT_INT64", "tensorShape": {"dim": [{"size": "4"}]}}}}}, {"name": "model_27/tf.strided_slice_23/StridedSlice/end", "op": "Const", "attr": {"value": {"tensor": {"dtype": "DT_INT64", "tensorShape": {"dim": [{"size": "4"}]}}}, "dtype": {"type": "DT_INT64"}}}, {"name": "model_27/tf.strided_slice_23/ones_like", "op": "Const", "attr": {"dtype": {"type": "DT_INT64"}, "value": {"tensor": {"dtype": "DT_INT64", "tensorShape": {"dim": [{"size": "4"}]}}}}}, {"name": "model_27/tf.nn.convolution_116/convolution/filter", "op": "Const", "attr": {"value": {"tensor": {"dtype": "DT_FLOAT", "tensorShape": {"dim": [{"size": "3"}, {"size": "3"}, {"size": "128"}, {"size": "128"}]}}}, "dtype": {"type": "DT_FLOAT"}}}, {"name": "model_27/tf.math.add_159/Add/y", "op": "Const", "attr": {"value": {"tensor": {"dtype": "DT_FLOAT", "tensorShape": {"dim": [{"size": "128"}]}}}, "dtype": {"type": "DT_FLOAT"}}}, {"name": "model_27/tf.nn.convolution_117/convolution/filter", "op": "Const", "attr": {"dtype": {"type": "DT_FLOAT"}, "value": {"tensor": {"dtype": "DT_FLOAT", "tensorShape": {"dim": [{"size": "3"}, {"size": "3"}, {"size": "128"}, {"size": "128"}]}}}}}, {"name": "model_27/tf.math.add_160/Add/y", "op": "Const", "attr": {"dtype": {"type": "DT_FLOAT"}, "value": {"tensor": {"dtype": "DT_FLOAT", "tensorShape": {"dim": [{"size": "128"}]}}}}}, {"name": "model_27/tf.nn.convolution_118/convolution/filter", "op": "Const", "attr": {"dtype": {"type": "DT_FLOAT"}, "value": {"tensor": {"dtype": "DT_FLOAT", "tensorShape": {"dim": [{"size": "3"}, {"size": "3"}, {"size": "128"}, {"size": "128"}]}}}}}, {"name": "model_27/tf.math.add_163/Add/y", "op": "Const", "attr": {"dtype": {"type": "DT_FLOAT"}, "value": {"tensor": {"dtype": "DT_FLOAT", "tensorShape": {"dim": [{"size": "128"}]}}}}}, {"name": "model_27/tf.nn.convolution_119/convolution/filter", "op": "Const", "attr": {"value": {"tensor": {"dtype": "DT_FLOAT", "tensorShape": {"dim": [{"size": "3"}, {"size": "3"}, {"size": "128"}, {"size": "128"}]}}}, "dtype": {"type": "DT_FLOAT"}}}, {"name": "model_27/tf.math.add_164/Add/y", "op": "Const", "attr": {"value": {"tensor": {"dtype": "DT_FLOAT", "tensorShape": {"dim": [{"size": "128"}]}}}, "dtype": {"type": "DT_FLOAT"}}}, {"name": "model_27/tf.nn.convolution_120/convolution/filter", "op": "Const", "attr": {"value": {"tensor": {"dtype": "DT_FLOAT", "tensorShape": {"dim": [{"size": "3"}, {"size": "3"}, {"size": "128"}, {"size": "128"}]}}}, "dtype": {"type": "DT_FLOAT"}}}, {"name": "model_27/tf.math.add_167/Add/y", "op": "Const", "attr": {"dtype": {"type": "DT_FLOAT"}, "value": {"tensor": {"dtype": "DT_FLOAT", "tensorShape": {"dim": [{"size": "128"}]}}}}}, {"name": "model_27/tf.nn.convolution_121/convolution/filter", "op": "Const", "attr": {"value": {"tensor": {"dtype": "DT_FLOAT", "tensorShape": {"dim": [{"size": "3"}, {"size": "3"}, {"size": "128"}, {"size": "128"}]}}}, "dtype": {"type": "DT_FLOAT"}}}, {"name": "model_27/tf.math.add_168/Add/y", "op": "Const", "attr": {"value": {"tensor": {"dtype": "DT_FLOAT", "tensorShape": {"dim": [{"size": "128"}]}}}, "dtype": {"type": "DT_FLOAT"}}}, {"name": "model_27/tf.nn.convolution_122/convolution/filter", "op": "Const", "attr": {"dtype": {"type": "DT_FLOAT"}, "value": {"tensor": {"dtype": "DT_FLOAT", "tensorShape": {"dim": [{"size": "3"}, {"size": "3"}, {"size": "128"}, {"size": "128"}]}}}}}, {"name": "model_27/tf.math.add_171/Add/y", "op": "Const", "attr": {"value": {"tensor": {"dtype": "DT_FLOAT", "tensorShape": {"dim": [{"size": "128"}]}}}, "dtype": {"type": "DT_FLOAT"}}}, {"name": "model_27/tf.nn.convolution_123/convolution/filter", "op": "Const", "attr": {"value": {"tensor": {"dtype": "DT_FLOAT", "tensorShape": {"dim": [{"size": "3"}, {"size": "3"}, {"size": "128"}, {"size": "128"}]}}}, "dtype": {"type": "DT_FLOAT"}}}, {"name": "model_27/tf.math.add_172/Add/y", "op": "Const", "attr": {"dtype": {"type": "DT_FLOAT"}, "value": {"tensor": {"dtype": "DT_FLOAT", "tensorShape": {"dim": [{"size": "128"}]}}}}}, {"name": "model_27/tf.nn.convolution_124/convolution/filter", "op": "Const", "attr": {"value": {"tensor": {"dtype": "DT_FLOAT", "tensorShape": {"dim": [{"size": "3"}, {"size": "3"}, {"size": "128"}, {"size": "128"}]}}}, "dtype": {"type": "DT_FLOAT"}}}, {"name": "model_27/tf.math.add_175/Add/y", "op": "Const", "attr": {"dtype": {"type": "DT_FLOAT"}, "value": {"tensor": {"dtype": "DT_FLOAT", "tensorShape": {"dim": [{"size": "128"}]}}}}}, {"name": "model_27/tf.nn.convolution_125/convolution/filter", "op": "Const", "attr": {"dtype": {"type": "DT_FLOAT"}, "value": {"tensor": {"dtype": "DT_FLOAT", "tensorShape": {"dim": [{"size": "3"}, {"size": "3"}, {"size": "128"}, {"size": "128"}]}}}}}, {"name": "model_27/tf.math.add_176/Add/y", "op": "Const", "attr": {"value": {"tensor": {"dtype": "DT_FLOAT", "tensorShape": {"dim": [{"size": "128"}]}}}, "dtype": {"type": "DT_FLOAT"}}}, {"name": "model_27/tf.nn.convolution_126/convolution/filter", "op": "Const", "attr": {"value": {"tensor": {"dtype": "DT_FLOAT", "tensorShape": {"dim": [{"size": "3"}, {"size": "3"}, {"size": "128"}, {"size": "128"}]}}}, "dtype": {"type": "DT_FLOAT"}}}, {"name": "model_27/tf.math.add_179/Add/y", "op": "Const", "attr": {"dtype": {"type": "DT_FLOAT"}, "value": {"tensor": {"dtype": "DT_FLOAT", "tensorShape": {"dim": [{"size": "128"}]}}}}}, {"name": "model_27/tf.nn.convolution_127/convolution/filter", "op": "Const", "attr": {"value": {"tensor": {"dtype": "DT_FLOAT", "tensorShape": {"dim": [{"size": "3"}, {"size": "3"}, {"size": "128"}, {"size": "128"}]}}}, "dtype": {"type": "DT_FLOAT"}}}, {"name": "model_27/tf.math.add_180/Add/y", "op": "Const", "attr": {"dtype": {"type": "DT_FLOAT"}, "value": {"tensor": {"dtype": "DT_FLOAT", "tensorShape": {"dim": [{"size": "128"}]}}}}}, {"name": "model_27/tf.concat_23/concat/axis", "op": "Const", "attr": {"value": {"tensor": {"dtype": "DT_INT32", "tensorShape": {}}}, "dtype": {"type": "DT_INT32"}}}, {"name": "model_27/tf.nn.convolution_128/convolution/filter", "op": "Const", "attr": {"value": {"tensor": {"dtype": "DT_FLOAT", "tensorShape": {"dim": [{"size": "1"}, {"size": "1"}, {"size": "1024"}, {"size": "256"}]}}}, "dtype": {"type": "DT_FLOAT"}}}, {"name": "model_27/tf.math.add_183/Add/y", "op": "Const", "attr": {"value": {"tensor": {"dtype": "DT_FLOAT", "tensorShape": {"dim": [{"size": "256"}]}}}, "dtype": {"type": "DT_FLOAT"}}}, {"name": "model_27/tf.compat.v1.pad_10/Pad/paddings", "op": "Const", "attr": {"value": {"tensor": {"dtype": "DT_INT32", "tensorShape": {"dim": [{"size": "4"}, {"size": "2"}]}}}, "dtype": {"type": "DT_INT32"}}}, {"name": "model_27/tf.nn.convolution_129/convolution/filter", "op": "Const", "attr": {"dtype": {"type": "DT_FLOAT"}, "value": {"tensor": {"dtype": "DT_FLOAT", "tensorShape": {"dim": [{"size": "3"}, {"size": "3"}, {"size": "256"}, {"size": "512"}]}}}}}, {"name": "model_27/tf.math.add_184/Add/y", "op": "Const", "attr": {"value": {"tensor": {"dtype": "DT_FLOAT", "tensorShape": {"dim": [{"size": "512"}]}}}, "dtype": {"type": "DT_FLOAT"}}}, {"name": "model_27/tf.nn.convolution_130/convolution/filter", "op": "Const", "attr": {"value": {"tensor": {"dtype": "DT_FLOAT", "tensorShape": {"dim": [{"size": "1"}, {"size": "1"}, {"size": "512"}, {"size": "512"}]}}}, "dtype": {"type": "DT_FLOAT"}}}, {"name": "model_27/tf.math.add_185/Add/y", "op": "Const", "attr": {"value": {"tensor": {"dtype": "DT_FLOAT", "tensorShape": {"dim": [{"size": "512"}]}}}, "dtype": {"type": "DT_FLOAT"}}}, {"name": "model_27/tf.strided_slice_25/ones_like/tensor", "op": "Const", "attr": {"value": {"tensor": {"dtype": "DT_INT64", "tensorShape": {"dim": [{"size": "4"}]}}}, "dtype": {"type": "DT_INT64"}}}, {"name": "model_27/tf.strided_slice_25/StridedSlice/end", "op": "Const", "attr": {"dtype": {"type": "DT_INT64"}, "value": {"tensor": {"dtype": "DT_INT64", "tensorShape": {"dim": [{"size": "4"}]}}}}}, {"name": "model_27/tf.strided_slice_25/ones_like", "op": "Const", "attr": {"value": {"tensor": {"dtype": "DT_INT64", "tensorShape": {"dim": [{"size": "4"}]}}}, "dtype": {"type": "DT_INT64"}}}, {"name": "model_27/tf.nn.convolution_131/convolution/filter", "op": "Const", "attr": {"value": {"tensor": {"dtype": "DT_FLOAT", "tensorShape": {"dim": [{"size": "3"}, {"size": "3"}, {"size": "256"}, {"size": "256"}]}}}, "dtype": {"type": "DT_FLOAT"}}}, {"name": "model_27/tf.math.add_186/Add/y", "op": "Const", "attr": {"dtype": {"type": "DT_FLOAT"}, "value": {"tensor": {"dtype": "DT_FLOAT", "tensorShape": {"dim": [{"size": "256"}]}}}}}, {"name": "model_27/tf.nn.convolution_132/convolution/filter", "op": "Const", "attr": {"dtype": {"type": "DT_FLOAT"}, "value": {"tensor": {"dtype": "DT_FLOAT", "tensorShape": {"dim": [{"size": "3"}, {"size": "3"}, {"size": "256"}, {"size": "256"}]}}}}}, {"name": "model_27/tf.math.add_187/Add/y", "op": "Const", "attr": {"dtype": {"type": "DT_FLOAT"}, "value": {"tensor": {"dtype": "DT_FLOAT", "tensorShape": {"dim": [{"size": "256"}]}}}}}, {"name": "model_27/tf.nn.convolution_133/convolution/filter", "op": "Const", "attr": {"dtype": {"type": "DT_FLOAT"}, "value": {"tensor": {"dtype": "DT_FLOAT", "tensorShape": {"dim": [{"size": "3"}, {"size": "3"}, {"size": "256"}, {"size": "256"}]}}}}}, {"name": "model_27/tf.math.add_190/Add/y", "op": "Const", "attr": {"dtype": {"type": "DT_FLOAT"}, "value": {"tensor": {"dtype": "DT_FLOAT", "tensorShape": {"dim": [{"size": "256"}]}}}}}, {"name": "model_27/tf.nn.convolution_134/convolution/filter", "op": "Const", "attr": {"value": {"tensor": {"dtype": "DT_FLOAT", "tensorShape": {"dim": [{"size": "3"}, {"size": "3"}, {"size": "256"}, {"size": "256"}]}}}, "dtype": {"type": "DT_FLOAT"}}}, {"name": "model_27/tf.math.add_191/Add/y", "op": "Const", "attr": {"value": {"tensor": {"dtype": "DT_FLOAT", "tensorShape": {"dim": [{"size": "256"}]}}}, "dtype": {"type": "DT_FLOAT"}}}, {"name": "model_27/tf.nn.convolution_135/convolution/filter", "op": "Const", "attr": {"value": {"tensor": {"dtype": "DT_FLOAT", "tensorShape": {"dim": [{"size": "3"}, {"size": "3"}, {"size": "256"}, {"size": "256"}]}}}, "dtype": {"type": "DT_FLOAT"}}}, {"name": "model_27/tf.math.add_194/Add/y", "op": "Const", "attr": {"dtype": {"type": "DT_FLOAT"}, "value": {"tensor": {"dtype": "DT_FLOAT", "tensorShape": {"dim": [{"size": "256"}]}}}}}, {"name": "model_27/tf.nn.convolution_136/convolution/filter", "op": "Const", "attr": {"value": {"tensor": {"dtype": "DT_FLOAT", "tensorShape": {"dim": [{"size": "3"}, {"size": "3"}, {"size": "256"}, {"size": "256"}]}}}, "dtype": {"type": "DT_FLOAT"}}}, {"name": "model_27/tf.math.add_195/Add/y", "op": "Const", "attr": {"dtype": {"type": "DT_FLOAT"}, "value": {"tensor": {"dtype": "DT_FLOAT", "tensorShape": {"dim": [{"size": "256"}]}}}}}, {"name": "model_27/tf.nn.convolution_137/convolution/filter", "op": "Const", "attr": {"dtype": {"type": "DT_FLOAT"}, "value": {"tensor": {"dtype": "DT_FLOAT", "tensorShape": {"dim": [{"size": "3"}, {"size": "3"}, {"size": "256"}, {"size": "256"}]}}}}}, {"name": "model_27/tf.math.add_198/Add/y", "op": "Const", "attr": {"dtype": {"type": "DT_FLOAT"}, "value": {"tensor": {"dtype": "DT_FLOAT", "tensorShape": {"dim": [{"size": "256"}]}}}}}, {"name": "model_27/tf.nn.convolution_138/convolution/filter", "op": "Const", "attr": {"dtype": {"type": "DT_FLOAT"}, "value": {"tensor": {"dtype": "DT_FLOAT", "tensorShape": {"dim": [{"size": "3"}, {"size": "3"}, {"size": "256"}, {"size": "256"}]}}}}}, {"name": "model_27/tf.math.add_199/Add/y", "op": "Const", "attr": {"dtype": {"type": "DT_FLOAT"}, "value": {"tensor": {"dtype": "DT_FLOAT", "tensorShape": {"dim": [{"size": "256"}]}}}}}, {"name": "model_27/tf.nn.convolution_139/convolution/filter", "op": "Const", "attr": {"dtype": {"type": "DT_FLOAT"}, "value": {"tensor": {"dtype": "DT_FLOAT", "tensorShape": {"dim": [{"size": "3"}, {"size": "3"}, {"size": "256"}, {"size": "256"}]}}}}}, {"name": "model_27/tf.math.add_202/Add/y", "op": "Const", "attr": {"value": {"tensor": {"dtype": "DT_FLOAT", "tensorShape": {"dim": [{"size": "256"}]}}}, "dtype": {"type": "DT_FLOAT"}}}, {"name": "model_27/tf.nn.convolution_140/convolution/filter", "op": "Const", "attr": {"value": {"tensor": {"dtype": "DT_FLOAT", "tensorShape": {"dim": [{"size": "3"}, {"size": "3"}, {"size": "256"}, {"size": "256"}]}}}, "dtype": {"type": "DT_FLOAT"}}}, {"name": "model_27/tf.math.add_203/Add/y", "op": "Const", "attr": {"value": {"tensor": {"dtype": "DT_FLOAT", "tensorShape": {"dim": [{"size": "256"}]}}}, "dtype": {"type": "DT_FLOAT"}}}, {"name": "model_27/tf.nn.convolution_141/convolution/filter", "op": "Const", "attr": {"dtype": {"type": "DT_FLOAT"}, "value": {"tensor": {"dtype": "DT_FLOAT", "tensorShape": {"dim": [{"size": "3"}, {"size": "3"}, {"size": "256"}, {"size": "256"}]}}}}}, {"name": "model_27/tf.math.add_206/Add/y", "op": "Const", "attr": {"dtype": {"type": "DT_FLOAT"}, "value": {"tensor": {"dtype": "DT_FLOAT", "tensorShape": {"dim": [{"size": "256"}]}}}}}, {"name": "model_27/tf.nn.convolution_142/convolution/filter", "op": "Const", "attr": {"dtype": {"type": "DT_FLOAT"}, "value": {"tensor": {"dtype": "DT_FLOAT", "tensorShape": {"dim": [{"size": "3"}, {"size": "3"}, {"size": "256"}, {"size": "256"}]}}}}}, {"name": "model_27/tf.math.add_207/Add/y", "op": "Const", "attr": {"dtype": {"type": "DT_FLOAT"}, "value": {"tensor": {"dtype": "DT_FLOAT", "tensorShape": {"dim": [{"size": "256"}]}}}}}, {"name": "model_27/tf.concat_24/concat/axis", "op": "Const", "attr": {"value": {"tensor": {"dtype": "DT_INT32", "tensorShape": {}}}, "dtype": {"type": "DT_INT32"}}}, {"name": "model_27/tf.nn.convolution_143/convolution/filter", "op": "Const", "attr": {"value": {"tensor": {"dtype": "DT_FLOAT", "tensorShape": {"dim": [{"size": "1"}, {"size": "1"}, {"size": "2048"}, {"size": "512"}]}}}, "dtype": {"type": "DT_FLOAT"}}}, {"name": "model_27/tf.math.add_210/Add/y", "op": "Const", "attr": {"dtype": {"type": "DT_FLOAT"}, "value": {"tensor": {"dtype": "DT_FLOAT", "tensorShape": {"dim": [{"size": "512"}]}}}}}, {"name": "model_27/tf.compat.v1.pad_11/Pad/paddings", "op": "Const", "attr": {"value": {"tensor": {"dtype": "DT_INT32", "tensorShape": {"dim": [{"size": "4"}, {"size": "2"}]}}}, "dtype": {"type": "DT_INT32"}}}, {"name": "model_27/tf.nn.convolution_144/convolution/filter", "op": "Const", "attr": {"value": {"tensor": {"dtype": "DT_FLOAT", "tensorShape": {"dim": [{"size": "3"}, {"size": "3"}, {"size": "512"}, {"size": "512"}]}}}, "dtype": {"type": "DT_FLOAT"}}}, {"name": "model_27/tf.math.add_211/Add/y", "op": "Const", "attr": {"value": {"tensor": {"dtype": "DT_FLOAT", "tensorShape": {"dim": [{"size": "512"}]}}}, "dtype": {"type": "DT_FLOAT"}}}, {"name": "model_27/tf.nn.convolution_145/convolution/filter", "op": "Const", "attr": {"dtype": {"type": "DT_FLOAT"}, "value": {"tensor": {"dtype": "DT_FLOAT", "tensorShape": {"dim": [{"size": "1"}, {"size": "1"}, {"size": "512"}, {"size": "512"}]}}}}}, {"name": "model_27/tf.math.add_212/Add/y", "op": "Const", "attr": {"dtype": {"type": "DT_FLOAT"}, "value": {"tensor": {"dtype": "DT_FLOAT", "tensorShape": {"dim": [{"size": "512"}]}}}}}, {"name": "model_27/tf.strided_slice_27/ones_like/tensor", "op": "Const", "attr": {"dtype": {"type": "DT_INT64"}, "value": {"tensor": {"dtype": "DT_INT64", "tensorShape": {"dim": [{"size": "4"}]}}}}}, {"name": "model_27/tf.strided_slice_27/StridedSlice/end", "op": "Const", "attr": {"dtype": {"type": "DT_INT64"}, "value": {"tensor": {"dtype": "DT_INT64", "tensorShape": {"dim": [{"size": "4"}]}}}}}, {"name": "model_27/tf.strided_slice_27/ones_like", "op": "Const", "attr": {"dtype": {"type": "DT_INT64"}, "value": {"tensor": {"dtype": "DT_INT64", "tensorShape": {"dim": [{"size": "4"}]}}}}}, {"name": "model_27/tf.nn.convolution_146/convolution/filter", "op": "Const", "attr": {"value": {"tensor": {"dtype": "DT_FLOAT", "tensorShape": {"dim": [{"size": "3"}, {"size": "3"}, {"size": "256"}, {"size": "256"}]}}}, "dtype": {"type": "DT_FLOAT"}}}, {"name": "model_27/tf.math.add_213/Add/y", "op": "Const", "attr": {"dtype": {"type": "DT_FLOAT"}, "value": {"tensor": {"dtype": "DT_FLOAT", "tensorShape": {"dim": [{"size": "256"}]}}}}}, {"name": "model_27/tf.nn.convolution_147/convolution/filter", "op": "Const", "attr": {"value": {"tensor": {"dtype": "DT_FLOAT", "tensorShape": {"dim": [{"size": "3"}, {"size": "3"}, {"size": "256"}, {"size": "256"}]}}}, "dtype": {"type": "DT_FLOAT"}}}, {"name": "model_27/tf.math.add_214/Add/y", "op": "Const", "attr": {"value": {"tensor": {"dtype": "DT_FLOAT", "tensorShape": {"dim": [{"size": "256"}]}}}, "dtype": {"type": "DT_FLOAT"}}}, {"name": "model_27/tf.nn.convolution_148/convolution/filter", "op": "Const", "attr": {"value": {"tensor": {"dtype": "DT_FLOAT", "tensorShape": {"dim": [{"size": "3"}, {"size": "3"}, {"size": "256"}, {"size": "256"}]}}}, "dtype": {"type": "DT_FLOAT"}}}, {"name": "model_27/tf.math.add_217/Add/y", "op": "Const", "attr": {"value": {"tensor": {"dtype": "DT_FLOAT", "tensorShape": {"dim": [{"size": "256"}]}}}, "dtype": {"type": "DT_FLOAT"}}}, {"name": "model_27/tf.nn.convolution_149/convolution/filter", "op": "Const", "attr": {"dtype": {"type": "DT_FLOAT"}, "value": {"tensor": {"dtype": "DT_FLOAT", "tensorShape": {"dim": [{"size": "3"}, {"size": "3"}, {"size": "256"}, {"size": "256"}]}}}}}, {"name": "model_27/tf.math.add_218/Add/y", "op": "Const", "attr": {"value": {"tensor": {"dtype": "DT_FLOAT", "tensorShape": {"dim": [{"size": "256"}]}}}, "dtype": {"type": "DT_FLOAT"}}}, {"name": "model_27/tf.nn.convolution_150/convolution/filter", "op": "Const", "attr": {"value": {"tensor": {"dtype": "DT_FLOAT", "tensorShape": {"dim": [{"size": "3"}, {"size": "3"}, {"size": "256"}, {"size": "256"}]}}}, "dtype": {"type": "DT_FLOAT"}}}, {"name": "model_27/tf.math.add_221/Add/y", "op": "Const", "attr": {"value": {"tensor": {"dtype": "DT_FLOAT", "tensorShape": {"dim": [{"size": "256"}]}}}, "dtype": {"type": "DT_FLOAT"}}}, {"name": "model_27/tf.nn.convolution_151/convolution/filter", "op": "Const", "attr": {"dtype": {"type": "DT_FLOAT"}, "value": {"tensor": {"dtype": "DT_FLOAT", "tensorShape": {"dim": [{"size": "3"}, {"size": "3"}, {"size": "256"}, {"size": "256"}]}}}}}, {"name": "model_27/tf.math.add_222/Add/y", "op": "Const", "attr": {"dtype": {"type": "DT_FLOAT"}, "value": {"tensor": {"dtype": "DT_FLOAT", "tensorShape": {"dim": [{"size": "256"}]}}}}}, {"name": "model_27/tf.concat_25/concat/axis", "op": "Const", "attr": {"value": {"tensor": {"dtype": "DT_INT32", "tensorShape": {}}}, "dtype": {"type": "DT_INT32"}}}, {"name": "model_27/tf.nn.convolution_152/convolution/filter", "op": "Const", "attr": {"value": {"tensor": {"dtype": "DT_FLOAT", "tensorShape": {"dim": [{"size": "1"}, {"size": "1"}, {"size": "1280"}, {"size": "512"}]}}}, "dtype": {"type": "DT_FLOAT"}}}, {"name": "model_27/tf.math.add_225/Add/y", "op": "Const", "attr": {"dtype": {"type": "DT_FLOAT"}, "value": {"tensor": {"dtype": "DT_FLOAT", "tensorShape": {"dim": [{"size": "512"}]}}}}}, {"name": "model_27/tf.nn.convolution_153/convolution/filter", "op": "Const", "attr": {"value": {"tensor": {"dtype": "DT_FLOAT", "tensorShape": {"dim": [{"size": "1"}, {"size": "1"}, {"size": "512"}, {"size": "256"}]}}}, "dtype": {"type": "DT_FLOAT"}}}, {"name": "model_27/tf.math.add_226/Add/y", "op": "Const", "attr": {"value": {"tensor": {"dtype": "DT_FLOAT", "tensorShape": {"dim": [{"size": "256"}]}}}, "dtype": {"type": "DT_FLOAT"}}}, {"name": "model_27/tf.concat_26/concat/axis", "op": "Const", "attr": {"value": {"tensor": {"dtype": "DT_INT32", "tensorShape": {}}}, "dtype": {"type": "DT_INT32"}}}, {"name": "model_27/tf.nn.convolution_154/convolution/filter", "op": "Const", "attr": {"dtype": {"type": "DT_FLOAT"}, "value": {"tensor": {"dtype": "DT_FLOAT", "tensorShape": {"dim": [{"size": "1"}, {"size": "1"}, {"size": "1024"}, {"size": "512"}]}}}}}, {"name": "model_27/tf.math.add_227/Add/y", "op": "Const", "attr": {"value": {"tensor": {"dtype": "DT_FLOAT", "tensorShape": {"dim": [{"size": "512"}]}}}, "dtype": {"type": "DT_FLOAT"}}}, {"name": "model_27/tf.concat_34/concat/axis", "op": "Const", "attr": {"dtype": {"type": "DT_INT32"}, "value": {"tensor": {"dtype": "DT_INT32", "tensorShape": {}}}}}, {"name": "model_27/tf.nn.convolution_191/convolution/filter", "op": "Const", "attr": {"value": {"tensor": {"dtype": "DT_FLOAT", "tensorShape": {"dim": [{"size": "1"}, {"size": "1"}, {"size": "1024"}, {"size": "512"}]}}}, "dtype": {"type": "DT_FLOAT"}}}, {"name": "model_27/tf.math.add_264/Add/y", "op": "Const", "attr": {"value": {"tensor": {"dtype": "DT_FLOAT", "tensorShape": {"dim": [{"size": "512"}]}}}, "dtype": {"type": "DT_FLOAT"}}}, {"name": "model_27/tf.strided_slice_35/ones_like/tensor", "op": "Const", "attr": {"value": {"tensor": {"dtype": "DT_INT64", "tensorShape": {"dim": [{"size": "4"}]}}}, "dtype": {"type": "DT_INT64"}}}, {"name": "model_27/tf.strided_slice_35/StridedSlice/end", "op": "Const", "attr": {"value": {"tensor": {"dtype": "DT_INT64", "tensorShape": {"dim": [{"size": "4"}]}}}, "dtype": {"type": "DT_INT64"}}}, {"name": "model_27/tf.strided_slice_35/ones_like", "op": "Const", "attr": {"dtype": {"type": "DT_INT64"}, "value": {"tensor": {"dtype": "DT_INT64", "tensorShape": {"dim": [{"size": "4"}]}}}}}, {"name": "model_27/tf.nn.convolution_194/convolution/filter", "op": "Const", "attr": {"value": {"tensor": {"dtype": "DT_FLOAT", "tensorShape": {"dim": [{"size": "3"}, {"size": "3"}, {"size": "256"}, {"size": "256"}]}}}, "dtype": {"type": "DT_FLOAT"}}}, {"name": "model_27/tf.math.add_267/Add/y", "op": "Const", "attr": {"value": {"tensor": {"dtype": "DT_FLOAT", "tensorShape": {"dim": [{"size": "256"}]}}}, "dtype": {"type": "DT_FLOAT"}}}, {"name": "model_27/tf.nn.convolution_195/convolution/filter", "op": "Const", "attr": {"dtype": {"type": "DT_FLOAT"}, "value": {"tensor": {"dtype": "DT_FLOAT", "tensorShape": {"dim": [{"size": "3"}, {"size": "3"}, {"size": "256"}, {"size": "256"}]}}}}}, {"name": "model_27/tf.math.add_268/Add/y", "op": "Const", "attr": {"dtype": {"type": "DT_FLOAT"}, "value": {"tensor": {"dtype": "DT_FLOAT", "tensorShape": {"dim": [{"size": "256"}]}}}}}, {"name": "model_27/tf.nn.convolution_196/convolution/filter", "op": "Const", "attr": {"dtype": {"type": "DT_FLOAT"}, "value": {"tensor": {"dtype": "DT_FLOAT", "tensorShape": {"dim": [{"size": "3"}, {"size": "3"}, {"size": "256"}, {"size": "256"}]}}}}}, {"name": "model_27/tf.math.add_269/Add/y", "op": "Const", "attr": {"dtype": {"type": "DT_FLOAT"}, "value": {"tensor": {"dtype": "DT_FLOAT", "tensorShape": {"dim": [{"size": "256"}]}}}}}, {"name": "model_27/tf.nn.convolution_197/convolution/filter", "op": "Const", "attr": {"dtype": {"type": "DT_FLOAT"}, "value": {"tensor": {"dtype": "DT_FLOAT", "tensorShape": {"dim": [{"size": "3"}, {"size": "3"}, {"size": "256"}, {"size": "256"}]}}}}}, {"name": "model_27/tf.math.add_270/Add/y", "op": "Const", "attr": {"value": {"tensor": {"dtype": "DT_FLOAT", "tensorShape": {"dim": [{"size": "256"}]}}}, "dtype": {"type": "DT_FLOAT"}}}, {"name": "model_27/tf.nn.convolution_198/convolution/filter", "op": "Const", "attr": {"dtype": {"type": "DT_FLOAT"}, "value": {"tensor": {"dtype": "DT_FLOAT", "tensorShape": {"dim": [{"size": "3"}, {"size": "3"}, {"size": "256"}, {"size": "256"}]}}}}}, {"name": "model_27/tf.math.add_271/Add/y", "op": "Const", "attr": {"dtype": {"type": "DT_FLOAT"}, "value": {"tensor": {"dtype": "DT_FLOAT", "tensorShape": {"dim": [{"size": "256"}]}}}}}, {"name": "model_27/tf.nn.convolution_199/convolution/filter", "op": "Const", "attr": {"dtype": {"type": "DT_FLOAT"}, "value": {"tensor": {"dtype": "DT_FLOAT", "tensorShape": {"dim": [{"size": "3"}, {"size": "3"}, {"size": "256"}, {"size": "256"}]}}}}}, {"name": "model_27/tf.math.add_272/Add/y", "op": "Const", "attr": {"dtype": {"type": "DT_FLOAT"}, "value": {"tensor": {"dtype": "DT_FLOAT", "tensorShape": {"dim": [{"size": "256"}]}}}}}, {"name": "model_27/tf.concat_36/concat/axis", "op": "Const", "attr": {"dtype": {"type": "DT_INT32"}, "value": {"tensor": {"dtype": "DT_INT32", "tensorShape": {}}}}}, {"name": "model_27/tf.nn.convolution_200/convolution/filter", "op": "Const", "attr": {"dtype": {"type": "DT_FLOAT"}, "value": {"tensor": {"dtype": "DT_FLOAT", "tensorShape": {"dim": [{"size": "1"}, {"size": "1"}, {"size": "1280"}, {"size": "512"}]}}}}}, {"name": "model_27/tf.math.add_273/Add/y", "op": "Const", "attr": {"value": {"tensor": {"dtype": "DT_FLOAT", "tensorShape": {"dim": [{"size": "512"}]}}}, "dtype": {"type": "DT_FLOAT"}}}, {"name": "model_27/tf.nn.convolution_202/convolution/filter", "op": "Const", "attr": {"value": {"tensor": {"dtype": "DT_FLOAT", "tensorShape": {"dim": [{"size": "3"}, {"size": "3"}, {"size": "512"}, {"size": "256"}]}}}, "dtype": {"type": "DT_FLOAT"}}}, {"name": "model_27/tf.math.add_275/Add/y", "op": "Const", "attr": {"dtype": {"type": "DT_FLOAT"}, "value": {"tensor": {"dtype": "DT_FLOAT", "tensorShape": {"dim": [{"size": "256"}]}}}}}, {"name": "model_27/tf.nn.convolution_204/convolution/filter", "op": "Const", "attr": {"dtype": {"type": "DT_FLOAT"}, "value": {"tensor": {"dtype": "DT_FLOAT", "tensorShape": {"dim": [{"size": "3"}, {"size": "3"}, {"size": "256"}, {"size": "256"}]}}}}}, {"name": "model_27/tf.math.add_277/Add/y", "op": "Const", "attr": {"dtype": {"type": "DT_FLOAT"}, "value": {"tensor": {"dtype": "DT_FLOAT", "tensorShape": {"dim": [{"size": "256"}]}}}}}, {"name": "model_27/tf.nn.convolution_206/convolution/filter", "op": "Const", "attr": {"dtype": {"type": "DT_FLOAT"}, "value": {"tensor": {"dtype": "DT_FLOAT", "tensorShape": {"dim": [{"size": "1"}, {"size": "1"}, {"size": "256"}, {"size": "32"}]}}}}}, {"name": "model_27/tf.math.add_279/Add/y", "op": "Const", "attr": {"value": {"tensor": {"dtype": "DT_FLOAT", "tensorShape": {"dim": [{"size": "32"}]}}}, "dtype": {"type": "DT_FLOAT"}}}, {"name": "model_27/tf.concat_37/concat/axis", "op": "Const", "attr": {"value": {"tensor": {"dtype": "DT_INT32", "tensorShape": {}}}, "dtype": {"type": "DT_INT32"}}}, {"name": "model_27/tf.compat.v1.transpose_270/transpose/perm", "op": "Const", "attr": {"dtype": {"type": "DT_INT32"}, "value": {"tensor": {"dtype": "DT_INT32", "tensorShape": {"dim": [{"size": "4"}]}}}}}, {"name": "model_27/tf.reshape_23/Reshape/shape", "op": "Const", "attr": {"value": {"tensor": {"dtype": "DT_INT32", "tensorShape": {"dim": [{"size": "3"}]}}}, "dtype": {"type": "DT_INT32"}}}, {"name": "model_27/tf.concat_38/concat/axis", "op": "Const", "attr": {"value": {"tensor": {"dtype": "DT_INT32", "tensorShape": {}}}, "dtype": {"type": "DT_INT32"}}}, {"name": "model_27/tf.strided_slice_37/StridedSlice/begin", "op": "Const", "attr": {"value": {"tensor": {"dtype": "DT_INT64", "tensorShape": {"dim": [{"size": "3"}]}}}, "dtype": {"type": "DT_INT64"}}}, {"name": "model_27/tf.strided_slice_37/StridedSlice/end", "op": "Const", "attr": {"value": {"tensor": {"dtype": "DT_INT64", "tensorShape": {"dim": [{"size": "3"}]}}}, "dtype": {"type": "DT_INT64"}}}, {"name": "model_27/tf.strided_slice_37/StridedSlice/strides", "op": "Const", "attr": {"dtype": {"type": "DT_INT64"}, "value": {"tensor": {"dtype": "DT_INT64", "tensorShape": {"dim": [{"size": "3"}]}}}}}, {"name": "model_27/output0/concat/axis", "op": "Const", "attr": {"value": {"tensor": {"dtype": "DT_INT32", "tensorShape": {}}}, "dtype": {"type": "DT_INT32"}}}, {"name": "x", "op": "Placeholder", "attr": {"dtype": {"type": "DT_FLOAT"}, "shape": {"shape": {"dim": [{"size": "1"}, {"size": "640"}, {"size": "640"}, {"size": "3"}]}}}}, {"name": "model_27/tf.compat.v1.pad_7/Pad", "op": "Pad", "input": ["x", "model_27/tf.compat.v1.pad_7/Pad/paddings"], "attr": {"T": {"type": "DT_FLOAT"}, "Tpaddings": {"type": "DT_INT32"}}}, {"name": "model_27/tf.math.add_141/Add", "op": "_FusedConv2D", "input": ["model_27/tf.compat.v1.pad_7/Pad", "model_27/tf.nn.convolution_104/convolution/filter", "model_27/tf.math.add_141/Add/y"], "device": "/device:CPU:0", "attr": {"filter_format": {"s": "SFdJTw=="}, "fused_ops": {"list": {"s": ["Qmlhc0FkZA=="]}}, "data_format": {"s": "TkhXQw=="}, "padding": {"s": "VkFMSUQ="}, "strides": {"list": {"i": ["1", "2", "2", "1"]}}, "TArgs": {"list": {"type": ["DT_FLOAT"]}}, "T": {"type": "DT_FLOAT"}, "leakyrelu_alpha": {"f": 0.2}, "dilations": {"list": {"i": ["1", "1", "1", "1"]}}, "num_host_args": {"i": "0"}, "explicit_paddings": {"list": {}}, "use_cudnn_on_gpu": {"b": true}, "epsilon": {"f": 0.0}, "num_args": {"i": "1"}}}, {"name": "model_27/tf.math.sigmoid_98/Sigmoid", "op": "Sigmoid", "input": ["model_27/tf.math.add_141/Add"], "attr": {"T": {"type": "DT_FLOAT"}}}, {"name": "model_27/tf.math.multiply_440/Mul", "op": "Mul", "input": ["model_27/tf.math.add_141/Add", "model_27/tf.math.sigmoid_98/Sigmoid"], "attr": {"T": {"type": "DT_FLOAT"}}}, {"name": "model_27/tf.compat.v1.pad_8/Pad", "op": "Pad", "input": ["model_27/tf.math.multiply_440/Mul", "model_27/tf.compat.v1.pad_8/Pad/paddings"], "attr": {"T": {"type": "DT_FLOAT"}, "Tpaddings": {"type": "DT_INT32"}}}, {"name": "model_27/tf.math.add_142/Add", "op": "_FusedConv2D", "input": ["model_27/tf.compat.v1.pad_8/Pad", "model_27/tf.nn.convolution_105/convolution/filter", "model_27/tf.math.add_142/Add/y"], "device": "/device:CPU:0", "attr": {"TArgs": {"list": {"type": ["DT_FLOAT"]}}, "use_cudnn_on_gpu": {"b": true}, "num_host_args": {"i": "0"}, "data_format": {"s": "TkhXQw=="}, "strides": {"list": {"i": ["1", "2", "2", "1"]}}, "num_args": {"i": "1"}, "explicit_paddings": {"list": {}}, "filter_format": {"s": "SFdJTw=="}, "leakyrelu_alpha": {"f": 0.2}, "padding": {"s": "VkFMSUQ="}, "dilations": {"list": {"i": ["1", "1", "1", "1"]}}, "T": {"type": "DT_FLOAT"}, "epsilon": {"f": 0.0}, "fused_ops": {"list": {"s": ["Qmlhc0FkZA=="]}}}}, {"name": "model_27/tf.math.sigmoid_99/Sigmoid", "op": "Sigmoid", "input": ["model_27/tf.math.add_142/Add"], "attr": {"T": {"type": "DT_FLOAT"}}}, {"name": "model_27/tf.math.multiply_444/Mul", "op": "Mul", "input": ["model_27/tf.math.add_142/Add", "model_27/tf.math.sigmoid_99/Sigmoid"], "attr": {"T": {"type": "DT_FLOAT"}}}, {"name": "model_27/tf.math.add_143/Add", "op": "_FusedConv2D", "input": ["model_27/tf.math.multiply_444/Mul", "model_27/tf.nn.convolution_106/convolution/filter", "model_27/tf.math.add_143/Add/y"], "device": "/device:CPU:0", "attr": {"fused_ops": {"list": {"s": ["Qmlhc0FkZA=="]}}, "data_format": {"s": "TkhXQw=="}, "dilations": {"list": {"i": ["1", "1", "1", "1"]}}, "T": {"type": "DT_FLOAT"}, "explicit_paddings": {"list": {}}, "padding": {"s": "U0FNRQ=="}, "strides": {"list": {"i": ["1", "1", "1", "1"]}}, "filter_format": {"s": "SFdJTw=="}, "num_host_args": {"i": "0"}, "use_cudnn_on_gpu": {"b": true}, "TArgs": {"list": {"type": ["DT_FLOAT"]}}, "num_args": {"i": "1"}, "epsilon": {"f": 0.0}, "leakyrelu_alpha": {"f": 0.2}}}, {"name": "model_27/tf.math.sigmoid_100/Sigmoid", "op": "Sigmoid", "input": ["model_27/tf.math.add_143/Add"], "attr": {"T": {"type": "DT_FLOAT"}}}, {"name": "model_27/tf.math.multiply_448/Mul", "op": "Mul", "input": ["model_27/tf.math.add_143/Add", "model_27/tf.math.sigmoid_100/Sigmoid"], "attr": {"T": {"type": "DT_FLOAT"}}}, {"name": "model_27/tf.strided_slice_20/StridedSlice", "op": "StridedSlice", "input": ["model_27/tf.math.multiply_448/Mul", "model_27/tf.strided_slice_20/ones_like/tensor", "model_27/tf.strided_slice_20/StridedSlice/end", "model_27/tf.strided_slice_20/ones_like"], "attr": {"begin_mask": {"i": "15"}, "T": {"type": "DT_FLOAT"}, "Index": {"type": "DT_INT64"}, "end_mask": {"i": "7"}, "shrink_axis_mask": {"i": "0"}, "ellipsis_mask": {"i": "0"}, "new_axis_mask": {"i": "0"}}}, {"name": "model_27/tf.strided_slice_21/StridedSlice", "op": "StridedSlice", "input": ["model_27/tf.math.multiply_448/Mul", "model_27/tf.strided_slice_21/ones_like/tensor", "model_27/tf.strided_slice_21/StridedSlice/end", "model_27/tf.strided_slice_21/ones_like"], "attr": {"Index": {"type": "DT_INT64"}, "begin_mask": {"i": "7"}, "shrink_axis_mask": {"i": "0"}, "new_axis_mask": {"i": "0"}, "T": {"type": "DT_FLOAT"}, "ellipsis_mask": {"i": "0"}, "end_mask": {"i": "7"}}}, {"name": "model_27/tf.math.add_144/Add", "op": "_FusedConv2D", "input": ["model_27/tf.strided_slice_21/StridedSlice", "model_27/tf.nn.convolution_107/convolution/filter", "model_27/tf.math.add_144/Add/y"], "device": "/device:CPU:0", "attr": {"data_format": {"s": "TkhXQw=="}, "T": {"type": "DT_FLOAT"}, "TArgs": {"list": {"type": ["DT_FLOAT"]}}, "padding": {"s": "U0FNRQ=="}, "num_host_args": {"i": "0"}, "dilations": {"list": {"i": ["1", "1", "1", "1"]}}, "strides": {"list": {"i": ["1", "1", "1", "1"]}}, "filter_format": {"s": "SFdJTw=="}, "fused_ops": {"list": {"s": ["Qmlhc0FkZA=="]}}, "epsilon": {"f": 0.0}, "explicit_paddings": {"list": {}}, "num_args": {"i": "1"}, "leakyrelu_alpha": {"f": 0.2}, "use_cudnn_on_gpu": {"b": true}}}, {"name": "model_27/tf.math.sigmoid_101/Sigmoid", "op": "Sigmoid", "input": ["model_27/tf.math.add_144/Add"], "attr": {"T": {"type": "DT_FLOAT"}}}, {"name": "model_27/tf.math.multiply_452/Mul", "op": "Mul", "input": ["model_27/tf.math.add_144/Add", "model_27/tf.math.sigmoid_101/Sigmoid"], "attr": {"T": {"type": "DT_FLOAT"}}}, {"name": "model_27/tf.math.add_145/Add", "op": "_FusedConv2D", "input": ["model_27/tf.math.multiply_452/Mul", "model_27/tf.nn.convolution_108/convolution/filter", "model_27/tf.math.add_145/Add/y"], "device": "/device:CPU:0", "attr": {"filter_format": {"s": "SFdJTw=="}, "fused_ops": {"list": {"s": ["Qmlhc0FkZA=="]}}, "num_args": {"i": "1"}, "epsilon": {"f": 0.0}, "num_host_args": {"i": "0"}, "use_cudnn_on_gpu": {"b": true}, "explicit_paddings": {"list": {}}, "leakyrelu_alpha": {"f": 0.2}, "T": {"type": "DT_FLOAT"}, "data_format": {"s": "TkhXQw=="}, "TArgs": {"list": {"type": ["DT_FLOAT"]}}, "padding": {"s": "U0FNRQ=="}, "strides": {"list": {"i": ["1", "1", "1", "1"]}}, "dilations": {"list": {"i": ["1", "1", "1", "1"]}}}}, {"name": "model_27/tf.math.sigmoid_102/Sigmoid", "op": "Sigmoid", "input": ["model_27/tf.math.add_145/Add"], "attr": {"T": {"type": "DT_FLOAT"}}}, {"name": "model_27/tf.math.multiply_456/Mul", "op": "Mul", "input": ["model_27/tf.math.add_145/Add", "model_27/tf.math.sigmoid_102/Sigmoid"], "attr": {"T": {"type": "DT_FLOAT"}}}, {"name": "model_27/tf.math.add_147/Add", "op": "AddV2", "input": ["model_27/tf.strided_slice_21/StridedSlice", "model_27/tf.math.multiply_456/Mul"], "attr": {"T": {"type": "DT_FLOAT"}}}, {"name": "model_27/tf.math.add_148/Add", "op": "_FusedConv2D", "input": ["model_27/tf.math.add_147/Add", "model_27/tf.nn.convolution_109/convolution/filter", "model_27/tf.math.add_148/Add/y"], "device": "/device:CPU:0", "attr": {"TArgs": {"list": {"type": ["DT_FLOAT"]}}, "strides": {"list": {"i": ["1", "1", "1", "1"]}}, "filter_format": {"s": "SFdJTw=="}, "T": {"type": "DT_FLOAT"}, "data_format": {"s": "TkhXQw=="}, "use_cudnn_on_gpu": {"b": true}, "fused_ops": {"list": {"s": ["Qmlhc0FkZA=="]}}, "num_host_args": {"i": "0"}, "epsilon": {"f": 0.0}, "leakyrelu_alpha": {"f": 0.2}, "padding": {"s": "U0FNRQ=="}, "dilations": {"list": {"i": ["1", "1", "1", "1"]}}, "num_args": {"i": "1"}, "explicit_paddings": {"list": {}}}}, {"name": "model_27/tf.math.sigmoid_103/Sigmoid", "op": "Sigmoid", "input": ["model_27/tf.math.add_148/Add"], "attr": {"T": {"type": "DT_FLOAT"}}}, {"name": "model_27/tf.math.multiply_462/Mul", "op": "Mul", "input": ["model_27/tf.math.add_148/Add", "model_27/tf.math.sigmoid_103/Sigmoid"], "attr": {"T": {"type": "DT_FLOAT"}}}, {"name": "model_27/tf.math.add_149/Add", "op": "_FusedConv2D", "input": ["model_27/tf.math.multiply_462/Mul", "model_27/tf.nn.convolution_110/convolution/filter", "model_27/tf.math.add_149/Add/y"], "device": "/device:CPU:0", "attr": {"num_host_args": {"i": "0"}, "explicit_paddings": {"list": {}}, "padding": {"s": "U0FNRQ=="}, "use_cudnn_on_gpu": {"b": true}, "leakyrelu_alpha": {"f": 0.2}, "strides": {"list": {"i": ["1", "1", "1", "1"]}}, "dilations": {"list": {"i": ["1", "1", "1", "1"]}}, "epsilon": {"f": 0.0}, "T": {"type": "DT_FLOAT"}, "filter_format": {"s": "SFdJTw=="}, "TArgs": {"list": {"type": ["DT_FLOAT"]}}, "num_args": {"i": "1"}, "data_format": {"s": "TkhXQw=="}, "fused_ops": {"list": {"s": ["Qmlhc0FkZA=="]}}}}, {"name": "model_27/tf.math.sigmoid_104/Sigmoid", "op": "Sigmoid", "input": ["model_27/tf.math.add_149/Add"], "attr": {"T": {"type": "DT_FLOAT"}}}, {"name": "model_27/tf.math.multiply_466/Mul", "op": "Mul", "input": ["model_27/tf.math.add_149/Add", "model_27/tf.math.sigmoid_104/Sigmoid"], "attr": {"T": {"type": "DT_FLOAT"}}}, {"name": "model_27/tf.math.add_151/Add", "op": "AddV2", "input": ["model_27/tf.math.add_147/Add", "model_27/tf.math.multiply_466/Mul"], "attr": {"T": {"type": "DT_FLOAT"}}}, {"name": "model_27/tf.math.add_152/Add", "op": "_FusedConv2D", "input": ["model_27/tf.math.add_151/Add", "model_27/tf.nn.convolution_111/convolution/filter", "model_27/tf.math.add_152/Add/y"], "device": "/device:CPU:0", "attr": {"use_cudnn_on_gpu": {"b": true}, "padding": {"s": "U0FNRQ=="}, "num_args": {"i": "1"}, "strides": {"list": {"i": ["1", "1", "1", "1"]}}, "num_host_args": {"i": "0"}, "explicit_paddings": {"list": {}}, "dilations": {"list": {"i": ["1", "1", "1", "1"]}}, "fused_ops": {"list": {"s": ["Qmlhc0FkZA=="]}}, "T": {"type": "DT_FLOAT"}, "TArgs": {"list": {"type": ["DT_FLOAT"]}}, "epsilon": {"f": 0.0}, "leakyrelu_alpha": {"f": 0.2}, "data_format": {"s": "TkhXQw=="}, "filter_format": {"s": "SFdJTw=="}}}, {"name": "model_27/tf.math.sigmoid_105/Sigmoid", "op": "Sigmoid", "input": ["model_27/tf.math.add_152/Add"], "attr": {"T": {"type": "DT_FLOAT"}}}, {"name": "model_27/tf.math.multiply_472/Mul", "op": "Mul", "input": ["model_27/tf.math.add_152/Add", "model_27/tf.math.sigmoid_105/Sigmoid"], "attr": {"T": {"type": "DT_FLOAT"}}}, {"name": "model_27/tf.math.add_153/Add", "op": "_FusedConv2D", "input": ["model_27/tf.math.multiply_472/Mul", "model_27/tf.nn.convolution_112/convolution/filter", "model_27/tf.math.add_153/Add/y"], "device": "/device:CPU:0", "attr": {"data_format": {"s": "TkhXQw=="}, "epsilon": {"f": 0.0}, "T": {"type": "DT_FLOAT"}, "leakyrelu_alpha": {"f": 0.2}, "strides": {"list": {"i": ["1", "1", "1", "1"]}}, "filter_format": {"s": "SFdJTw=="}, "fused_ops": {"list": {"s": ["Qmlhc0FkZA=="]}}, "num_host_args": {"i": "0"}, "dilations": {"list": {"i": ["1", "1", "1", "1"]}}, "num_args": {"i": "1"}, "use_cudnn_on_gpu": {"b": true}, "explicit_paddings": {"list": {}}, "padding": {"s": "U0FNRQ=="}, "TArgs": {"list": {"type": ["DT_FLOAT"]}}}}, {"name": "model_27/tf.math.sigmoid_106/Sigmoid", "op": "Sigmoid", "input": ["model_27/tf.math.add_153/Add"], "attr": {"T": {"type": "DT_FLOAT"}}}, {"name": "model_27/tf.math.multiply_476/Mul", "op": "Mul", "input": ["model_27/tf.math.add_153/Add", "model_27/tf.math.sigmoid_106/Sigmoid"], "attr": {"T": {"type": "DT_FLOAT"}}}, {"name": "model_27/tf.math.add_155/Add", "op": "AddV2", "input": ["model_27/tf.math.add_151/Add", "model_27/tf.math.multiply_476/Mul"], "attr": {"T": {"type": "DT_FLOAT"}}}, {"name": "model_27/tf.concat_22/concat", "op": "ConcatV2", "input": ["model_27/tf.strided_slice_20/StridedSlice", "model_27/tf.strided_slice_21/StridedSlice", "model_27/tf.math.add_147/Add", "model_27/tf.math.add_151/Add", "model_27/tf.math.add_155/Add", "model_27/tf.concat_22/concat/axis"], "attr": {"T": {"type": "DT_FLOAT"}, "N": {"i": "5"}, "Tidx": {"type": "DT_INT32"}}}, {"name": "model_27/tf.math.add_156/Add", "op": "_FusedConv2D", "input": ["model_27/tf.concat_22/concat", "model_27/tf.nn.convolution_113/convolution/filter", "model_27/tf.math.add_156/Add/y"], "device": "/device:CPU:0", "attr": {"fused_ops": {"list": {"s": ["Qmlhc0FkZA=="]}}, "use_cudnn_on_gpu": {"b": true}, "filter_format": {"s": "SFdJTw=="}, "num_args": {"i": "1"}, "dilations": {"list": {"i": ["1", "1", "1", "1"]}}, "TArgs": {"list": {"type": ["DT_FLOAT"]}}, "num_host_args": {"i": "0"}, "T": {"type": "DT_FLOAT"}, "leakyrelu_alpha": {"f": 0.2}, "strides": {"list": {"i": ["1", "1", "1", "1"]}}, "explicit_paddings": {"list": {}}, "data_format": {"s": "TkhXQw=="}, "epsilon": {"f": 0.0}, "padding": {"s": "U0FNRQ=="}}}, {"name": "model_27/tf.math.sigmoid_107/Sigmoid", "op": "Sigmoid", "input": ["model_27/tf.math.add_156/Add"], "attr": {"T": {"type": "DT_FLOAT"}}}, {"name": "model_27/tf.math.multiply_482/Mul", "op": "Mul", "input": ["model_27/tf.math.add_156/Add", "model_27/tf.math.sigmoid_107/Sigmoid"], "attr": {"T": {"type": "DT_FLOAT"}}}, {"name": "model_27/tf.compat.v1.pad_9/Pad", "op": "Pad", "input": ["model_27/tf.math.multiply_482/Mul", "model_27/tf.compat.v1.pad_9/Pad/paddings"], "attr": {"T": {"type": "DT_FLOAT"}, "Tpaddings": {"type": "DT_INT32"}}}, {"name": "model_27/tf.math.add_157/Add", "op": "_FusedConv2D", "input": ["model_27/tf.compat.v1.pad_9/Pad", "model_27/tf.nn.convolution_114/convolution/filter", "model_27/tf.math.add_157/Add/y"], "device": "/device:CPU:0", "attr": {"epsilon": {"f": 0.0}, "num_host_args": {"i": "0"}, "dilations": {"list": {"i": ["1", "1", "1", "1"]}}, "explicit_paddings": {"list": {}}, "filter_format": {"s": "SFdJTw=="}, "padding": {"s": "VkFMSUQ="}, "use_cudnn_on_gpu": {"b": true}, "strides": {"list": {"i": ["1", "2", "2", "1"]}}, "leakyrelu_alpha": {"f": 0.2}, "num_args": {"i": "1"}, "fused_ops": {"list": {"s": ["Qmlhc0FkZA=="]}}, "T": {"type": "DT_FLOAT"}, "TArgs": {"list": {"type": ["DT_FLOAT"]}}, "data_format": {"s": "TkhXQw=="}}}, {"name": "model_27/tf.math.sigmoid_108/Sigmoid", "op": "Sigmoid", "input": ["model_27/tf.math.add_157/Add"], "attr": {"T": {"type": "DT_FLOAT"}}}, {"name": "model_27/tf.math.multiply_486/Mul", "op": "Mul", "input": ["model_27/tf.math.add_157/Add", "model_27/tf.math.sigmoid_108/Sigmoid"], "attr": {"T": {"type": "DT_FLOAT"}}}, {"name": "model_27/tf.math.add_158/Add", "op": "_FusedConv2D", "input": ["model_27/tf.math.multiply_486/Mul", "model_27/tf.nn.convolution_115/convolution/filter", "model_27/tf.math.add_158/Add/y"], "device": "/device:CPU:0", "attr": {"strides": {"list": {"i": ["1", "1", "1", "1"]}}, "padding": {"s": "U0FNRQ=="}, "T": {"type": "DT_FLOAT"}, "data_format": {"s": "TkhXQw=="}, "dilations": {"list": {"i": ["1", "1", "1", "1"]}}, "explicit_paddings": {"list": {}}, "use_cudnn_on_gpu": {"b": true}, "TArgs": {"list": {"type": ["DT_FLOAT"]}}, "fused_ops": {"list": {"s": ["Qmlhc0FkZA=="]}}, "epsilon": {"f": 0.0}, "num_host_args": {"i": "0"}, "num_args": {"i": "1"}, "leakyrelu_alpha": {"f": 0.2}, "filter_format": {"s": "SFdJTw=="}}}, {"name": "model_27/tf.math.sigmoid_109/Sigmoid", "op": "Sigmoid", "input": ["model_27/tf.math.add_158/Add"], "attr": {"T": {"type": "DT_FLOAT"}}}, {"name": "model_27/tf.math.multiply_490/Mul", "op": "Mul", "input": ["model_27/tf.math.add_158/Add", "model_27/tf.math.sigmoid_109/Sigmoid"], "attr": {"T": {"type": "DT_FLOAT"}}}, {"name": "model_27/tf.strided_slice_22/StridedSlice", "op": "StridedSlice", "input": ["model_27/tf.math.multiply_490/Mul", "model_27/tf.strided_slice_22/ones_like/tensor", "model_27/tf.strided_slice_22/StridedSlice/end", "model_27/tf.strided_slice_22/ones_like"], "attr": {"ellipsis_mask": {"i": "0"}, "new_axis_mask": {"i": "0"}, "shrink_axis_mask": {"i": "0"}, "Index": {"type": "DT_INT64"}, "begin_mask": {"i": "15"}, "T": {"type": "DT_FLOAT"}, "end_mask": {"i": "7"}}}, {"name": "model_27/tf.strided_slice_23/StridedSlice", "op": "StridedSlice", "input": ["model_27/tf.math.multiply_490/Mul", "model_27/tf.strided_slice_23/ones_like/tensor", "model_27/tf.strided_slice_23/StridedSlice/end", "model_27/tf.strided_slice_23/ones_like"], "attr": {"shrink_axis_mask": {"i": "0"}, "end_mask": {"i": "7"}, "begin_mask": {"i": "7"}, "Index": {"type": "DT_INT64"}, "T": {"type": "DT_FLOAT"}, "ellipsis_mask": {"i": "0"}, "new_axis_mask": {"i": "0"}}}, {"name": "model_27/tf.math.add_159/Add", "op": "_FusedConv2D", "input": ["model_27/tf.strided_slice_23/StridedSlice", "model_27/tf.nn.convolution_116/convolution/filter", "model_27/tf.math.add_159/Add/y"], "device": "/device:CPU:0", "attr": {"filter_format": {"s": "SFdJTw=="}, "explicit_paddings": {"list": {}}, "num_args": {"i": "1"}, "strides": {"list": {"i": ["1", "1", "1", "1"]}}, "leakyrelu_alpha": {"f": 0.2}, "fused_ops": {"list": {"s": ["Qmlhc0FkZA=="]}}, "num_host_args": {"i": "0"}, "T": {"type": "DT_FLOAT"}, "epsilon": {"f": 0.0}, "use_cudnn_on_gpu": {"b": true}, "padding": {"s": "U0FNRQ=="}, "dilations": {"list": {"i": ["1", "1", "1", "1"]}}, "data_format": {"s": "TkhXQw=="}, "TArgs": {"list": {"type": ["DT_FLOAT"]}}}}, {"name": "model_27/tf.math.sigmoid_110/Sigmoid", "op": "Sigmoid", "input": ["model_27/tf.math.add_159/Add"], "attr": {"T": {"type": "DT_FLOAT"}}}, {"name": "model_27/tf.math.multiply_494/Mul", "op": "Mul", "input": ["model_27/tf.math.add_159/Add", "model_27/tf.math.sigmoid_110/Sigmoid"], "attr": {"T": {"type": "DT_FLOAT"}}}, {"name": "model_27/tf.math.add_160/Add", "op": "_FusedConv2D", "input": ["model_27/tf.math.multiply_494/Mul", "model_27/tf.nn.convolution_117/convolution/filter", "model_27/tf.math.add_160/Add/y"], "device": "/device:CPU:0", "attr": {"explicit_paddings": {"list": {}}, "leakyrelu_alpha": {"f": 0.2}, "fused_ops": {"list": {"s": ["Qmlhc0FkZA=="]}}, "T": {"type": "DT_FLOAT"}, "dilations": {"list": {"i": ["1", "1", "1", "1"]}}, "data_format": {"s": "TkhXQw=="}, "TArgs": {"list": {"type": ["DT_FLOAT"]}}, "strides": {"list": {"i": ["1", "1", "1", "1"]}}, "num_host_args": {"i": "0"}, "padding": {"s": "U0FNRQ=="}, "filter_format": {"s": "SFdJTw=="}, "num_args": {"i": "1"}, "use_cudnn_on_gpu": {"b": true}, "epsilon": {"f": 0.0}}}, {"name": "model_27/tf.math.sigmoid_111/Sigmoid", "op": "Sigmoid", "input": ["model_27/tf.math.add_160/Add"], "attr": {"T": {"type": "DT_FLOAT"}}}, {"name": "model_27/tf.math.multiply_498/Mul", "op": "Mul", "input": ["model_27/tf.math.add_160/Add", "model_27/tf.math.sigmoid_111/Sigmoid"], "attr": {"T": {"type": "DT_FLOAT"}}}, {"name": "model_27/tf.math.add_162/Add", "op": "AddV2", "input": ["model_27/tf.strided_slice_23/StridedSlice", "model_27/tf.math.multiply_498/Mul"], "attr": {"T": {"type": "DT_FLOAT"}}}, {"name": "model_27/tf.math.add_163/Add", "op": "_FusedConv2D", "input": ["model_27/tf.math.add_162/Add", "model_27/tf.nn.convolution_118/convolution/filter", "model_27/tf.math.add_163/Add/y"], "device": "/device:CPU:0", "attr": {"dilations": {"list": {"i": ["1", "1", "1", "1"]}}, "epsilon": {"f": 0.0}, "data_format": {"s": "TkhXQw=="}, "explicit_paddings": {"list": {}}, "leakyrelu_alpha": {"f": 0.2}, "T": {"type": "DT_FLOAT"}, "strides": {"list": {"i": ["1", "1", "1", "1"]}}, "num_args": {"i": "1"}, "filter_format": {"s": "SFdJTw=="}, "use_cudnn_on_gpu": {"b": true}, "padding": {"s": "U0FNRQ=="}, "num_host_args": {"i": "0"}, "TArgs": {"list": {"type": ["DT_FLOAT"]}}, "fused_ops": {"list": {"s": ["Qmlhc0FkZA=="]}}}}, {"name": "model_27/tf.math.sigmoid_112/Sigmoid", "op": "Sigmoid", "input": ["model_27/tf.math.add_163/Add"], "attr": {"T": {"type": "DT_FLOAT"}}}, {"name": "model_27/tf.math.multiply_504/Mul", "op": "Mul", "input": ["model_27/tf.math.add_163/Add", "model_27/tf.math.sigmoid_112/Sigmoid"], "attr": {"T": {"type": "DT_FLOAT"}}}, {"name": "model_27/tf.math.add_164/Add", "op": "_FusedConv2D", "input": ["model_27/tf.math.multiply_504/Mul", "model_27/tf.nn.convolution_119/convolution/filter", "model_27/tf.math.add_164/Add/y"], "device": "/device:CPU:0", "attr": {"T": {"type": "DT_FLOAT"}, "TArgs": {"list": {"type": ["DT_FLOAT"]}}, "leakyrelu_alpha": {"f": 0.2}, "strides": {"list": {"i": ["1", "1", "1", "1"]}}, "epsilon": {"f": 0.0}, "num_host_args": {"i": "0"}, "filter_format": {"s": "SFdJTw=="}, "padding": {"s": "U0FNRQ=="}, "data_format": {"s": "TkhXQw=="}, "dilations": {"list": {"i": ["1", "1", "1", "1"]}}, "num_args": {"i": "1"}, "use_cudnn_on_gpu": {"b": true}, "explicit_paddings": {"list": {}}, "fused_ops": {"list": {"s": ["Qmlhc0FkZA=="]}}}}, {"name": "model_27/tf.math.sigmoid_113/Sigmoid", "op": "Sigmoid", "input": ["model_27/tf.math.add_164/Add"], "attr": {"T": {"type": "DT_FLOAT"}}}, {"name": "model_27/tf.math.multiply_508/Mul", "op": "Mul", "input": ["model_27/tf.math.add_164/Add", "model_27/tf.math.sigmoid_113/Sigmoid"], "attr": {"T": {"type": "DT_FLOAT"}}}, {"name": "model_27/tf.math.add_166/Add", "op": "AddV2", "input": ["model_27/tf.math.add_162/Add", "model_27/tf.math.multiply_508/Mul"], "attr": {"T": {"type": "DT_FLOAT"}}}, {"name": "model_27/tf.math.add_167/Add", "op": "_FusedConv2D", "input": ["model_27/tf.math.add_166/Add", "model_27/tf.nn.convolution_120/convolution/filter", "model_27/tf.math.add_167/Add/y"], "device": "/device:CPU:0", "attr": {"epsilon": {"f": 0.0}, "dilations": {"list": {"i": ["1", "1", "1", "1"]}}, "T": {"type": "DT_FLOAT"}, "data_format": {"s": "TkhXQw=="}, "filter_format": {"s": "SFdJTw=="}, "leakyrelu_alpha": {"f": 0.2}, "fused_ops": {"list": {"s": ["Qmlhc0FkZA=="]}}, "padding": {"s": "U0FNRQ=="}, "strides": {"list": {"i": ["1", "1", "1", "1"]}}, "use_cudnn_on_gpu": {"b": true}, "num_host_args": {"i": "0"}, "num_args": {"i": "1"}, "TArgs": {"list": {"type": ["DT_FLOAT"]}}, "explicit_paddings": {"list": {}}}}, {"name": "model_27/tf.math.sigmoid_114/Sigmoid", "op": "Sigmoid", "input": ["model_27/tf.math.add_167/Add"], "attr": {"T": {"type": "DT_FLOAT"}}}, {"name": "model_27/tf.math.multiply_514/Mul", "op": "Mul", "input": ["model_27/tf.math.add_167/Add", "model_27/tf.math.sigmoid_114/Sigmoid"], "attr": {"T": {"type": "DT_FLOAT"}}}, {"name": "model_27/tf.math.add_168/Add", "op": "_FusedConv2D", "input": ["model_27/tf.math.multiply_514/Mul", "model_27/tf.nn.convolution_121/convolution/filter", "model_27/tf.math.add_168/Add/y"], "device": "/device:CPU:0", "attr": {"num_host_args": {"i": "0"}, "data_format": {"s": "TkhXQw=="}, "padding": {"s": "U0FNRQ=="}, "TArgs": {"list": {"type": ["DT_FLOAT"]}}, "leakyrelu_alpha": {"f": 0.2}, "fused_ops": {"list": {"s": ["Qmlhc0FkZA=="]}}, "T": {"type": "DT_FLOAT"}, "explicit_paddings": {"list": {}}, "strides": {"list": {"i": ["1", "1", "1", "1"]}}, "num_args": {"i": "1"}, "filter_format": {"s": "SFdJTw=="}, "dilations": {"list": {"i": ["1", "1", "1", "1"]}}, "use_cudnn_on_gpu": {"b": true}, "epsilon": {"f": 0.0}}}, {"name": "model_27/tf.math.sigmoid_115/Sigmoid", "op": "Sigmoid", "input": ["model_27/tf.math.add_168/Add"], "attr": {"T": {"type": "DT_FLOAT"}}}, {"name": "model_27/tf.math.multiply_518/Mul", "op": "Mul", "input": ["model_27/tf.math.add_168/Add", "model_27/tf.math.sigmoid_115/Sigmoid"], "attr": {"T": {"type": "DT_FLOAT"}}}, {"name": "model_27/tf.math.add_170/Add", "op": "AddV2", "input": ["model_27/tf.math.add_166/Add", "model_27/tf.math.multiply_518/Mul"], "attr": {"T": {"type": "DT_FLOAT"}}}, {"name": "model_27/tf.math.add_171/Add", "op": "_FusedConv2D", "input": ["model_27/tf.math.add_170/Add", "model_27/tf.nn.convolution_122/convolution/filter", "model_27/tf.math.add_171/Add/y"], "device": "/device:CPU:0", "attr": {"padding": {"s": "U0FNRQ=="}, "strides": {"list": {"i": ["1", "1", "1", "1"]}}, "leakyrelu_alpha": {"f": 0.2}, "filter_format": {"s": "SFdJTw=="}, "num_args": {"i": "1"}, "T": {"type": "DT_FLOAT"}, "num_host_args": {"i": "0"}, "fused_ops": {"list": {"s": ["Qmlhc0FkZA=="]}}, "TArgs": {"list": {"type": ["DT_FLOAT"]}}, "use_cudnn_on_gpu": {"b": true}, "dilations": {"list": {"i": ["1", "1", "1", "1"]}}, "data_format": {"s": "TkhXQw=="}, "epsilon": {"f": 0.0}, "explicit_paddings": {"list": {}}}}, {"name": "model_27/tf.math.sigmoid_116/Sigmoid", "op": "Sigmoid", "input": ["model_27/tf.math.add_171/Add"], "attr": {"T": {"type": "DT_FLOAT"}}}, {"name": "model_27/tf.math.multiply_524/Mul", "op": "Mul", "input": ["model_27/tf.math.add_171/Add", "model_27/tf.math.sigmoid_116/Sigmoid"], "attr": {"T": {"type": "DT_FLOAT"}}}, {"name": "model_27/tf.math.add_172/Add", "op": "_FusedConv2D", "input": ["model_27/tf.math.multiply_524/Mul", "model_27/tf.nn.convolution_123/convolution/filter", "model_27/tf.math.add_172/Add/y"], "device": "/device:CPU:0", "attr": {"TArgs": {"list": {"type": ["DT_FLOAT"]}}, "filter_format": {"s": "SFdJTw=="}, "padding": {"s": "U0FNRQ=="}, "num_args": {"i": "1"}, "epsilon": {"f": 0.0}, "leakyrelu_alpha": {"f": 0.2}, "num_host_args": {"i": "0"}, "dilations": {"list": {"i": ["1", "1", "1", "1"]}}, "strides": {"list": {"i": ["1", "1", "1", "1"]}}, "explicit_paddings": {"list": {}}, "fused_ops": {"list": {"s": ["Qmlhc0FkZA=="]}}, "use_cudnn_on_gpu": {"b": true}, "T": {"type": "DT_FLOAT"}, "data_format": {"s": "TkhXQw=="}}}, {"name": "model_27/tf.math.sigmoid_117/Sigmoid", "op": "Sigmoid", "input": ["model_27/tf.math.add_172/Add"], "attr": {"T": {"type": "DT_FLOAT"}}}, {"name": "model_27/tf.math.multiply_528/Mul", "op": "Mul", "input": ["model_27/tf.math.add_172/Add", "model_27/tf.math.sigmoid_117/Sigmoid"], "attr": {"T": {"type": "DT_FLOAT"}}}, {"name": "model_27/tf.math.add_174/Add", "op": "AddV2", "input": ["model_27/tf.math.add_170/Add", "model_27/tf.math.multiply_528/Mul"], "attr": {"T": {"type": "DT_FLOAT"}}}, {"name": "model_27/tf.math.add_175/Add", "op": "_FusedConv2D", "input": ["model_27/tf.math.add_174/Add", "model_27/tf.nn.convolution_124/convolution/filter", "model_27/tf.math.add_175/Add/y"], "device": "/device:CPU:0", "attr": {"padding": {"s": "U0FNRQ=="}, "num_args": {"i": "1"}, "T": {"type": "DT_FLOAT"}, "dilations": {"list": {"i": ["1", "1", "1", "1"]}}, "epsilon": {"f": 0.0}, "num_host_args": {"i": "0"}, "strides": {"list": {"i": ["1", "1", "1", "1"]}}, "leakyrelu_alpha": {"f": 0.2}, "TArgs": {"list": {"type": ["DT_FLOAT"]}}, "fused_ops": {"list": {"s": ["Qmlhc0FkZA=="]}}, "explicit_paddings": {"list": {}}, "filter_format": {"s": "SFdJTw=="}, "data_format": {"s": "TkhXQw=="}, "use_cudnn_on_gpu": {"b": true}}}, {"name": "model_27/tf.math.sigmoid_118/Sigmoid", "op": "Sigmoid", "input": ["model_27/tf.math.add_175/Add"], "attr": {"T": {"type": "DT_FLOAT"}}}, {"name": "model_27/tf.math.multiply_534/Mul", "op": "Mul", "input": ["model_27/tf.math.add_175/Add", "model_27/tf.math.sigmoid_118/Sigmoid"], "attr": {"T": {"type": "DT_FLOAT"}}}, {"name": "model_27/tf.math.add_176/Add", "op": "_FusedConv2D", "input": ["model_27/tf.math.multiply_534/Mul", "model_27/tf.nn.convolution_125/convolution/filter", "model_27/tf.math.add_176/Add/y"], "device": "/device:CPU:0", "attr": {"padding": {"s": "U0FNRQ=="}, "num_host_args": {"i": "0"}, "use_cudnn_on_gpu": {"b": true}, "dilations": {"list": {"i": ["1", "1", "1", "1"]}}, "num_args": {"i": "1"}, "strides": {"list": {"i": ["1", "1", "1", "1"]}}, "explicit_paddings": {"list": {}}, "filter_format": {"s": "SFdJTw=="}, "fused_ops": {"list": {"s": ["Qmlhc0FkZA=="]}}, "leakyrelu_alpha": {"f": 0.2}, "epsilon": {"f": 0.0}, "T": {"type": "DT_FLOAT"}, "TArgs": {"list": {"type": ["DT_FLOAT"]}}, "data_format": {"s": "TkhXQw=="}}}, {"name": "model_27/tf.math.sigmoid_119/Sigmoid", "op": "Sigmoid", "input": ["model_27/tf.math.add_176/Add"], "attr": {"T": {"type": "DT_FLOAT"}}}, {"name": "model_27/tf.math.multiply_538/Mul", "op": "Mul", "input": ["model_27/tf.math.add_176/Add", "model_27/tf.math.sigmoid_119/Sigmoid"], "attr": {"T": {"type": "DT_FLOAT"}}}, {"name": "model_27/tf.math.add_178/Add", "op": "AddV2", "input": ["model_27/tf.math.add_174/Add", "model_27/tf.math.multiply_538/Mul"], "attr": {"T": {"type": "DT_FLOAT"}}}, {"name": "model_27/tf.math.add_179/Add", "op": "_FusedConv2D", "input": ["model_27/tf.math.add_178/Add", "model_27/tf.nn.convolution_126/convolution/filter", "model_27/tf.math.add_179/Add/y"], "device": "/device:CPU:0", "attr": {"filter_format": {"s": "SFdJTw=="}, "use_cudnn_on_gpu": {"b": true}, "T": {"type": "DT_FLOAT"}, "dilations": {"list": {"i": ["1", "1", "1", "1"]}}, "explicit_paddings": {"list": {}}, "leakyrelu_alpha": {"f": 0.2}, "padding": {"s": "U0FNRQ=="}, "TArgs": {"list": {"type": ["DT_FLOAT"]}}, "strides": {"list": {"i": ["1", "1", "1", "1"]}}, "num_args": {"i": "1"}, "epsilon": {"f": 0.0}, "num_host_args": {"i": "0"}, "data_format": {"s": "TkhXQw=="}, "fused_ops": {"list": {"s": ["Qmlhc0FkZA=="]}}}}, {"name": "model_27/tf.math.sigmoid_120/Sigmoid", "op": "Sigmoid", "input": ["model_27/tf.math.add_179/Add"], "attr": {"T": {"type": "DT_FLOAT"}}}, {"name": "model_27/tf.math.multiply_544/Mul", "op": "Mul", "input": ["model_27/tf.math.add_179/Add", "model_27/tf.math.sigmoid_120/Sigmoid"], "attr": {"T": {"type": "DT_FLOAT"}}}, {"name": "model_27/tf.math.add_180/Add", "op": "_FusedConv2D", "input": ["model_27/tf.math.multiply_544/Mul", "model_27/tf.nn.convolution_127/convolution/filter", "model_27/tf.math.add_180/Add/y"], "device": "/device:CPU:0", "attr": {"filter_format": {"s": "SFdJTw=="}, "use_cudnn_on_gpu": {"b": true}, "T": {"type": "DT_FLOAT"}, "data_format": {"s": "TkhXQw=="}, "leakyrelu_alpha": {"f": 0.2}, "TArgs": {"list": {"type": ["DT_FLOAT"]}}, "fused_ops": {"list": {"s": ["Qmlhc0FkZA=="]}}, "strides": {"list": {"i": ["1", "1", "1", "1"]}}, "dilations": {"list": {"i": ["1", "1", "1", "1"]}}, "epsilon": {"f": 0.0}, "explicit_paddings": {"list": {}}, "padding": {"s": "U0FNRQ=="}, "num_host_args": {"i": "0"}, "num_args": {"i": "1"}}}, {"name": "model_27/tf.math.sigmoid_121/Sigmoid", "op": "Sigmoid", "input": ["model_27/tf.math.add_180/Add"], "attr": {"T": {"type": "DT_FLOAT"}}}, {"name": "model_27/tf.math.multiply_548/Mul", "op": "Mul", "input": ["model_27/tf.math.add_180/Add", "model_27/tf.math.sigmoid_121/Sigmoid"], "attr": {"T": {"type": "DT_FLOAT"}}}, {"name": "model_27/tf.math.add_182/Add", "op": "AddV2", "input": ["model_27/tf.math.add_178/Add", "model_27/tf.math.multiply_548/Mul"], "attr": {"T": {"type": "DT_FLOAT"}}}, {"name": "model_27/tf.concat_23/concat", "op": "ConcatV2", "input": ["model_27/tf.strided_slice_22/StridedSlice", "model_27/tf.strided_slice_23/StridedSlice", "model_27/tf.math.add_162/Add", "model_27/tf.math.add_166/Add", "model_27/tf.math.add_170/Add", "model_27/tf.math.add_174/Add", "model_27/tf.math.add_178/Add", "model_27/tf.math.add_182/Add", "model_27/tf.concat_23/concat/axis"], "attr": {"T": {"type": "DT_FLOAT"}, "Tidx": {"type": "DT_INT32"}, "N": {"i": "8"}}}, {"name": "model_27/tf.math.add_183/Add", "op": "_FusedConv2D", "input": ["model_27/tf.concat_23/concat", "model_27/tf.nn.convolution_128/convolution/filter", "model_27/tf.math.add_183/Add/y"], "device": "/device:CPU:0", "attr": {"T": {"type": "DT_FLOAT"}, "filter_format": {"s": "SFdJTw=="}, "dilations": {"list": {"i": ["1", "1", "1", "1"]}}, "strides": {"list": {"i": ["1", "1", "1", "1"]}}, "fused_ops": {"list": {"s": ["Qmlhc0FkZA=="]}}, "padding": {"s": "U0FNRQ=="}, "data_format": {"s": "TkhXQw=="}, "use_cudnn_on_gpu": {"b": true}, "epsilon": {"f": 0.0}, "num_args": {"i": "1"}, "leakyrelu_alpha": {"f": 0.2}, "num_host_args": {"i": "0"}, "explicit_paddings": {"list": {}}, "TArgs": {"list": {"type": ["DT_FLOAT"]}}}}, {"name": "model_27/tf.math.sigmoid_122/Sigmoid", "op": "Sigmoid", "input": ["model_27/tf.math.add_183/Add"], "attr": {"T": {"type": "DT_FLOAT"}}}, {"name": "model_27/tf.math.multiply_554/Mul", "op": "Mul", "input": ["model_27/tf.math.add_183/Add", "model_27/tf.math.sigmoid_122/Sigmoid"], "attr": {"T": {"type": "DT_FLOAT"}}}, {"name": "model_27/tf.compat.v1.pad_10/Pad", "op": "Pad", "input": ["model_27/tf.math.multiply_554/Mul", "model_27/tf.compat.v1.pad_10/Pad/paddings"], "attr": {"T": {"type": "DT_FLOAT"}, "Tpaddings": {"type": "DT_INT32"}}}, {"name": "model_27/tf.math.add_184/Add", "op": "_FusedConv2D", "input": ["model_27/tf.compat.v1.pad_10/Pad", "model_27/tf.nn.convolution_129/convolution/filter", "model_27/tf.math.add_184/Add/y"], "device": "/device:CPU:0", "attr": {"epsilon": {"f": 0.0}, "filter_format": {"s": "SFdJTw=="}, "TArgs": {"list": {"type": ["DT_FLOAT"]}}, "num_host_args": {"i": "0"}, "strides": {"list": {"i": ["1", "2", "2", "1"]}}, "explicit_paddings": {"list": {}}, "use_cudnn_on_gpu": {"b": true}, "num_args": {"i": "1"}, "leakyrelu_alpha": {"f": 0.2}, "data_format": {"s": "TkhXQw=="}, "dilations": {"list": {"i": ["1", "1", "1", "1"]}}, "fused_ops": {"list": {"s": ["Qmlhc0FkZA=="]}}, "T": {"type": "DT_FLOAT"}, "padding": {"s": "VkFMSUQ="}}}, {"name": "model_27/tf.math.sigmoid_123/Sigmoid", "op": "Sigmoid", "input": ["model_27/tf.math.add_184/Add"], "attr": {"T": {"type": "DT_FLOAT"}}}, {"name": "model_27/tf.math.multiply_558/Mul", "op": "Mul", "input": ["model_27/tf.math.add_184/Add", "model_27/tf.math.sigmoid_123/Sigmoid"], "attr": {"T": {"type": "DT_FLOAT"}}}, {"name": "model_27/tf.math.add_185/Add", "op": "_FusedConv2D", "input": ["model_27/tf.math.multiply_558/Mul", "model_27/tf.nn.convolution_130/convolution/filter", "model_27/tf.math.add_185/Add/y"], "device": "/device:CPU:0", "attr": {"fused_ops": {"list": {"s": ["Qmlhc0FkZA=="]}}, "num_args": {"i": "1"}, "dilations": {"list": {"i": ["1", "1", "1", "1"]}}, "num_host_args": {"i": "0"}, "strides": {"list": {"i": ["1", "1", "1", "1"]}}, "epsilon": {"f": 0.0}, "T": {"type": "DT_FLOAT"}, "TArgs": {"list": {"type": ["DT_FLOAT"]}}, "use_cudnn_on_gpu": {"b": true}, "filter_format": {"s": "SFdJTw=="}, "explicit_paddings": {"list": {}}, "leakyrelu_alpha": {"f": 0.2}, "padding": {"s": "U0FNRQ=="}, "data_format": {"s": "TkhXQw=="}}}, {"name": "model_27/tf.math.sigmoid_124/Sigmoid", "op": "Sigmoid", "input": ["model_27/tf.math.add_185/Add"], "attr": {"T": {"type": "DT_FLOAT"}}}, {"name": "model_27/tf.math.multiply_562/Mul", "op": "Mul", "input": ["model_27/tf.math.add_185/Add", "model_27/tf.math.sigmoid_124/Sigmoid"], "attr": {"T": {"type": "DT_FLOAT"}}}, {"name": "model_27/tf.strided_slice_24/StridedSlice", "op": "StridedSlice", "input": ["model_27/tf.math.multiply_562/Mul", "model_27/tf.strided_slice_24/ones_like/tensor", "model_27/tf.strided_slice_24/StridedSlice/end", "model_27/tf.strided_slice_24/ones_like"], "attr": {"T": {"type": "DT_FLOAT"}, "begin_mask": {"i": "15"}, "shrink_axis_mask": {"i": "0"}, "ellipsis_mask": {"i": "0"}, "new_axis_mask": {"i": "0"}, "Index": {"type": "DT_INT64"}, "end_mask": {"i": "7"}}}, {"name": "model_27/tf.strided_slice_25/StridedSlice", "op": "StridedSlice", "input": ["model_27/tf.math.multiply_562/Mul", "model_27/tf.strided_slice_25/ones_like/tensor", "model_27/tf.strided_slice_25/StridedSlice/end", "model_27/tf.strided_slice_25/ones_like"], "attr": {"shrink_axis_mask": {"i": "0"}, "T": {"type": "DT_FLOAT"}, "new_axis_mask": {"i": "0"}, "Index": {"type": "DT_INT64"}, "begin_mask": {"i": "7"}, "end_mask": {"i": "7"}, "ellipsis_mask": {"i": "0"}}}, {"name": "model_27/tf.math.add_186/Add", "op": "_FusedConv2D", "input": ["model_27/tf.strided_slice_25/StridedSlice", "model_27/tf.nn.convolution_131/convolution/filter", "model_27/tf.math.add_186/Add/y"], "device": "/device:CPU:0", "attr": {"num_host_args": {"i": "0"}, "T": {"type": "DT_FLOAT"}, "TArgs": {"list": {"type": ["DT_FLOAT"]}}, "fused_ops": {"list": {"s": ["Qmlhc0FkZA=="]}}, "strides": {"list": {"i": ["1", "1", "1", "1"]}}, "use_cudnn_on_gpu": {"b": true}, "dilations": {"list": {"i": ["1", "1", "1", "1"]}}, "leakyrelu_alpha": {"f": 0.2}, "data_format": {"s": "TkhXQw=="}, "num_args": {"i": "1"}, "explicit_paddings": {"list": {}}, "padding": {"s": "U0FNRQ=="}, "epsilon": {"f": 0.0}, "filter_format": {"s": "SFdJTw=="}}}, {"name": "model_27/tf.math.sigmoid_125/Sigmoid", "op": "Sigmoid", "input": ["model_27/tf.math.add_186/Add"], "attr": {"T": {"type": "DT_FLOAT"}}}, {"name": "model_27/tf.math.multiply_566/Mul", "op": "Mul", "input": ["model_27/tf.math.add_186/Add", "model_27/tf.math.sigmoid_125/Sigmoid"], "attr": {"T": {"type": "DT_FLOAT"}}}, {"name": "model_27/tf.math.add_187/Add", "op": "_FusedConv2D", "input": ["model_27/tf.math.multiply_566/Mul", "model_27/tf.nn.convolution_132/convolution/filter", "model_27/tf.math.add_187/Add/y"], "device": "/device:CPU:0", "attr": {"strides": {"list": {"i": ["1", "1", "1", "1"]}}, "fused_ops": {"list": {"s": ["Qmlhc0FkZA=="]}}, "data_format": {"s": "TkhXQw=="}, "num_host_args": {"i": "0"}, "filter_format": {"s": "SFdJTw=="}, "leakyrelu_alpha": {"f": 0.2}, "TArgs": {"list": {"type": ["DT_FLOAT"]}}, "T": {"type": "DT_FLOAT"}, "num_args": {"i": "1"}, "dilations": {"list": {"i": ["1", "1", "1", "1"]}}, "padding": {"s": "U0FNRQ=="}, "explicit_paddings": {"list": {}}, "use_cudnn_on_gpu": {"b": true}, "epsilon": {"f": 0.0}}}, {"name": "model_27/tf.math.sigmoid_126/Sigmoid", "op": "Sigmoid", "input": ["model_27/tf.math.add_187/Add"], "attr": {"T": {"type": "DT_FLOAT"}}}, {"name": "model_27/tf.math.multiply_570/Mul", "op": "Mul", "input": ["model_27/tf.math.add_187/Add", "model_27/tf.math.sigmoid_126/Sigmoid"], "attr": {"T": {"type": "DT_FLOAT"}}}, {"name": "model_27/tf.math.add_189/Add", "op": "AddV2", "input": ["model_27/tf.strided_slice_25/StridedSlice", "model_27/tf.math.multiply_570/Mul"], "attr": {"T": {"type": "DT_FLOAT"}}}, {"name": "model_27/tf.math.add_190/Add", "op": "_FusedConv2D", "input": ["model_27/tf.math.add_189/Add", "model_27/tf.nn.convolution_133/convolution/filter", "model_27/tf.math.add_190/Add/y"], "device": "/device:CPU:0", "attr": {"explicit_paddings": {"list": {}}, "padding": {"s": "U0FNRQ=="}, "dilations": {"list": {"i": ["1", "1", "1", "1"]}}, "num_args": {"i": "1"}, "T": {"type": "DT_FLOAT"}, "num_host_args": {"i": "0"}, "strides": {"list": {"i": ["1", "1", "1", "1"]}}, "epsilon": {"f": 0.0}, "filter_format": {"s": "SFdJTw=="}, "fused_ops": {"list": {"s": ["Qmlhc0FkZA=="]}}, "data_format": {"s": "TkhXQw=="}, "leakyrelu_alpha": {"f": 0.2}, "TArgs": {"list": {"type": ["DT_FLOAT"]}}, "use_cudnn_on_gpu": {"b": true}}}, {"name": "model_27/tf.math.sigmoid_127/Sigmoid", "op": "Sigmoid", "input": ["model_27/tf.math.add_190/Add"], "attr": {"T": {"type": "DT_FLOAT"}}}, {"name": "model_27/tf.math.multiply_576/Mul", "op": "Mul", "input": ["model_27/tf.math.add_190/Add", "model_27/tf.math.sigmoid_127/Sigmoid"], "attr": {"T": {"type": "DT_FLOAT"}}}, {"name": "model_27/tf.math.add_191/Add", "op": "_FusedConv2D", "input": ["model_27/tf.math.multiply_576/Mul", "model_27/tf.nn.convolution_134/convolution/filter", "model_27/tf.math.add_191/Add/y"], "device": "/device:CPU:0", "attr": {"num_host_args": {"i": "0"}, "leakyrelu_alpha": {"f": 0.2}, "dilations": {"list": {"i": ["1", "1", "1", "1"]}}, "filter_format": {"s": "SFdJTw=="}, "explicit_paddings": {"list": {}}, "fused_ops": {"list": {"s": ["Qmlhc0FkZA=="]}}, "T": {"type": "DT_FLOAT"}, "data_format": {"s": "TkhXQw=="}, "TArgs": {"list": {"type": ["DT_FLOAT"]}}, "padding": {"s": "U0FNRQ=="}, "use_cudnn_on_gpu": {"b": true}, "strides": {"list": {"i": ["1", "1", "1", "1"]}}, "epsilon": {"f": 0.0}, "num_args": {"i": "1"}}}, {"name": "model_27/tf.math.sigmoid_128/Sigmoid", "op": "Sigmoid", "input": ["model_27/tf.math.add_191/Add"], "attr": {"T": {"type": "DT_FLOAT"}}}, {"name": "model_27/tf.math.multiply_580/Mul", "op": "Mul", "input": ["model_27/tf.math.add_191/Add", "model_27/tf.math.sigmoid_128/Sigmoid"], "attr": {"T": {"type": "DT_FLOAT"}}}, {"name": "model_27/tf.math.add_193/Add", "op": "AddV2", "input": ["model_27/tf.math.add_189/Add", "model_27/tf.math.multiply_580/Mul"], "attr": {"T": {"type": "DT_FLOAT"}}}, {"name": "model_27/tf.math.add_194/Add", "op": "_FusedConv2D", "input": ["model_27/tf.math.add_193/Add", "model_27/tf.nn.convolution_135/convolution/filter", "model_27/tf.math.add_194/Add/y"], "device": "/device:CPU:0", "attr": {"use_cudnn_on_gpu": {"b": true}, "explicit_paddings": {"list": {}}, "strides": {"list": {"i": ["1", "1", "1", "1"]}}, "leakyrelu_alpha": {"f": 0.2}, "TArgs": {"list": {"type": ["DT_FLOAT"]}}, "fused_ops": {"list": {"s": ["Qmlhc0FkZA=="]}}, "num_args": {"i": "1"}, "data_format": {"s": "TkhXQw=="}, "dilations": {"list": {"i": ["1", "1", "1", "1"]}}, "padding": {"s": "U0FNRQ=="}, "num_host_args": {"i": "0"}, "filter_format": {"s": "SFdJTw=="}, "epsilon": {"f": 0.0}, "T": {"type": "DT_FLOAT"}}}, {"name": "model_27/tf.math.sigmoid_129/Sigmoid", "op": "Sigmoid", "input": ["model_27/tf.math.add_194/Add"], "attr": {"T": {"type": "DT_FLOAT"}}}, {"name": "model_27/tf.math.multiply_586/Mul", "op": "Mul", "input": ["model_27/tf.math.add_194/Add", "model_27/tf.math.sigmoid_129/Sigmoid"], "attr": {"T": {"type": "DT_FLOAT"}}}, {"name": "model_27/tf.math.add_195/Add", "op": "_FusedConv2D", "input": ["model_27/tf.math.multiply_586/Mul", "model_27/tf.nn.convolution_136/convolution/filter", "model_27/tf.math.add_195/Add/y"], "device": "/device:CPU:0", "attr": {"dilations": {"list": {"i": ["1", "1", "1", "1"]}}, "fused_ops": {"list": {"s": ["Qmlhc0FkZA=="]}}, "filter_format": {"s": "SFdJTw=="}, "data_format": {"s": "TkhXQw=="}, "explicit_paddings": {"list": {}}, "padding": {"s": "U0FNRQ=="}, "T": {"type": "DT_FLOAT"}, "TArgs": {"list": {"type": ["DT_FLOAT"]}}, "num_host_args": {"i": "0"}, "leakyrelu_alpha": {"f": 0.2}, "epsilon": {"f": 0.0}, "use_cudnn_on_gpu": {"b": true}, "strides": {"list": {"i": ["1", "1", "1", "1"]}}, "num_args": {"i": "1"}}}, {"name": "model_27/tf.math.sigmoid_130/Sigmoid", "op": "Sigmoid", "input": ["model_27/tf.math.add_195/Add"], "attr": {"T": {"type": "DT_FLOAT"}}}, {"name": "model_27/tf.math.multiply_590/Mul", "op": "Mul", "input": ["model_27/tf.math.add_195/Add", "model_27/tf.math.sigmoid_130/Sigmoid"], "attr": {"T": {"type": "DT_FLOAT"}}}, {"name": "model_27/tf.math.add_197/Add", "op": "AddV2", "input": ["model_27/tf.math.add_193/Add", "model_27/tf.math.multiply_590/Mul"], "attr": {"T": {"type": "DT_FLOAT"}}}, {"name": "model_27/tf.math.add_198/Add", "op": "_FusedConv2D", "input": ["model_27/tf.math.add_197/Add", "model_27/tf.nn.convolution_137/convolution/filter", "model_27/tf.math.add_198/Add/y"], "device": "/device:CPU:0", "attr": {"data_format": {"s": "TkhXQw=="}, "fused_ops": {"list": {"s": ["Qmlhc0FkZA=="]}}, "padding": {"s": "U0FNRQ=="}, "dilations": {"list": {"i": ["1", "1", "1", "1"]}}, "epsilon": {"f": 0.0}, "use_cudnn_on_gpu": {"b": true}, "explicit_paddings": {"list": {}}, "num_args": {"i": "1"}, "filter_format": {"s": "SFdJTw=="}, "TArgs": {"list": {"type": ["DT_FLOAT"]}}, "leakyrelu_alpha": {"f": 0.2}, "T": {"type": "DT_FLOAT"}, "num_host_args": {"i": "0"}, "strides": {"list": {"i": ["1", "1", "1", "1"]}}}}, {"name": "model_27/tf.math.sigmoid_131/Sigmoid", "op": "Sigmoid", "input": ["model_27/tf.math.add_198/Add"], "attr": {"T": {"type": "DT_FLOAT"}}}, {"name": "model_27/tf.math.multiply_596/Mul", "op": "Mul", "input": ["model_27/tf.math.add_198/Add", "model_27/tf.math.sigmoid_131/Sigmoid"], "attr": {"T": {"type": "DT_FLOAT"}}}, {"name": "model_27/tf.math.add_199/Add", "op": "_FusedConv2D", "input": ["model_27/tf.math.multiply_596/Mul", "model_27/tf.nn.convolution_138/convolution/filter", "model_27/tf.math.add_199/Add/y"], "device": "/device:CPU:0", "attr": {"leakyrelu_alpha": {"f": 0.2}, "data_format": {"s": "TkhXQw=="}, "filter_format": {"s": "SFdJTw=="}, "fused_ops": {"list": {"s": ["Qmlhc0FkZA=="]}}, "use_cudnn_on_gpu": {"b": true}, "T": {"type": "DT_FLOAT"}, "epsilon": {"f": 0.0}, "num_host_args": {"i": "0"}, "TArgs": {"list": {"type": ["DT_FLOAT"]}}, "strides": {"list": {"i": ["1", "1", "1", "1"]}}, "explicit_paddings": {"list": {}}, "dilations": {"list": {"i": ["1", "1", "1", "1"]}}, "num_args": {"i": "1"}, "padding": {"s": "U0FNRQ=="}}}, {"name": "model_27/tf.math.sigmoid_132/Sigmoid", "op": "Sigmoid", "input": ["model_27/tf.math.add_199/Add"], "attr": {"T": {"type": "DT_FLOAT"}}}, {"name": "model_27/tf.math.multiply_600/Mul", "op": "Mul", "input": ["model_27/tf.math.add_199/Add", "model_27/tf.math.sigmoid_132/Sigmoid"], "attr": {"T": {"type": "DT_FLOAT"}}}, {"name": "model_27/tf.math.add_201/Add", "op": "AddV2", "input": ["model_27/tf.math.add_197/Add", "model_27/tf.math.multiply_600/Mul"], "attr": {"T": {"type": "DT_FLOAT"}}}, {"name": "model_27/tf.math.add_202/Add", "op": "_FusedConv2D", "input": ["model_27/tf.math.add_201/Add", "model_27/tf.nn.convolution_139/convolution/filter", "model_27/tf.math.add_202/Add/y"], "device": "/device:CPU:0", "attr": {"filter_format": {"s": "SFdJTw=="}, "fused_ops": {"list": {"s": ["Qmlhc0FkZA=="]}}, "use_cudnn_on_gpu": {"b": true}, "num_args": {"i": "1"}, "padding": {"s": "U0FNRQ=="}, "data_format": {"s": "TkhXQw=="}, "dilations": {"list": {"i": ["1", "1", "1", "1"]}}, "leakyrelu_alpha": {"f": 0.2}, "T": {"type": "DT_FLOAT"}, "epsilon": {"f": 0.0}, "explicit_paddings": {"list": {}}, "strides": {"list": {"i": ["1", "1", "1", "1"]}}, "num_host_args": {"i": "0"}, "TArgs": {"list": {"type": ["DT_FLOAT"]}}}}, {"name": "model_27/tf.math.sigmoid_133/Sigmoid", "op": "Sigmoid", "input": ["model_27/tf.math.add_202/Add"], "attr": {"T": {"type": "DT_FLOAT"}}}, {"name": "model_27/tf.math.multiply_606/Mul", "op": "Mul", "input": ["model_27/tf.math.add_202/Add", "model_27/tf.math.sigmoid_133/Sigmoid"], "attr": {"T": {"type": "DT_FLOAT"}}}, {"name": "model_27/tf.math.add_203/Add", "op": "_FusedConv2D", "input": ["model_27/tf.math.multiply_606/Mul", "model_27/tf.nn.convolution_140/convolution/filter", "model_27/tf.math.add_203/Add/y"], "device": "/device:CPU:0", "attr": {"T": {"type": "DT_FLOAT"}, "num_args": {"i": "1"}, "TArgs": {"list": {"type": ["DT_FLOAT"]}}, "filter_format": {"s": "SFdJTw=="}, "num_host_args": {"i": "0"}, "use_cudnn_on_gpu": {"b": true}, "strides": {"list": {"i": ["1", "1", "1", "1"]}}, "padding": {"s": "U0FNRQ=="}, "explicit_paddings": {"list": {}}, "data_format": {"s": "TkhXQw=="}, "fused_ops": {"list": {"s": ["Qmlhc0FkZA=="]}}, "epsilon": {"f": 0.0}, "leakyrelu_alpha": {"f": 0.2}, "dilations": {"list": {"i": ["1", "1", "1", "1"]}}}}, {"name": "model_27/tf.math.sigmoid_134/Sigmoid", "op": "Sigmoid", "input": ["model_27/tf.math.add_203/Add"], "attr": {"T": {"type": "DT_FLOAT"}}}, {"name": "model_27/tf.math.multiply_610/Mul", "op": "Mul", "input": ["model_27/tf.math.add_203/Add", "model_27/tf.math.sigmoid_134/Sigmoid"], "attr": {"T": {"type": "DT_FLOAT"}}}, {"name": "model_27/tf.math.add_205/Add", "op": "AddV2", "input": ["model_27/tf.math.add_201/Add", "model_27/tf.math.multiply_610/Mul"], "attr": {"T": {"type": "DT_FLOAT"}}}, {"name": "model_27/tf.math.add_206/Add", "op": "_FusedConv2D", "input": ["model_27/tf.math.add_205/Add", "model_27/tf.nn.convolution_141/convolution/filter", "model_27/tf.math.add_206/Add/y"], "device": "/device:CPU:0", "attr": {"strides": {"list": {"i": ["1", "1", "1", "1"]}}, "epsilon": {"f": 0.0}, "T": {"type": "DT_FLOAT"}, "TArgs": {"list": {"type": ["DT_FLOAT"]}}, "num_args": {"i": "1"}, "filter_format": {"s": "SFdJTw=="}, "leakyrelu_alpha": {"f": 0.2}, "data_format": {"s": "TkhXQw=="}, "fused_ops": {"list": {"s": ["Qmlhc0FkZA=="]}}, "explicit_paddings": {"list": {}}, "use_cudnn_on_gpu": {"b": true}, "dilations": {"list": {"i": ["1", "1", "1", "1"]}}, "num_host_args": {"i": "0"}, "padding": {"s": "U0FNRQ=="}}}, {"name": "model_27/tf.math.sigmoid_135/Sigmoid", "op": "Sigmoid", "input": ["model_27/tf.math.add_206/Add"], "attr": {"T": {"type": "DT_FLOAT"}}}, {"name": "model_27/tf.math.multiply_616/Mul", "op": "Mul", "input": ["model_27/tf.math.add_206/Add", "model_27/tf.math.sigmoid_135/Sigmoid"], "attr": {"T": {"type": "DT_FLOAT"}}}, {"name": "model_27/tf.math.add_207/Add", "op": "_FusedConv2D", "input": ["model_27/tf.math.multiply_616/Mul", "model_27/tf.nn.convolution_142/convolution/filter", "model_27/tf.math.add_207/Add/y"], "device": "/device:CPU:0", "attr": {"num_host_args": {"i": "0"}, "epsilon": {"f": 0.0}, "leakyrelu_alpha": {"f": 0.2}, "TArgs": {"list": {"type": ["DT_FLOAT"]}}, "filter_format": {"s": "SFdJTw=="}, "fused_ops": {"list": {"s": ["Qmlhc0FkZA=="]}}, "num_args": {"i": "1"}, "T": {"type": "DT_FLOAT"}, "padding": {"s": "U0FNRQ=="}, "dilations": {"list": {"i": ["1", "1", "1", "1"]}}, "explicit_paddings": {"list": {}}, "data_format": {"s": "TkhXQw=="}, "strides": {"list": {"i": ["1", "1", "1", "1"]}}, "use_cudnn_on_gpu": {"b": true}}}, {"name": "model_27/tf.math.sigmoid_136/Sigmoid", "op": "Sigmoid", "input": ["model_27/tf.math.add_207/Add"], "attr": {"T": {"type": "DT_FLOAT"}}}, {"name": "model_27/tf.math.multiply_620/Mul", "op": "Mul", "input": ["model_27/tf.math.add_207/Add", "model_27/tf.math.sigmoid_136/Sigmoid"], "attr": {"T": {"type": "DT_FLOAT"}}}, {"name": "model_27/tf.math.add_209/Add", "op": "AddV2", "input": ["model_27/tf.math.add_205/Add", "model_27/tf.math.multiply_620/Mul"], "attr": {"T": {"type": "DT_FLOAT"}}}, {"name": "model_27/tf.concat_24/concat", "op": "ConcatV2", "input": ["model_27/tf.strided_slice_24/StridedSlice", "model_27/tf.strided_slice_25/StridedSlice", "model_27/tf.math.add_189/Add", "model_27/tf.math.add_193/Add", "model_27/tf.math.add_197/Add", "model_27/tf.math.add_201/Add", "model_27/tf.math.add_205/Add", "model_27/tf.math.add_209/Add", "model_27/tf.concat_24/concat/axis"], "attr": {"T": {"type": "DT_FLOAT"}, "Tidx": {"type": "DT_INT32"}, "N": {"i": "8"}}}, {"name": "model_27/tf.math.add_210/Add", "op": "_FusedConv2D", "input": ["model_27/tf.concat_24/concat", "model_27/tf.nn.convolution_143/convolution/filter", "model_27/tf.math.add_210/Add/y"], "device": "/device:CPU:0", "attr": {"filter_format": {"s": "SFdJTw=="}, "padding": {"s": "U0FNRQ=="}, "dilations": {"list": {"i": ["1", "1", "1", "1"]}}, "TArgs": {"list": {"type": ["DT_FLOAT"]}}, "num_host_args": {"i": "0"}, "leakyrelu_alpha": {"f": 0.2}, "data_format": {"s": "TkhXQw=="}, "explicit_paddings": {"list": {}}, "T": {"type": "DT_FLOAT"}, "epsilon": {"f": 0.0}, "fused_ops": {"list": {"s": ["Qmlhc0FkZA=="]}}, "strides": {"list": {"i": ["1", "1", "1", "1"]}}, "num_args": {"i": "1"}, "use_cudnn_on_gpu": {"b": true}}}, {"name": "model_27/tf.math.sigmoid_137/Sigmoid", "op": "Sigmoid", "input": ["model_27/tf.math.add_210/Add"], "attr": {"T": {"type": "DT_FLOAT"}}}, {"name": "model_27/tf.math.multiply_626/Mul", "op": "Mul", "input": ["model_27/tf.math.add_210/Add", "model_27/tf.math.sigmoid_137/Sigmoid"], "attr": {"T": {"type": "DT_FLOAT"}}}, {"name": "model_27/tf.compat.v1.pad_11/Pad", "op": "Pad", "input": ["model_27/tf.math.multiply_626/Mul", "model_27/tf.compat.v1.pad_11/Pad/paddings"], "attr": {"Tpaddings": {"type": "DT_INT32"}, "T": {"type": "DT_FLOAT"}}}, {"name": "model_27/tf.math.add_211/Add", "op": "_FusedConv2D", "input": ["model_27/tf.compat.v1.pad_11/Pad", "model_27/tf.nn.convolution_144/convolution/filter", "model_27/tf.math.add_211/Add/y"], "device": "/device:CPU:0", "attr": {"padding": {"s": "VkFMSUQ="}, "filter_format": {"s": "SFdJTw=="}, "leakyrelu_alpha": {"f": 0.2}, "explicit_paddings": {"list": {}}, "use_cudnn_on_gpu": {"b": true}, "TArgs": {"list": {"type": ["DT_FLOAT"]}}, "dilations": {"list": {"i": ["1", "1", "1", "1"]}}, "epsilon": {"f": 0.0}, "T": {"type": "DT_FLOAT"}, "num_host_args": {"i": "0"}, "fused_ops": {"list": {"s": ["Qmlhc0FkZA=="]}}, "strides": {"list": {"i": ["1", "2", "2", "1"]}}, "num_args": {"i": "1"}, "data_format": {"s": "TkhXQw=="}}}, {"name": "model_27/tf.math.sigmoid_138/Sigmoid", "op": "Sigmoid", "input": ["model_27/tf.math.add_211/Add"], "attr": {"T": {"type": "DT_FLOAT"}}}, {"name": "model_27/tf.math.multiply_630/Mul", "op": "Mul", "input": ["model_27/tf.math.add_211/Add", "model_27/tf.math.sigmoid_138/Sigmoid"], "attr": {"T": {"type": "DT_FLOAT"}}}, {"name": "model_27/tf.math.add_212/Add", "op": "_FusedConv2D", "input": ["model_27/tf.math.multiply_630/Mul", "model_27/tf.nn.convolution_145/convolution/filter", "model_27/tf.math.add_212/Add/y"], "device": "/device:CPU:0", "attr": {"num_host_args": {"i": "0"}, "padding": {"s": "U0FNRQ=="}, "use_cudnn_on_gpu": {"b": true}, "epsilon": {"f": 0.0}, "leakyrelu_alpha": {"f": 0.2}, "explicit_paddings": {"list": {}}, "TArgs": {"list": {"type": ["DT_FLOAT"]}}, "T": {"type": "DT_FLOAT"}, "num_args": {"i": "1"}, "fused_ops": {"list": {"s": ["Qmlhc0FkZA=="]}}, "data_format": {"s": "TkhXQw=="}, "dilations": {"list": {"i": ["1", "1", "1", "1"]}}, "strides": {"list": {"i": ["1", "1", "1", "1"]}}, "filter_format": {"s": "SFdJTw=="}}}, {"name": "model_27/tf.math.sigmoid_139/Sigmoid", "op": "Sigmoid", "input": ["model_27/tf.math.add_212/Add"], "attr": {"T": {"type": "DT_FLOAT"}}}, {"name": "model_27/tf.math.multiply_634/Mul", "op": "Mul", "input": ["model_27/tf.math.add_212/Add", "model_27/tf.math.sigmoid_139/Sigmoid"], "attr": {"T": {"type": "DT_FLOAT"}}}, {"name": "model_27/tf.strided_slice_26/StridedSlice", "op": "StridedSlice", "input": ["model_27/tf.math.multiply_634/Mul", "model_27/tf.strided_slice_26/ones_like/tensor", "model_27/tf.strided_slice_26/StridedSlice/end", "model_27/tf.strided_slice_26/ones_like"], "attr": {"shrink_axis_mask": {"i": "0"}, "ellipsis_mask": {"i": "0"}, "begin_mask": {"i": "15"}, "T": {"type": "DT_FLOAT"}, "end_mask": {"i": "7"}, "Index": {"type": "DT_INT64"}, "new_axis_mask": {"i": "0"}}}, {"name": "model_27/tf.strided_slice_27/StridedSlice", "op": "StridedSlice", "input": ["model_27/tf.math.multiply_634/Mul", "model_27/tf.strided_slice_27/ones_like/tensor", "model_27/tf.strided_slice_27/StridedSlice/end", "model_27/tf.strided_slice_27/ones_like"], "attr": {"ellipsis_mask": {"i": "0"}, "T": {"type": "DT_FLOAT"}, "shrink_axis_mask": {"i": "0"}, "end_mask": {"i": "7"}, "begin_mask": {"i": "7"}, "Index": {"type": "DT_INT64"}, "new_axis_mask": {"i": "0"}}}, {"name": "model_27/tf.math.add_213/Add", "op": "_FusedConv2D", "input": ["model_27/tf.strided_slice_27/StridedSlice", "model_27/tf.nn.convolution_146/convolution/filter", "model_27/tf.math.add_213/Add/y"], "device": "/device:CPU:0", "attr": {"strides": {"list": {"i": ["1", "1", "1", "1"]}}, "T": {"type": "DT_FLOAT"}, "num_host_args": {"i": "0"}, "padding": {"s": "U0FNRQ=="}, "epsilon": {"f": 0.0}, "filter_format": {"s": "SFdJTw=="}, "num_args": {"i": "1"}, "data_format": {"s": "TkhXQw=="}, "TArgs": {"list": {"type": ["DT_FLOAT"]}}, "dilations": {"list": {"i": ["1", "1", "1", "1"]}}, "leakyrelu_alpha": {"f": 0.2}, "fused_ops": {"list": {"s": ["Qmlhc0FkZA=="]}}, "use_cudnn_on_gpu": {"b": true}, "explicit_paddings": {"list": {}}}}, {"name": "model_27/tf.math.sigmoid_140/Sigmoid", "op": "Sigmoid", "input": ["model_27/tf.math.add_213/Add"], "attr": {"T": {"type": "DT_FLOAT"}}}, {"name": "model_27/tf.math.multiply_638/Mul", "op": "Mul", "input": ["model_27/tf.math.add_213/Add", "model_27/tf.math.sigmoid_140/Sigmoid"], "attr": {"T": {"type": "DT_FLOAT"}}}, {"name": "model_27/tf.math.add_214/Add", "op": "_FusedConv2D", "input": ["model_27/tf.math.multiply_638/Mul", "model_27/tf.nn.convolution_147/convolution/filter", "model_27/tf.math.add_214/Add/y"], "device": "/device:CPU:0", "attr": {"epsilon": {"f": 0.0}, "strides": {"list": {"i": ["1", "1", "1", "1"]}}, "fused_ops": {"list": {"s": ["Qmlhc0FkZA=="]}}, "TArgs": {"list": {"type": ["DT_FLOAT"]}}, "use_cudnn_on_gpu": {"b": true}, "explicit_paddings": {"list": {}}, "num_host_args": {"i": "0"}, "data_format": {"s": "TkhXQw=="}, "leakyrelu_alpha": {"f": 0.2}, "dilations": {"list": {"i": ["1", "1", "1", "1"]}}, "filter_format": {"s": "SFdJTw=="}, "padding": {"s": "U0FNRQ=="}, "num_args": {"i": "1"}, "T": {"type": "DT_FLOAT"}}}, {"name": "model_27/tf.math.sigmoid_141/Sigmoid", "op": "Sigmoid", "input": ["model_27/tf.math.add_214/Add"], "attr": {"T": {"type": "DT_FLOAT"}}}, {"name": "model_27/tf.math.multiply_642/Mul", "op": "Mul", "input": ["model_27/tf.math.add_214/Add", "model_27/tf.math.sigmoid_141/Sigmoid"], "attr": {"T": {"type": "DT_FLOAT"}}}, {"name": "model_27/tf.math.add_216/Add", "op": "AddV2", "input": ["model_27/tf.strided_slice_27/StridedSlice", "model_27/tf.math.multiply_642/Mul"], "attr": {"T": {"type": "DT_FLOAT"}}}, {"name": "model_27/tf.math.add_217/Add", "op": "_FusedConv2D", "input": ["model_27/tf.math.add_216/Add", "model_27/tf.nn.convolution_148/convolution/filter", "model_27/tf.math.add_217/Add/y"], "device": "/device:CPU:0", "attr": {"TArgs": {"list": {"type": ["DT_FLOAT"]}}, "num_args": {"i": "1"}, "leakyrelu_alpha": {"f": 0.2}, "use_cudnn_on_gpu": {"b": true}, "filter_format": {"s": "SFdJTw=="}, "num_host_args": {"i": "0"}, "epsilon": {"f": 0.0}, "strides": {"list": {"i": ["1", "1", "1", "1"]}}, "explicit_paddings": {"list": {}}, "dilations": {"list": {"i": ["1", "1", "1", "1"]}}, "data_format": {"s": "TkhXQw=="}, "padding": {"s": "U0FNRQ=="}, "T": {"type": "DT_FLOAT"}, "fused_ops": {"list": {"s": ["Qmlhc0FkZA=="]}}}}, {"name": "model_27/tf.math.sigmoid_142/Sigmoid", "op": "Sigmoid", "input": ["model_27/tf.math.add_217/Add"], "attr": {"T": {"type": "DT_FLOAT"}}}, {"name": "model_27/tf.math.multiply_648/Mul", "op": "Mul", "input": ["model_27/tf.math.add_217/Add", "model_27/tf.math.sigmoid_142/Sigmoid"], "attr": {"T": {"type": "DT_FLOAT"}}}, {"name": "model_27/tf.math.add_218/Add", "op": "_FusedConv2D", "input": ["model_27/tf.math.multiply_648/Mul", "model_27/tf.nn.convolution_149/convolution/filter", "model_27/tf.math.add_218/Add/y"], "device": "/device:CPU:0", "attr": {"num_args": {"i": "1"}, "explicit_paddings": {"list": {}}, "filter_format": {"s": "SFdJTw=="}, "strides": {"list": {"i": ["1", "1", "1", "1"]}}, "epsilon": {"f": 0.0}, "fused_ops": {"list": {"s": ["Qmlhc0FkZA=="]}}, "use_cudnn_on_gpu": {"b": true}, "data_format": {"s": "TkhXQw=="}, "leakyrelu_alpha": {"f": 0.2}, "padding": {"s": "U0FNRQ=="}, "T": {"type": "DT_FLOAT"}, "num_host_args": {"i": "0"}, "dilations": {"list": {"i": ["1", "1", "1", "1"]}}, "TArgs": {"list": {"type": ["DT_FLOAT"]}}}}, {"name": "model_27/tf.math.sigmoid_143/Sigmoid", "op": "Sigmoid", "input": ["model_27/tf.math.add_218/Add"], "attr": {"T": {"type": "DT_FLOAT"}}}, {"name": "model_27/tf.math.multiply_652/Mul", "op": "Mul", "input": ["model_27/tf.math.add_218/Add", "model_27/tf.math.sigmoid_143/Sigmoid"], "attr": {"T": {"type": "DT_FLOAT"}}}, {"name": "model_27/tf.math.add_220/Add", "op": "AddV2", "input": ["model_27/tf.math.add_216/Add", "model_27/tf.math.multiply_652/Mul"], "attr": {"T": {"type": "DT_FLOAT"}}}, {"name": "model_27/tf.math.add_221/Add", "op": "_FusedConv2D", "input": ["model_27/tf.math.add_220/Add", "model_27/tf.nn.convolution_150/convolution/filter", "model_27/tf.math.add_221/Add/y"], "device": "/device:CPU:0", "attr": {"data_format": {"s": "TkhXQw=="}, "explicit_paddings": {"list": {}}, "filter_format": {"s": "SFdJTw=="}, "T": {"type": "DT_FLOAT"}, "leakyrelu_alpha": {"f": 0.2}, "num_host_args": {"i": "0"}, "num_args": {"i": "1"}, "padding": {"s": "U0FNRQ=="}, "epsilon": {"f": 0.0}, "strides": {"list": {"i": ["1", "1", "1", "1"]}}, "fused_ops": {"list": {"s": ["Qmlhc0FkZA=="]}}, "dilations": {"list": {"i": ["1", "1", "1", "1"]}}, "use_cudnn_on_gpu": {"b": true}, "TArgs": {"list": {"type": ["DT_FLOAT"]}}}}, {"name": "model_27/tf.math.sigmoid_144/Sigmoid", "op": "Sigmoid", "input": ["model_27/tf.math.add_221/Add"], "attr": {"T": {"type": "DT_FLOAT"}}}, {"name": "model_27/tf.math.multiply_658/Mul", "op": "Mul", "input": ["model_27/tf.math.add_221/Add", "model_27/tf.math.sigmoid_144/Sigmoid"], "attr": {"T": {"type": "DT_FLOAT"}}}, {"name": "model_27/tf.math.add_222/Add", "op": "_FusedConv2D", "input": ["model_27/tf.math.multiply_658/Mul", "model_27/tf.nn.convolution_151/convolution/filter", "model_27/tf.math.add_222/Add/y"], "device": "/device:CPU:0", "attr": {"padding": {"s": "U0FNRQ=="}, "epsilon": {"f": 0.0}, "num_host_args": {"i": "0"}, "filter_format": {"s": "SFdJTw=="}, "use_cudnn_on_gpu": {"b": true}, "strides": {"list": {"i": ["1", "1", "1", "1"]}}, "data_format": {"s": "TkhXQw=="}, "leakyrelu_alpha": {"f": 0.2}, "dilations": {"list": {"i": ["1", "1", "1", "1"]}}, "TArgs": {"list": {"type": ["DT_FLOAT"]}}, "T": {"type": "DT_FLOAT"}, "fused_ops": {"list": {"s": ["Qmlhc0FkZA=="]}}, "explicit_paddings": {"list": {}}, "num_args": {"i": "1"}}}, {"name": "model_27/tf.math.sigmoid_145/Sigmoid", "op": "Sigmoid", "input": ["model_27/tf.math.add_222/Add"], "attr": {"T": {"type": "DT_FLOAT"}}}, {"name": "model_27/tf.math.multiply_662/Mul", "op": "Mul", "input": ["model_27/tf.math.add_222/Add", "model_27/tf.math.sigmoid_145/Sigmoid"], "attr": {"T": {"type": "DT_FLOAT"}}}, {"name": "model_27/tf.math.add_224/Add", "op": "AddV2", "input": ["model_27/tf.math.add_220/Add", "model_27/tf.math.multiply_662/Mul"], "attr": {"T": {"type": "DT_FLOAT"}}}, {"name": "model_27/tf.concat_25/concat", "op": "ConcatV2", "input": ["model_27/tf.strided_slice_26/StridedSlice", "model_27/tf.strided_slice_27/StridedSlice", "model_27/tf.math.add_216/Add", "model_27/tf.math.add_220/Add", "model_27/tf.math.add_224/Add", "model_27/tf.concat_25/concat/axis"], "attr": {"T": {"type": "DT_FLOAT"}, "Tidx": {"type": "DT_INT32"}, "N": {"i": "5"}}}, {"name": "model_27/tf.math.add_225/Add", "op": "_FusedConv2D", "input": ["model_27/tf.concat_25/concat", "model_27/tf.nn.convolution_152/convolution/filter", "model_27/tf.math.add_225/Add/y"], "device": "/device:CPU:0", "attr": {"strides": {"list": {"i": ["1", "1", "1", "1"]}}, "T": {"type": "DT_FLOAT"}, "explicit_paddings": {"list": {}}, "num_host_args": {"i": "0"}, "filter_format": {"s": "SFdJTw=="}, "fused_ops": {"list": {"s": ["Qmlhc0FkZA=="]}}, "epsilon": {"f": 0.0}, "num_args": {"i": "1"}, "dilations": {"list": {"i": ["1", "1", "1", "1"]}}, "leakyrelu_alpha": {"f": 0.2}, "data_format": {"s": "TkhXQw=="}, "use_cudnn_on_gpu": {"b": true}, "TArgs": {"list": {"type": ["DT_FLOAT"]}}, "padding": {"s": "U0FNRQ=="}}}, {"name": "model_27/tf.math.sigmoid_146/Sigmoid", "op": "Sigmoid", "input": ["model_27/tf.math.add_225/Add"], "attr": {"T": {"type": "DT_FLOAT"}}}, {"name": "model_27/tf.math.multiply_668/Mul", "op": "Mul", "input": ["model_27/tf.math.add_225/Add", "model_27/tf.math.sigmoid_146/Sigmoid"], "attr": {"T": {"type": "DT_FLOAT"}}}, {"name": "model_27/tf.math.add_226/Add", "op": "_FusedConv2D", "input": ["model_27/tf.math.multiply_668/Mul", "model_27/tf.nn.convolution_153/convolution/filter", "model_27/tf.math.add_226/Add/y"], "device": "/device:CPU:0", "attr": {"data_format": {"s": "TkhXQw=="}, "T": {"type": "DT_FLOAT"}, "filter_format": {"s": "SFdJTw=="}, "fused_ops": {"list": {"s": ["Qmlhc0FkZA=="]}}, "use_cudnn_on_gpu": {"b": true}, "TArgs": {"list": {"type": ["DT_FLOAT"]}}, "padding": {"s": "U0FNRQ=="}, "epsilon": {"f": 0.0}, "dilations": {"list": {"i": ["1", "1", "1", "1"]}}, "explicit_paddings": {"list": {}}, "leakyrelu_alpha": {"f": 0.2}, "num_host_args": {"i": "0"}, "strides": {"list": {"i": ["1", "1", "1", "1"]}}, "num_args": {"i": "1"}}}, {"name": "model_27/tf.math.sigmoid_147/Sigmoid", "op": "Sigmoid", "input": ["model_27/tf.math.add_226/Add"], "attr": {"T": {"type": "DT_FLOAT"}}}, {"name": "model_27/tf.math.multiply_672/Mul", "op": "Mul", "input": ["model_27/tf.math.add_226/Add", "model_27/tf.math.sigmoid_147/Sigmoid"], "attr": {"T": {"type": "DT_FLOAT"}}}, {"name": "model_27/tf.compat.v1.nn.pool_3/max_pool", "op": "MaxPool", "input": ["model_27/tf.math.multiply_672/Mul"], "attr": {"data_format": {"s": "TkhXQw=="}, "explicit_paddings": {"list": {}}, "padding": {"s": "U0FNRQ=="}, "strides": {"list": {"i": ["1", "1", "1", "1"]}}, "ksize": {"list": {"i": ["1", "5", "5", "1"]}}, "T": {"type": "DT_FLOAT"}}}, {"name": "model_27/tf.compat.v1.nn.pool_4/max_pool", "op": "MaxPool", "input": ["model_27/tf.compat.v1.nn.pool_3/max_pool"], "attr": {"T": {"type": "DT_FLOAT"}, "data_format": {"s": "TkhXQw=="}, "strides": {"list": {"i": ["1", "1", "1", "1"]}}, "padding": {"s": "U0FNRQ=="}, "ksize": {"list": {"i": ["1", "5", "5", "1"]}}, "explicit_paddings": {"list": {}}}}, {"name": "model_27/tf.compat.v1.nn.pool_5/max_pool", "op": "MaxPool", "input": ["model_27/tf.compat.v1.nn.pool_4/max_pool"], "attr": {"strides": {"list": {"i": ["1", "1", "1", "1"]}}, "ksize": {"list": {"i": ["1", "5", "5", "1"]}}, "data_format": {"s": "TkhXQw=="}, "T": {"type": "DT_FLOAT"}, "padding": {"s": "U0FNRQ=="}, "explicit_paddings": {"list": {}}}}, {"name": "model_27/tf.concat_26/concat", "op": "ConcatV2", "input": ["model_27/tf.math.multiply_672/Mul", "model_27/tf.compat.v1.nn.pool_3/max_pool", "model_27/tf.compat.v1.nn.pool_4/max_pool", "model_27/tf.compat.v1.nn.pool_5/max_pool", "model_27/tf.concat_26/concat/axis"], "attr": {"Tidx": {"type": "DT_INT32"}, "T": {"type": "DT_FLOAT"}, "N": {"i": "4"}}}, {"name": "model_27/tf.math.add_227/Add", "op": "_FusedConv2D", "input": ["model_27/tf.concat_26/concat", "model_27/tf.nn.convolution_154/convolution/filter", "model_27/tf.math.add_227/Add/y"], "device": "/device:CPU:0", "attr": {"fused_ops": {"list": {"s": ["Qmlhc0FkZA=="]}}, "filter_format": {"s": "SFdJTw=="}, "strides": {"list": {"i": ["1", "1", "1", "1"]}}, "use_cudnn_on_gpu": {"b": true}, "leakyrelu_alpha": {"f": 0.2}, "TArgs": {"list": {"type": ["DT_FLOAT"]}}, "dilations": {"list": {"i": ["1", "1", "1", "1"]}}, "T": {"type": "DT_FLOAT"}, "num_args": {"i": "1"}, "epsilon": {"f": 0.0}, "num_host_args": {"i": "0"}, "data_format": {"s": "TkhXQw=="}, "padding": {"s": "U0FNRQ=="}, "explicit_paddings": {"list": {}}}}, {"name": "model_27/tf.math.sigmoid_148/Sigmoid", "op": "Sigmoid", "input": ["model_27/tf.math.add_227/Add"], "attr": {"T": {"type": "DT_FLOAT"}}}, {"name": "model_27/tf.math.multiply_676/Mul", "op": "Mul", "input": ["model_27/tf.math.add_227/Add", "model_27/tf.math.sigmoid_148/Sigmoid"], "attr": {"T": {"type": "DT_FLOAT"}}}, {"name": "model_27/tf.compat.v1.image.resize_nearest_neighbor_2/ResizeNearestNeighbor", "op": "ResizeNearestNeighbor", "input": ["model_27/tf.math.multiply_676/Mul", "model_27/tf.compat.v1.image.resize_nearest_neighbor_2/ResizeNearestNeighbor/size"], "attr": {"T": {"type": "DT_FLOAT"}, "align_corners": {"b": false}, "half_pixel_centers": {"b": false}}}, {"name": "model_27/tf.concat_27/concat", "op": "ConcatV2", "input": ["model_27/tf.compat.v1.image.resize_nearest_neighbor_2/ResizeNearestNeighbor", "model_27/tf.math.multiply_626/Mul", "model_27/tf.concat_27/concat/axis"], "attr": {"Tidx": {"type": "DT_INT32"}, "T": {"type": "DT_FLOAT"}, "N": {"i": "2"}}}, {"name": "model_27/tf.math.add_228/Add", "op": "_FusedConv2D", "input": ["model_27/tf.concat_27/concat", "model_27/tf.nn.convolution_155/convolution/filter", "model_27/tf.math.add_228/Add/y"], "device": "/device:CPU:0", "attr": {"leakyrelu_alpha": {"f": 0.2}, "dilations": {"list": {"i": ["1", "1", "1", "1"]}}, "epsilon": {"f": 0.0}, "num_args": {"i": "1"}, "strides": {"list": {"i": ["1", "1", "1", "1"]}}, "data_format": {"s": "TkhXQw=="}, "use_cudnn_on_gpu": {"b": true}, "fused_ops": {"list": {"s": ["Qmlhc0FkZA=="]}}, "explicit_paddings": {"list": {}}, "T": {"type": "DT_FLOAT"}, "filter_format": {"s": "SFdJTw=="}, "TArgs": {"list": {"type": ["DT_FLOAT"]}}, "num_host_args": {"i": "0"}, "padding": {"s": "U0FNRQ=="}}}, {"name": "model_27/tf.math.sigmoid_149/Sigmoid", "op": "Sigmoid", "input": ["model_27/tf.math.add_228/Add"], "attr": {"T": {"type": "DT_FLOAT"}}}, {"name": "model_27/tf.math.multiply_680/Mul", "op": "Mul", "input": ["model_27/tf.math.add_228/Add", "model_27/tf.math.sigmoid_149/Sigmoid"], "attr": {"T": {"type": "DT_FLOAT"}}}, {"name": "model_27/tf.strided_slice_28/StridedSlice", "op": "StridedSlice", "input": ["model_27/tf.math.multiply_680/Mul", "model_27/tf.strided_slice_28/ones_like/tensor", "model_27/tf.strided_slice_28/StridedSlice/end", "model_27/tf.strided_slice_28/ones_like"], "attr": {"end_mask": {"i": "7"}, "ellipsis_mask": {"i": "0"}, "Index": {"type": "DT_INT64"}, "begin_mask": {"i": "15"}, "shrink_axis_mask": {"i": "0"}, "T": {"type": "DT_FLOAT"}, "new_axis_mask": {"i": "0"}}}, {"name": "model_27/tf.strided_slice_29/StridedSlice", "op": "StridedSlice", "input": ["model_27/tf.math.multiply_680/Mul", "model_27/tf.strided_slice_29/ones_like/tensor", "model_27/tf.strided_slice_29/StridedSlice/end", "model_27/tf.strided_slice_29/ones_like"], "attr": {"shrink_axis_mask": {"i": "0"}, "new_axis_mask": {"i": "0"}, "ellipsis_mask": {"i": "0"}, "end_mask": {"i": "7"}, "T": {"type": "DT_FLOAT"}, "begin_mask": {"i": "7"}, "Index": {"type": "DT_INT64"}}}, {"name": "model_27/tf.math.add_229/Add", "op": "_FusedConv2D", "input": ["model_27/tf.strided_slice_29/StridedSlice", "model_27/tf.nn.convolution_156/convolution/filter", "model_27/tf.math.add_229/Add/y"], "device": "/device:CPU:0", "attr": {"T": {"type": "DT_FLOAT"}, "dilations": {"list": {"i": ["1", "1", "1", "1"]}}, "explicit_paddings": {"list": {}}, "num_args": {"i": "1"}, "num_host_args": {"i": "0"}, "strides": {"list": {"i": ["1", "1", "1", "1"]}}, "data_format": {"s": "TkhXQw=="}, "leakyrelu_alpha": {"f": 0.2}, "use_cudnn_on_gpu": {"b": true}, "TArgs": {"list": {"type": ["DT_FLOAT"]}}, "padding": {"s": "U0FNRQ=="}, "filter_format": {"s": "SFdJTw=="}, "epsilon": {"f": 0.0}, "fused_ops": {"list": {"s": ["Qmlhc0FkZA=="]}}}}, {"name": "model_27/tf.math.sigmoid_150/Sigmoid", "op": "Sigmoid", "input": ["model_27/tf.math.add_229/Add"], "attr": {"T": {"type": "DT_FLOAT"}}}, {"name": "model_27/tf.math.multiply_684/Mul", "op": "Mul", "input": ["model_27/tf.math.add_229/Add", "model_27/tf.math.sigmoid_150/Sigmoid"], "attr": {"T": {"type": "DT_FLOAT"}}}, {"name": "model_27/tf.math.add_230/Add", "op": "_FusedConv2D", "input": ["model_27/tf.math.multiply_684/Mul", "model_27/tf.nn.convolution_157/convolution/filter", "model_27/tf.math.add_230/Add/y"], "device": "/device:CPU:0", "attr": {"explicit_paddings": {"list": {}}, "data_format": {"s": "TkhXQw=="}, "leakyrelu_alpha": {"f": 0.2}, "padding": {"s": "U0FNRQ=="}, "strides": {"list": {"i": ["1", "1", "1", "1"]}}, "fused_ops": {"list": {"s": ["Qmlhc0FkZA=="]}}, "T": {"type": "DT_FLOAT"}, "filter_format": {"s": "SFdJTw=="}, "use_cudnn_on_gpu": {"b": true}, "TArgs": {"list": {"type": ["DT_FLOAT"]}}, "num_host_args": {"i": "0"}, "num_args": {"i": "1"}, "epsilon": {"f": 0.0}, "dilations": {"list": {"i": ["1", "1", "1", "1"]}}}}, {"name": "model_27/tf.math.sigmoid_151/Sigmoid", "op": "Sigmoid", "input": ["model_27/tf.math.add_230/Add"], "attr": {"T": {"type": "DT_FLOAT"}}}, {"name": "model_27/tf.math.multiply_688/Mul", "op": "Mul", "input": ["model_27/tf.math.add_230/Add", "model_27/tf.math.sigmoid_151/Sigmoid"], "attr": {"T": {"type": "DT_FLOAT"}}}, {"name": "model_27/tf.math.add_231/Add", "op": "_FusedConv2D", "input": ["model_27/tf.math.multiply_688/Mul", "model_27/tf.nn.convolution_158/convolution/filter", "model_27/tf.math.add_231/Add/y"], "device": "/device:CPU:0", "attr": {"num_args": {"i": "1"}, "TArgs": {"list": {"type": ["DT_FLOAT"]}}, "fused_ops": {"list": {"s": ["Qmlhc0FkZA=="]}}, "num_host_args": {"i": "0"}, "epsilon": {"f": 0.0}, "explicit_paddings": {"list": {}}, "leakyrelu_alpha": {"f": 0.2}, "data_format": {"s": "TkhXQw=="}, "filter_format": {"s": "SFdJTw=="}, "strides": {"list": {"i": ["1", "1", "1", "1"]}}, "dilations": {"list": {"i": ["1", "1", "1", "1"]}}, "use_cudnn_on_gpu": {"b": true}, "T": {"type": "DT_FLOAT"}, "padding": {"s": "U0FNRQ=="}}}, {"name": "model_27/tf.math.sigmoid_152/Sigmoid", "op": "Sigmoid", "input": ["model_27/tf.math.add_231/Add"], "attr": {"T": {"type": "DT_FLOAT"}}}, {"name": "model_27/tf.math.multiply_692/Mul", "op": "Mul", "input": ["model_27/tf.math.add_231/Add", "model_27/tf.math.sigmoid_152/Sigmoid"], "attr": {"T": {"type": "DT_FLOAT"}}}, {"name": "model_27/tf.math.add_232/Add", "op": "_FusedConv2D", "input": ["model_27/tf.math.multiply_692/Mul", "model_27/tf.nn.convolution_159/convolution/filter", "model_27/tf.math.add_232/Add/y"], "device": "/device:CPU:0", "attr": {"data_format": {"s": "TkhXQw=="}, "epsilon": {"f": 0.0}, "T": {"type": "DT_FLOAT"}, "use_cudnn_on_gpu": {"b": true}, "num_host_args": {"i": "0"}, "padding": {"s": "U0FNRQ=="}, "TArgs": {"list": {"type": ["DT_FLOAT"]}}, "leakyrelu_alpha": {"f": 0.2}, "strides": {"list": {"i": ["1", "1", "1", "1"]}}, "num_args": {"i": "1"}, "explicit_paddings": {"list": {}}, "filter_format": {"s": "SFdJTw=="}, "dilations": {"list": {"i": ["1", "1", "1", "1"]}}, "fused_ops": {"list": {"s": ["Qmlhc0FkZA=="]}}}}, {"name": "model_27/tf.math.sigmoid_153/Sigmoid", "op": "Sigmoid", "input": ["model_27/tf.math.add_232/Add"], "attr": {"T": {"type": "DT_FLOAT"}}}, {"name": "model_27/tf.math.multiply_696/Mul", "op": "Mul", "input": ["model_27/tf.math.add_232/Add", "model_27/tf.math.sigmoid_153/Sigmoid"], "attr": {"T": {"type": "DT_FLOAT"}}}, {"name": "model_27/tf.math.add_233/Add", "op": "_FusedConv2D", "input": ["model_27/tf.math.multiply_696/Mul", "model_27/tf.nn.convolution_160/convolution/filter", "model_27/tf.math.add_233/Add/y"], "device": "/device:CPU:0", "attr": {"strides": {"list": {"i": ["1", "1", "1", "1"]}}, "T": {"type": "DT_FLOAT"}, "num_args": {"i": "1"}, "data_format": {"s": "TkhXQw=="}, "fused_ops": {"list": {"s": ["Qmlhc0FkZA=="]}}, "leakyrelu_alpha": {"f": 0.2}, "dilations": {"list": {"i": ["1", "1", "1", "1"]}}, "padding": {"s": "U0FNRQ=="}, "filter_format": {"s": "SFdJTw=="}, "explicit_paddings": {"list": {}}, "use_cudnn_on_gpu": {"b": true}, "epsilon": {"f": 0.0}, "num_host_args": {"i": "0"}, "TArgs": {"list": {"type": ["DT_FLOAT"]}}}}, {"name": "model_27/tf.math.sigmoid_154/Sigmoid", "op": "Sigmoid", "input": ["model_27/tf.math.add_233/Add"], "attr": {"T": {"type": "DT_FLOAT"}}}, {"name": "model_27/tf.math.multiply_700/Mul", "op": "Mul", "input": ["model_27/tf.math.add_233/Add", "model_27/tf.math.sigmoid_154/Sigmoid"], "attr": {"T": {"type": "DT_FLOAT"}}}, {"name": "model_27/tf.math.add_234/Add", "op": "_FusedConv2D", "input": ["model_27/tf.math.multiply_700/Mul", "model_27/tf.nn.convolution_161/convolution/filter", "model_27/tf.math.add_234/Add/y"], "device": "/device:CPU:0", "attr": {"epsilon": {"f": 0.0}, "T": {"type": "DT_FLOAT"}, "strides": {"list": {"i": ["1", "1", "1", "1"]}}, "dilations": {"list": {"i": ["1", "1", "1", "1"]}}, "padding": {"s": "U0FNRQ=="}, "explicit_paddings": {"list": {}}, "filter_format": {"s": "SFdJTw=="}, "fused_ops": {"list": {"s": ["Qmlhc0FkZA=="]}}, "data_format": {"s": "TkhXQw=="}, "num_host_args": {"i": "0"}, "use_cudnn_on_gpu": {"b": true}, "num_args": {"i": "1"}, "TArgs": {"list": {"type": ["DT_FLOAT"]}}, "leakyrelu_alpha": {"f": 0.2}}}, {"name": "model_27/tf.math.sigmoid_155/Sigmoid", "op": "Sigmoid", "input": ["model_27/tf.math.add_234/Add"], "attr": {"T": {"type": "DT_FLOAT"}}}, {"name": "model_27/tf.math.multiply_704/Mul", "op": "Mul", "input": ["model_27/tf.math.add_234/Add", "model_27/tf.math.sigmoid_155/Sigmoid"], "attr": {"T": {"type": "DT_FLOAT"}}}, {"name": "model_27/tf.concat_28/concat", "op": "ConcatV2", "input": ["model_27/tf.strided_slice_28/StridedSlice", "model_27/tf.strided_slice_29/StridedSlice", "model_27/tf.math.multiply_688/Mul", "model_27/tf.math.multiply_696/Mul", "model_27/tf.math.multiply_704/Mul", "model_27/tf.concat_28/concat/axis"], "attr": {"Tidx": {"type": "DT_INT32"}, "N": {"i": "5"}, "T": {"type": "DT_FLOAT"}}}, {"name": "model_27/tf.math.add_235/Add", "op": "_FusedConv2D", "input": ["model_27/tf.concat_28/concat", "model_27/tf.nn.convolution_162/convolution/filter", "model_27/tf.math.add_235/Add/y"], "device": "/device:CPU:0", "attr": {"data_format": {"s": "TkhXQw=="}, "epsilon": {"f": 0.0}, "fused_ops": {"list": {"s": ["Qmlhc0FkZA=="]}}, "T": {"type": "DT_FLOAT"}, "explicit_paddings": {"list": {}}, "num_args": {"i": "1"}, "num_host_args": {"i": "0"}, "leakyrelu_alpha": {"f": 0.2}, "filter_format": {"s": "SFdJTw=="}, "padding": {"s": "U0FNRQ=="}, "use_cudnn_on_gpu": {"b": true}, "dilations": {"list": {"i": ["1", "1", "1", "1"]}}, "TArgs": {"list": {"type": ["DT_FLOAT"]}}, "strides": {"list": {"i": ["1", "1", "1", "1"]}}}}, {"name": "model_27/tf.math.sigmoid_156/Sigmoid", "op": "Sigmoid", "input": ["model_27/tf.math.add_235/Add"], "attr": {"T": {"type": "DT_FLOAT"}}}, {"name": "model_27/tf.math.multiply_708/Mul", "op": "Mul", "input": ["model_27/tf.math.add_235/Add", "model_27/tf.math.sigmoid_156/Sigmoid"], "attr": {"T": {"type": "DT_FLOAT"}}}, {"name": "model_27/tf.compat.v1.image.resize_nearest_neighbor_3/ResizeNearestNeighbor", "op": "ResizeNearestNeighbor", "input": ["model_27/tf.math.multiply_708/Mul", "model_27/tf.compat.v1.image.resize_nearest_neighbor_3/ResizeNearestNeighbor/size"], "attr": {"align_corners": {"b": false}, "T": {"type": "DT_FLOAT"}, "half_pixel_centers": {"b": false}}}, {"name": "model_27/tf.concat_29/concat", "op": "ConcatV2", "input": ["model_27/tf.compat.v1.image.resize_nearest_neighbor_3/ResizeNearestNeighbor", "model_27/tf.math.multiply_554/Mul", "model_27/tf.concat_29/concat/axis"], "attr": {"T": {"type": "DT_FLOAT"}, "N": {"i": "2"}, "Tidx": {"type": "DT_INT32"}}}, {"name": "model_27/tf.math.add_236/Add", "op": "_FusedConv2D", "input": ["model_27/tf.concat_29/concat", "model_27/tf.nn.convolution_163/convolution/filter", "model_27/tf.math.add_236/Add/y"], "device": "/device:CPU:0", "attr": {"use_cudnn_on_gpu": {"b": true}, "T": {"type": "DT_FLOAT"}, "TArgs": {"list": {"type": ["DT_FLOAT"]}}, "num_host_args": {"i": "0"}, "padding": {"s": "U0FNRQ=="}, "filter_format": {"s": "SFdJTw=="}, "data_format": {"s": "TkhXQw=="}, "dilations": {"list": {"i": ["1", "1", "1", "1"]}}, "epsilon": {"f": 0.0}, "explicit_paddings": {"list": {}}, "strides": {"list": {"i": ["1", "1", "1", "1"]}}, "fused_ops": {"list": {"s": ["Qmlhc0FkZA=="]}}, "leakyrelu_alpha": {"f": 0.2}, "num_args": {"i": "1"}}}, {"name": "model_27/tf.math.sigmoid_157/Sigmoid", "op": "Sigmoid", "input": ["model_27/tf.math.add_236/Add"], "attr": {"T": {"type": "DT_FLOAT"}}}, {"name": "model_27/tf.math.multiply_712/Mul", "op": "Mul", "input": ["model_27/tf.math.add_236/Add", "model_27/tf.math.sigmoid_157/Sigmoid"], "attr": {"T": {"type": "DT_FLOAT"}}}, {"name": "model_27/tf.strided_slice_30/StridedSlice", "op": "StridedSlice", "input": ["model_27/tf.math.multiply_712/Mul", "model_27/tf.strided_slice_30/ones_like/tensor", "model_27/tf.strided_slice_30/StridedSlice/end", "model_27/tf.strided_slice_30/ones_like"], "attr": {"end_mask": {"i": "7"}, "begin_mask": {"i": "15"}, "T": {"type": "DT_FLOAT"}, "new_axis_mask": {"i": "0"}, "ellipsis_mask": {"i": "0"}, "Index": {"type": "DT_INT64"}, "shrink_axis_mask": {"i": "0"}}}, {"name": "model_27/tf.strided_slice_31/StridedSlice", "op": "StridedSlice", "input": ["model_27/tf.math.multiply_712/Mul", "model_27/tf.strided_slice_31/ones_like/tensor", "model_27/tf.strided_slice_31/StridedSlice/end", "model_27/tf.strided_slice_31/ones_like"], "attr": {"shrink_axis_mask": {"i": "0"}, "ellipsis_mask": {"i": "0"}, "T": {"type": "DT_FLOAT"}, "Index": {"type": "DT_INT64"}, "end_mask": {"i": "7"}, "begin_mask": {"i": "7"}, "new_axis_mask": {"i": "0"}}}, {"name": "model_27/tf.math.add_237/Add", "op": "_FusedConv2D", "input": ["model_27/tf.strided_slice_31/StridedSlice", "model_27/tf.nn.convolution_164/convolution/filter", "model_27/tf.math.add_237/Add/y"], "device": "/device:CPU:0", "attr": {"leakyrelu_alpha": {"f": 0.2}, "num_args": {"i": "1"}, "fused_ops": {"list": {"s": ["Qmlhc0FkZA=="]}}, "filter_format": {"s": "SFdJTw=="}, "explicit_paddings": {"list": {}}, "T": {"type": "DT_FLOAT"}, "use_cudnn_on_gpu": {"b": true}, "data_format": {"s": "TkhXQw=="}, "strides": {"list": {"i": ["1", "1", "1", "1"]}}, "epsilon": {"f": 0.0}, "num_host_args": {"i": "0"}, "padding": {"s": "U0FNRQ=="}, "dilations": {"list": {"i": ["1", "1", "1", "1"]}}, "TArgs": {"list": {"type": ["DT_FLOAT"]}}}}, {"name": "model_27/tf.math.sigmoid_158/Sigmoid", "op": "Sigmoid", "input": ["model_27/tf.math.add_237/Add"], "attr": {"T": {"type": "DT_FLOAT"}}}, {"name": "model_27/tf.math.multiply_716/Mul", "op": "Mul", "input": ["model_27/tf.math.add_237/Add", "model_27/tf.math.sigmoid_158/Sigmoid"], "attr": {"T": {"type": "DT_FLOAT"}}}, {"name": "model_27/tf.math.add_238/Add", "op": "_FusedConv2D", "input": ["model_27/tf.math.multiply_716/Mul", "model_27/tf.nn.convolution_165/convolution/filter", "model_27/tf.math.add_238/Add/y"], "device": "/device:CPU:0", "attr": {"TArgs": {"list": {"type": ["DT_FLOAT"]}}, "num_host_args": {"i": "0"}, "explicit_paddings": {"list": {}}, "num_args": {"i": "1"}, "T": {"type": "DT_FLOAT"}, "epsilon": {"f": 0.0}, "padding": {"s": "U0FNRQ=="}, "fused_ops": {"list": {"s": ["Qmlhc0FkZA=="]}}, "use_cudnn_on_gpu": {"b": true}, "strides": {"list": {"i": ["1", "1", "1", "1"]}}, "leakyrelu_alpha": {"f": 0.2}, "dilations": {"list": {"i": ["1", "1", "1", "1"]}}, "filter_format": {"s": "SFdJTw=="}, "data_format": {"s": "TkhXQw=="}}}, {"name": "model_27/tf.math.sigmoid_159/Sigmoid", "op": "Sigmoid", "input": ["model_27/tf.math.add_238/Add"], "attr": {"T": {"type": "DT_FLOAT"}}}, {"name": "model_27/tf.math.multiply_720/Mul", "op": "Mul", "input": ["model_27/tf.math.add_238/Add", "model_27/tf.math.sigmoid_159/Sigmoid"], "attr": {"T": {"type": "DT_FLOAT"}}}, {"name": "model_27/tf.math.add_239/Add", "op": "_FusedConv2D", "input": ["model_27/tf.math.multiply_720/Mul", "model_27/tf.nn.convolution_166/convolution/filter", "model_27/tf.math.add_239/Add/y"], "device": "/device:CPU:0", "attr": {"leakyrelu_alpha": {"f": 0.2}, "T": {"type": "DT_FLOAT"}, "TArgs": {"list": {"type": ["DT_FLOAT"]}}, "padding": {"s": "U0FNRQ=="}, "data_format": {"s": "TkhXQw=="}, "explicit_paddings": {"list": {}}, "strides": {"list": {"i": ["1", "1", "1", "1"]}}, "epsilon": {"f": 0.0}, "dilations": {"list": {"i": ["1", "1", "1", "1"]}}, "num_host_args": {"i": "0"}, "num_args": {"i": "1"}, "fused_ops": {"list": {"s": ["Qmlhc0FkZA=="]}}, "filter_format": {"s": "SFdJTw=="}, "use_cudnn_on_gpu": {"b": true}}}, {"name": "model_27/tf.math.sigmoid_160/Sigmoid", "op": "Sigmoid", "input": ["model_27/tf.math.add_239/Add"], "attr": {"T": {"type": "DT_FLOAT"}}}, {"name": "model_27/tf.math.multiply_724/Mul", "op": "Mul", "input": ["model_27/tf.math.add_239/Add", "model_27/tf.math.sigmoid_160/Sigmoid"], "attr": {"T": {"type": "DT_FLOAT"}}}, {"name": "model_27/tf.math.add_240/Add", "op": "_FusedConv2D", "input": ["model_27/tf.math.multiply_724/Mul", "model_27/tf.nn.convolution_167/convolution/filter", "model_27/tf.math.add_240/Add/y"], "device": "/device:CPU:0", "attr": {"explicit_paddings": {"list": {}}, "data_format": {"s": "TkhXQw=="}, "num_host_args": {"i": "0"}, "T": {"type": "DT_FLOAT"}, "dilations": {"list": {"i": ["1", "1", "1", "1"]}}, "padding": {"s": "U0FNRQ=="}, "epsilon": {"f": 0.0}, "use_cudnn_on_gpu": {"b": true}, "fused_ops": {"list": {"s": ["Qmlhc0FkZA=="]}}, "strides": {"list": {"i": ["1", "1", "1", "1"]}}, "num_args": {"i": "1"}, "filter_format": {"s": "SFdJTw=="}, "leakyrelu_alpha": {"f": 0.2}, "TArgs": {"list": {"type": ["DT_FLOAT"]}}}}, {"name": "model_27/tf.math.sigmoid_161/Sigmoid", "op": "Sigmoid", "input": ["model_27/tf.math.add_240/Add"], "attr": {"T": {"type": "DT_FLOAT"}}}, {"name": "model_27/tf.math.multiply_728/Mul", "op": "Mul", "input": ["model_27/tf.math.add_240/Add", "model_27/tf.math.sigmoid_161/Sigmoid"], "attr": {"T": {"type": "DT_FLOAT"}}}, {"name": "model_27/tf.math.add_241/Add", "op": "_FusedConv2D", "input": ["model_27/tf.math.multiply_728/Mul", "model_27/tf.nn.convolution_168/convolution/filter", "model_27/tf.math.add_241/Add/y"], "device": "/device:CPU:0", "attr": {"leakyrelu_alpha": {"f": 0.2}, "strides": {"list": {"i": ["1", "1", "1", "1"]}}, "TArgs": {"list": {"type": ["DT_FLOAT"]}}, "num_host_args": {"i": "0"}, "num_args": {"i": "1"}, "use_cudnn_on_gpu": {"b": true}, "explicit_paddings": {"list": {}}, "dilations": {"list": {"i": ["1", "1", "1", "1"]}}, "filter_format": {"s": "SFdJTw=="}, "fused_ops": {"list": {"s": ["Qmlhc0FkZA=="]}}, "epsilon": {"f": 0.0}, "T": {"type": "DT_FLOAT"}, "padding": {"s": "U0FNRQ=="}, "data_format": {"s": "TkhXQw=="}}}, {"name": "model_27/tf.math.sigmoid_162/Sigmoid", "op": "Sigmoid", "input": ["model_27/tf.math.add_241/Add"], "attr": {"T": {"type": "DT_FLOAT"}}}, {"name": "model_27/tf.math.multiply_732/Mul", "op": "Mul", "input": ["model_27/tf.math.add_241/Add", "model_27/tf.math.sigmoid_162/Sigmoid"], "attr": {"T": {"type": "DT_FLOAT"}}}, {"name": "model_27/tf.math.add_242/Add", "op": "_FusedConv2D", "input": ["model_27/tf.math.multiply_732/Mul", "model_27/tf.nn.convolution_169/convolution/filter", "model_27/tf.math.add_242/Add/y"], "device": "/device:CPU:0", "attr": {"explicit_paddings": {"list": {}}, "use_cudnn_on_gpu": {"b": true}, "strides": {"list": {"i": ["1", "1", "1", "1"]}}, "epsilon": {"f": 0.0}, "filter_format": {"s": "SFdJTw=="}, "leakyrelu_alpha": {"f": 0.2}, "TArgs": {"list": {"type": ["DT_FLOAT"]}}, "data_format": {"s": "TkhXQw=="}, "padding": {"s": "U0FNRQ=="}, "dilations": {"list": {"i": ["1", "1", "1", "1"]}}, "T": {"ty…
at": {"s": "TkhXQw=="}, "dilations": {"list": {"i": ["1", "1", "1", "1"]}}, "explicit_paddings": {"list": {}}, "fused_ops": {"list": {"s": ["Qmlhc0FkZA=="]}}, "filter_format": {"s": "SFdJTw=="}, "use_cudnn_on_gpu": {"b": true}, "epsilon": {"f": 0.0}, "strides": {"list": {"i": ["1", "1", "1", "1"]}}, "num_host_args": {"i": "0"}, "padding": {"s": "U0FNRQ=="}, "TArgs": {"list": {"type": ["DT_FLOAT"]}}, "leakyrelu_alpha": {"f": 0.2}, "num_args": {"i": "1"}, "T": {"type": "DT_FLOAT"}}}, {"name": "model_27/tf.reshape_20/Reshape", "op": "Reshape", "input": ["model_27/tf.compat.v1.transpose_254/transpose", "model_27/tf.reshape_20/Reshape/shape"], "attr": {"Tshape": {"type": "DT_INT32"}, "T": {"type": "DT_FLOAT"}}}, {"name": "model_27/tf.math.sigmoid_184/Sigmoid", "op": "Sigmoid", "input": ["model_27/tf.math.add_267/Add"], "attr": {"T": {"type": "DT_FLOAT"}}}, {"name": "model_27/tf.math.multiply_820/Mul", "op": "Mul", "input": ["model_27/tf.math.add_267/Add", "model_27/tf.math.sigmoid_184/Sigmoid"], "attr": {"T": {"type": "DT_FLOAT"}}}, {"name": "model_27/tf.math.add_268/Add", "op": "_FusedConv2D", "input": ["model_27/tf.math.multiply_820/Mul", "model_27/tf.nn.convolution_195/convolution/filter", "model_27/tf.math.add_268/Add/y"], "device": "/device:CPU:0", "attr": {"num_host_args": {"i": "0"}, "data_format": {"s": "TkhXQw=="}, "dilations": {"list": {"i": ["1", "1", "1", "1"]}}, "TArgs": {"list": {"type": ["DT_FLOAT"]}}, "num_args": {"i": "1"}, "epsilon": {"f": 0.0}, "fused_ops": {"list": {"s": ["Qmlhc0FkZA=="]}}, "padding": {"s": "U0FNRQ=="}, "T": {"type": "DT_FLOAT"}, "explicit_paddings": {"list": {}}, "strides": {"list": {"i": ["1", "1", "1", "1"]}}, "filter_format": {"s": "SFdJTw=="}, "leakyrelu_alpha": {"f": 0.2}, "use_cudnn_on_gpu": {"b": true}}}, {"name": "model_27/tf.math.sigmoid_185/Sigmoid", "op": "Sigmoid", "input": ["model_27/tf.math.add_268/Add"], "attr": {"T": {"type": "DT_FLOAT"}}}, {"name": "model_27/tf.math.multiply_824/Mul", "op": "Mul", "input": ["model_27/tf.math.add_268/Add", "model_27/tf.math.sigmoid_185/Sigmoid"], "attr": {"T": {"type": "DT_FLOAT"}}}, {"name": "model_27/tf.math.add_269/Add", "op": "_FusedConv2D", "input": ["model_27/tf.math.multiply_824/Mul", "model_27/tf.nn.convolution_196/convolution/filter", "model_27/tf.math.add_269/Add/y"], "device": "/device:CPU:0", "attr": {"num_args": {"i": "1"}, "dilations": {"list": {"i": ["1", "1", "1", "1"]}}, "T": {"type": "DT_FLOAT"}, "data_format": {"s": "TkhXQw=="}, "padding": {"s": "U0FNRQ=="}, "num_host_args": {"i": "0"}, "strides": {"list": {"i": ["1", "1", "1", "1"]}}, "explicit_paddings": {"list": {}}, "leakyrelu_alpha": {"f": 0.2}, "epsilon": {"f": 0.0}, "TArgs": {"list": {"type": ["DT_FLOAT"]}}, "fused_ops": {"list": {"s": ["Qmlhc0FkZA=="]}}, "use_cudnn_on_gpu": {"b": true}, "filter_format": {"s": "SFdJTw=="}}}, {"name": "model_27/tf.math.sigmoid_186/Sigmoid", "op": "Sigmoid", "input": ["model_27/tf.math.add_269/Add"], "attr": {"T": {"type": "DT_FLOAT"}}}, {"name": "model_27/tf.math.multiply_828/Mul", "op": "Mul", "input": ["model_27/tf.math.add_269/Add", "model_27/tf.math.sigmoid_186/Sigmoid"], "attr": {"T": {"type": "DT_FLOAT"}}}, {"name": "model_27/tf.math.add_270/Add", "op": "_FusedConv2D", "input": ["model_27/tf.math.multiply_828/Mul", "model_27/tf.nn.convolution_197/convolution/filter", "model_27/tf.math.add_270/Add/y"], "device": "/device:CPU:0", "attr": {"fused_ops": {"list": {"s": ["Qmlhc0FkZA=="]}}, "num_args": {"i": "1"}, "epsilon": {"f": 0.0}, "dilations": {"list": {"i": ["1", "1", "1", "1"]}}, "T": {"type": "DT_FLOAT"}, "TArgs": {"list": {"type": ["DT_FLOAT"]}}, "data_format": {"s": "TkhXQw=="}, "explicit_paddings": {"list": {}}, "num_host_args": {"i": "0"}, "use_cudnn_on_gpu": {"b": true}, "padding": {"s": "U0FNRQ=="}, "strides": {"list": {"i": ["1", "1", "1", "1"]}}, "filter_format": {"s": "SFdJTw=="}, "leakyrelu_alpha": {"f": 0.2}}}, {"name": "model_27/tf.math.sigmoid_187/Sigmoid", "op": "Sigmoid", "input": ["model_27/tf.math.add_270/Add"], "attr": {"T": {"type": "DT_FLOAT"}}}, {"name": "model_27/tf.math.multiply_832/Mul", "op": "Mul", "input": ["model_27/tf.math.add_270/Add", "model_27/tf.math.sigmoid_187/Sigmoid"], "attr": {"T": {"type": "DT_FLOAT"}}}, {"name": "model_27/tf.math.add_271/Add", "op": "_FusedConv2D", "input": ["model_27/tf.math.multiply_832/Mul", "model_27/tf.nn.convolution_198/convolution/filter", "model_27/tf.math.add_271/Add/y"], "device": "/device:CPU:0", "attr": {"leakyrelu_alpha": {"f": 0.2}, "data_format": {"s": "TkhXQw=="}, "padding": {"s": "U0FNRQ=="}, "TArgs": {"list": {"type": ["DT_FLOAT"]}}, "fused_ops": {"list": {"s": ["Qmlhc0FkZA=="]}}, "use_cudnn_on_gpu": {"b": true}, "epsilon": {"f": 0.0}, "explicit_paddings": {"list": {}}, "num_host_args": {"i": "0"}, "num_args": {"i": "1"}, "filter_format": {"s": "SFdJTw=="}, "T": {"type": "DT_FLOAT"}, "dilations": {"list": {"i": ["1", "1", "1", "1"]}}, "strides": {"list": {"i": ["1", "1", "1", "1"]}}}}, {"name": "model_27/tf.math.sigmoid_188/Sigmoid", "op": "Sigmoid", "input": ["model_27/tf.math.add_271/Add"], "attr": {"T": {"type": "DT_FLOAT"}}}, {"name": "model_27/tf.math.multiply_836/Mul", "op": "Mul", "input": ["model_27/tf.math.add_271/Add", "model_27/tf.math.sigmoid_188/Sigmoid"], "attr": {"T": {"type": "DT_FLOAT"}}}, {"name": "model_27/tf.math.add_272/Add", "op": "_FusedConv2D", "input": ["model_27/tf.math.multiply_836/Mul", "model_27/tf.nn.convolution_199/convolution/filter", "model_27/tf.math.add_272/Add/y"], "device": "/device:CPU:0", "attr": {"filter_format": {"s": "SFdJTw=="}, "dilations": {"list": {"i": ["1", "1", "1", "1"]}}, "use_cudnn_on_gpu": {"b": true}, "num_host_args": {"i": "0"}, "padding": {"s": "U0FNRQ=="}, "epsilon": {"f": 0.0}, "leakyrelu_alpha": {"f": 0.2}, "fused_ops": {"list": {"s": ["Qmlhc0FkZA=="]}}, "strides": {"list": {"i": ["1", "1", "1", "1"]}}, "num_args": {"i": "1"}, "data_format": {"s": "TkhXQw=="}, "explicit_paddings": {"list": {}}, "T": {"type": "DT_FLOAT"}, "TArgs": {"list": {"type": ["DT_FLOAT"]}}}}, {"name": "model_27/tf.math.sigmoid_189/Sigmoid", "op": "Sigmoid", "input": ["model_27/tf.math.add_272/Add"], "attr": {"T": {"type": "DT_FLOAT"}}}, {"name": "model_27/tf.math.multiply_840/Mul", "op": "Mul", "input": ["model_27/tf.math.add_272/Add", "model_27/tf.math.sigmoid_189/Sigmoid"], "attr": {"T": {"type": "DT_FLOAT"}}}, {"name": "model_27/tf.concat_36/concat", "op": "ConcatV2", "input": ["model_27/tf.strided_slice_34/StridedSlice", "model_27/tf.strided_slice_35/StridedSlice", "model_27/tf.math.multiply_824/Mul", "model_27/tf.math.multiply_832/Mul", "model_27/tf.math.multiply_840/Mul", "model_27/tf.concat_36/concat/axis"], "attr": {"Tidx": {"type": "DT_INT32"}, "T": {"type": "DT_FLOAT"}, "N": {"i": "5"}}}, {"name": "model_27/tf.math.add_273/Add", "op": "_FusedConv2D", "input": ["model_27/tf.concat_36/concat", "model_27/tf.nn.convolution_200/convolution/filter", "model_27/tf.math.add_273/Add/y"], "device": "/device:CPU:0", "attr": {"num_args": {"i": "1"}, "num_host_args": {"i": "0"}, "data_format": {"s": "TkhXQw=="}, "fused_ops": {"list": {"s": ["Qmlhc0FkZA=="]}}, "padding": {"s": "U0FNRQ=="}, "explicit_paddings": {"list": {}}, "T": {"type": "DT_FLOAT"}, "strides": {"list": {"i": ["1", "1", "1", "1"]}}, "epsilon": {"f": 0.0}, "TArgs": {"list": {"type": ["DT_FLOAT"]}}, "leakyrelu_alpha": {"f": 0.2}, "filter_format": {"s": "SFdJTw=="}, "use_cudnn_on_gpu": {"b": true}, "dilations": {"list": {"i": ["1", "1", "1", "1"]}}}}, {"name": "model_27/tf.math.sigmoid_190/Sigmoid", "op": "Sigmoid", "input": ["model_27/tf.math.add_273/Add"], "attr": {"T": {"type": "DT_FLOAT"}}}, {"name": "model_27/tf.math.multiply_844/Mul", "op": "Mul", "input": ["model_27/tf.math.add_273/Add", "model_27/tf.math.sigmoid_190/Sigmoid"], "attr": {"T": {"type": "DT_FLOAT"}}}, {"name": "model_27/tf.math.add_274/Add", "op": "_FusedConv2D", "input": ["model_27/tf.math.multiply_844/Mul", "model_27/tf.nn.convolution_201/convolution/filter", "model_27/tf.math.add_274/Add/y"], "device": "/device:CPU:0", "attr": {"T": {"type": "DT_FLOAT"}, "epsilon": {"f": 0.0}, "num_args": {"i": "1"}, "fused_ops": {"list": {"s": ["Qmlhc0FkZA=="]}}, "leakyrelu_alpha": {"f": 0.2}, "data_format": {"s": "TkhXQw=="}, "dilations": {"list": {"i": ["1", "1", "1", "1"]}}, "explicit_paddings": {"list": {}}, "TArgs": {"list": {"type": ["DT_FLOAT"]}}, "padding": {"s": "U0FNRQ=="}, "num_host_args": {"i": "0"}, "filter_format": {"s": "SFdJTw=="}, "use_cudnn_on_gpu": {"b": true}, "strides": {"list": {"i": ["1", "1", "1", "1"]}}}}, {"name": "model_27/tf.math.add_275/Add", "op": "_FusedConv2D", "input": ["model_27/tf.math.multiply_844/Mul", "model_27/tf.nn.convolution_202/convolution/filter", "model_27/tf.math.add_275/Add/y"], "device": "/device:CPU:0", "attr": {"filter_format": {"s": "SFdJTw=="}, "data_format": {"s": "TkhXQw=="}, "padding": {"s": "U0FNRQ=="}, "num_args": {"i": "1"}, "num_host_args": {"i": "0"}, "epsilon": {"f": 0.0}, "use_cudnn_on_gpu": {"b": true}, "leakyrelu_alpha": {"f": 0.2}, "TArgs": {"list": {"type": ["DT_FLOAT"]}}, "strides": {"list": {"i": ["1", "1", "1", "1"]}}, "dilations": {"list": {"i": ["1", "1", "1", "1"]}}, "fused_ops": {"list": {"s": ["Qmlhc0FkZA=="]}}, "T": {"type": "DT_FLOAT"}, "explicit_paddings": {"list": {}}}}, {"name": "model_27/tf.math.sigmoid_191/Sigmoid", "op": "Sigmoid", "input": ["model_27/tf.math.add_274/Add"], "attr": {"T": {"type": "DT_FLOAT"}}}, {"name": "model_27/tf.math.sigmoid_192/Sigmoid", "op": "Sigmoid", "input": ["model_27/tf.math.add_275/Add"], "attr": {"T": {"type": "DT_FLOAT"}}}, {"name": "model_27/tf.math.multiply_848/Mul", "op": "Mul", "input": ["model_27/tf.math.add_274/Add", "model_27/tf.math.sigmoid_191/Sigmoid"], "attr": {"T": {"type": "DT_FLOAT"}}}, {"name": "model_27/tf.math.multiply_852/Mul", "op": "Mul", "input": ["model_27/tf.math.add_275/Add", "model_27/tf.math.sigmoid_192/Sigmoid"], "attr": {"T": {"type": "DT_FLOAT"}}}, {"name": "model_27/tf.math.add_276/Add", "op": "_FusedConv2D", "input": ["model_27/tf.math.multiply_848/Mul", "model_27/tf.nn.convolution_203/convolution/filter", "model_27/tf.math.add_276/Add/y"], "device": "/device:CPU:0", "attr": {"explicit_paddings": {"list": {}}, "padding": {"s": "U0FNRQ=="}, "use_cudnn_on_gpu": {"b": true}, "strides": {"list": {"i": ["1", "1", "1", "1"]}}, "dilations": {"list": {"i": ["1", "1", "1", "1"]}}, "num_host_args": {"i": "0"}, "TArgs": {"list": {"type": ["DT_FLOAT"]}}, "epsilon": {"f": 0.0}, "num_args": {"i": "1"}, "T": {"type": "DT_FLOAT"}, "data_format": {"s": "TkhXQw=="}, "leakyrelu_alpha": {"f": 0.2}, "filter_format": {"s": "SFdJTw=="}, "fused_ops": {"list": {"s": ["Qmlhc0FkZA=="]}}}}, {"name": "model_27/tf.math.add_277/Add", "op": "_FusedConv2D", "input": ["model_27/tf.math.multiply_852/Mul", "model_27/tf.nn.convolution_204/convolution/filter", "model_27/tf.math.add_277/Add/y"], "device": "/device:CPU:0", "attr": {"filter_format": {"s": "SFdJTw=="}, "explicit_paddings": {"list": {}}, "fused_ops": {"list": {"s": ["Qmlhc0FkZA=="]}}, "use_cudnn_on_gpu": {"b": true}, "num_args": {"i": "1"}, "T": {"type": "DT_FLOAT"}, "TArgs": {"list": {"type": ["DT_FLOAT"]}}, "data_format": {"s": "TkhXQw=="}, "strides": {"list": {"i": ["1", "1", "1", "1"]}}, "padding": {"s": "U0FNRQ=="}, "dilations": {"list": {"i": ["1", "1", "1", "1"]}}, "num_host_args": {"i": "0"}, "leakyrelu_alpha": {"f": 0.2}, "epsilon": {"f": 0.0}}}, {"name": "model_27/tf.math.sigmoid_193/Sigmoid", "op": "Sigmoid", "input": ["model_27/tf.math.add_276/Add"], "attr": {"T": {"type": "DT_FLOAT"}}}, {"name": "model_27/tf.math.sigmoid_194/Sigmoid", "op": "Sigmoid", "input": ["model_27/tf.math.add_277/Add"], "attr": {"T": {"type": "DT_FLOAT"}}}, {"name": "model_27/tf.math.multiply_856/Mul", "op": "Mul", "input": ["model_27/tf.math.add_276/Add", "model_27/tf.math.sigmoid_193/Sigmoid"], "attr": {"T": {"type": "DT_FLOAT"}}}, {"name": "model_27/tf.math.multiply_860/Mul", "op": "Mul", "input": ["model_27/tf.math.add_277/Add", "model_27/tf.math.sigmoid_194/Sigmoid"], "attr": {"T": {"type": "DT_FLOAT"}}}, {"name": "model_27/tf.math.add_278/Add", "op": "_FusedConv2D", "input": ["model_27/tf.math.multiply_856/Mul", "model_27/tf.nn.convolution_205/convolution/filter", "model_27/tf.math.add_278/Add/y"], "device": "/device:CPU:0", "attr": {"num_host_args": {"i": "0"}, "leakyrelu_alpha": {"f": 0.2}, "epsilon": {"f": 0.0}, "filter_format": {"s": "SFdJTw=="}, "data_format": {"s": "TkhXQw=="}, "T": {"type": "DT_FLOAT"}, "use_cudnn_on_gpu": {"b": true}, "TArgs": {"list": {"type": ["DT_FLOAT"]}}, "fused_ops": {"list": {"s": ["Qmlhc0FkZA=="]}}, "num_args": {"i": "1"}, "dilations": {"list": {"i": ["1", "1", "1", "1"]}}, "strides": {"list": {"i": ["1", "1", "1", "1"]}}, "padding": {"s": "U0FNRQ=="}, "explicit_paddings": {"list": {}}}}, {"name": "model_27/tf.math.add_279/Add", "op": "_FusedConv2D", "input": ["model_27/tf.math.multiply_860/Mul", "model_27/tf.nn.convolution_206/convolution/filter", "model_27/tf.math.add_279/Add/y"], "device": "/device:CPU:0", "attr": {"strides": {"list": {"i": ["1", "1", "1", "1"]}}, "explicit_paddings": {"list": {}}, "T": {"type": "DT_FLOAT"}, "TArgs": {"list": {"type": ["DT_FLOAT"]}}, "num_args": {"i": "1"}, "data_format": {"s": "TkhXQw=="}, "epsilon": {"f": 0.0}, "padding": {"s": "U0FNRQ=="}, "num_host_args": {"i": "0"}, "leakyrelu_alpha": {"f": 0.2}, "filter_format": {"s": "SFdJTw=="}, "dilations": {"list": {"i": ["1", "1", "1", "1"]}}, "fused_ops": {"list": {"s": ["Qmlhc0FkZA=="]}}, "use_cudnn_on_gpu": {"b": true}}}, {"name": "model_27/tf.concat_37/concat", "op": "ConcatV2", "input": ["model_27/tf.math.add_278/Add", "model_27/tf.math.add_279/Add", "model_27/tf.concat_37/concat/axis"], "attr": {"T": {"type": "DT_FLOAT"}, "Tidx": {"type": "DT_INT32"}, "N": {"i": "2"}}}, {"name": "model_27/tf.compat.v1.transpose_270/transpose", "op": "Transpose", "input": ["model_27/tf.concat_37/concat", "model_27/tf.compat.v1.transpose_270/transpose/perm"], "attr": {"T": {"type": "DT_FLOAT"}, "Tperm": {"type": "DT_INT32"}}}, {"name": "model_27/tf.reshape_23/Reshape", "op": "Reshape", "input": ["model_27/tf.compat.v1.transpose_270/transpose", "model_27/tf.reshape_23/Reshape/shape"], "attr": {"Tshape": {"type": "DT_INT32"}, "T": {"type": "DT_FLOAT"}}}, {"name": "model_27/tf.concat_38/concat", "op": "ConcatV2", "input": ["model_27/tf.reshape_17/Reshape", "model_27/tf.reshape_20/Reshape", "model_27/tf.reshape_23/Reshape", "model_27/tf.concat_38/concat/axis"], "attr": {"N": {"i": "3"}, "T": {"type": "DT_FLOAT"}, "Tidx": {"type": "DT_INT32"}}}, {"name": "model_27/tf.strided_slice_37/StridedSlice", "op": "StridedSlice", "input": ["model_27/tf.concat_38/concat", "model_27/tf.strided_slice_37/StridedSlice/begin", "model_27/tf.strided_slice_37/StridedSlice/end", "model_27/tf.strided_slice_37/StridedSlice/strides"], "attr": {"new_axis_mask": {"i": "0"}, "ellipsis_mask": {"i": "0"}, "T": {"type": "DT_FLOAT"}, "end_mask": {"i": "5"}, "begin_mask": {"i": "5"}, "shrink_axis_mask": {"i": "0"}, "Index": {"type": "DT_INT64"}}}, {"name": "model_27/tf.strided_slice_36/StridedSlice", "op": "StridedSlice", "input": ["model_27/tf.concat_38/concat", "model_27/tf.strided_slice_36/StridedSlice/begin", "model_27/tf.strided_slice_36/StridedSlice/end", "model_27/tf.strided_slice_36/StridedSlice/strides"], "attr": {"end_mask": {"i": "5"}, "Index": {"type": "DT_INT64"}, "ellipsis_mask": {"i": "0"}, "begin_mask": {"i": "7"}, "shrink_axis_mask": {"i": "0"}, "T": {"type": "DT_FLOAT"}, "new_axis_mask": {"i": "0"}}}, {"name": "model_27/tf.math.sigmoid_195/Sigmoid", "op": "Sigmoid", "input": ["model_27/tf.strided_slice_37/StridedSlice"], "attr": {"T": {"type": "DT_FLOAT"}}}, {"name": "model_27/tf.reshape_26/Reshape", "op": "Reshape", "input": ["model_27/tf.strided_slice_36/StridedSlice", "model_27/tf.reshape_26/Reshape/shape"], "attr": {"Tshape": {"type": "DT_INT32"}, "T": {"type": "DT_FLOAT"}}}, {"name": "model_27/tf.compat.v1.transpose_277/transpose", "op": "Transpose", "input": ["model_27/tf.reshape_26/Reshape", "model_27/tf.compat.v1.transpose_277/transpose/perm"], "attr": {"T": {"type": "DT_FLOAT"}, "Tperm": {"type": "DT_INT32"}}}, {"name": "model_27/tf.compat.v1.transpose_278/transpose", "op": "Transpose", "input": ["model_27/tf.compat.v1.transpose_277/transpose", "model_27/tf.compat.v1.transpose_278/transpose/perm"], "attr": {"T": {"type": "DT_FLOAT"}, "Tperm": {"type": "DT_INT32"}}}, {"name": "model_27/tf.nn.softmax_1//model.22/dfl/Softmax", "op": "Softmax", "input": ["model_27/tf.compat.v1.transpose_278/transpose"], "attr": {"T": {"type": "DT_FLOAT"}}}, {"name": "model_27/tf.nn.convolution_207/convolution", "op": "Conv2D", "input": ["model_27/tf.nn.softmax_1//model.22/dfl/Softmax", "model_27/tf.nn.convolution_207/convolution/filter"], "device": "/device:CPU:0", "attr": {"padding": {"s": "U0FNRQ=="}, "strides": {"list": {"i": ["1", "1", "1", "1"]}}, "use_cudnn_on_gpu": {"b": true}, "data_format": {"s": "TkhXQw=="}, "explicit_paddings": {"list": {}}, "T": {"type": "DT_FLOAT"}, "dilations": {"list": {"i": ["1", "1", "1", "1"]}}}}, {"name": "model_27/tf.compat.v1.transpose_283/transpose", "op": "Transpose", "input": ["model_27/tf.nn.convolution_207/convolution", "model_27/tf.compat.v1.transpose_283/transpose/perm"], "attr": {"Tperm": {"type": "DT_INT32"}, "T": {"type": "DT_FLOAT"}}}, {"name": "model_27/tf.reshape_29/Reshape", "op": "Reshape", "input": ["model_27/tf.compat.v1.transpose_283/transpose", "model_27/tf.reshape_29/Reshape/shape"], "attr": {"T": {"type": "DT_FLOAT"}, "Tshape": {"type": "DT_INT32"}}}, {"name": "model_27/tf.strided_slice_39/StridedSlice", "op": "StridedSlice", "input": ["model_27/tf.reshape_29/Reshape", "model_27/tf.strided_slice_39/ones_like/tensor", "model_27/tf.strided_slice_39/StridedSlice/end", "model_27/tf.strided_slice_39/ones_like"], "attr": {"shrink_axis_mask": {"i": "0"}, "begin_mask": {"i": "5"}, "Index": {"type": "DT_INT64"}, "T": {"type": "DT_FLOAT"}, "new_axis_mask": {"i": "0"}, "ellipsis_mask": {"i": "0"}, "end_mask": {"i": "5"}}}, {"name": "model_27/tf.strided_slice_38/StridedSlice", "op": "StridedSlice", "input": ["model_27/tf.reshape_29/Reshape", "model_27/tf.strided_slice_38/ones_like/tensor", "model_27/tf.strided_slice_38/StridedSlice/end", "model_27/tf.strided_slice_38/ones_like"], "attr": {"end_mask": {"i": "5"}, "ellipsis_mask": {"i": "0"}, "new_axis_mask": {"i": "0"}, "begin_mask": {"i": "7"}, "shrink_axis_mask": {"i": "0"}, "T": {"type": "DT_FLOAT"}, "Index": {"type": "DT_INT64"}}}, {"name": "model_27/tf.math.add_280/Add", "op": "AddV2", "input": ["model_27/tf.strided_slice_39/StridedSlice", "model_27/tf.math.add_280/Add/y"], "attr": {"T": {"type": "DT_FLOAT"}}}, {"name": "model_27/tf.math.subtract_2/Sub", "op": "Sub", "input": ["model_27/45437", "model_27/tf.strided_slice_38/StridedSlice"], "attr": {"T": {"type": "DT_FLOAT"}}}, {"name": "model_27/tf.math.add_281/Add", "op": "AddV2", "input": ["model_27/tf.math.subtract_2/Sub", "model_27/tf.math.add_280/Add"], "attr": {"T": {"type": "DT_FLOAT"}}}, {"name": "model_27/tf.math.subtract_3/Sub", "op": "Sub", "input": ["model_27/tf.math.add_280/Add", "model_27/tf.math.subtract_2/Sub"], "attr": {"T": {"type": "DT_FLOAT"}}}, {"name": "model_27/tf.math.divide_1/truediv", "op": "Mul", "input": ["model_27/tf.math.add_281/Add", "ConstantFolding/model_27/tf.math.divide_1/truediv_recip"], "attr": {"T": {"type": "DT_FLOAT"}}}, {"name": "model_27/tf.concat_42/concat", "op": "ConcatV2", "input": ["model_27/tf.math.divide_1/truediv", "model_27/tf.math.subtract_3/Sub", "model_27/tf.concat_42/concat/axis"], "attr": {"T": {"type": "DT_FLOAT"}, "Tidx": {"type": "DT_INT32"}, "N": {"i": "2"}}}, {"name": "model_27/tf.math.multiply_873/Mul", "op": "Mul", "input": ["model_27/tf.concat_42/concat", "model_27/tf.math.multiply_873/Mul/y"], "attr": {"T": {"type": "DT_FLOAT"}}}, {"name": "model_27/output0/concat", "op": "ConcatV2", "input": ["model_27/tf.math.multiply_873/Mul", "model_27/tf.math.sigmoid_195/Sigmoid", "model_27/output0/concat/axis"], "attr": {"T": {"type": "DT_FLOAT"}, "Tidx": {"type": "DT_INT32"}, "N": {"i": "2"}}}, {"name": "Identity", "op": "Identity", "input": ["model_27/output0/concat"], "attr": {"T": {"type": "DT_FLOAT"}}}], "library": {}, "versions": {"producer": 1994}}, "weightsManifest": [{"paths": ["group1-shard1of42.bin", "group1-shard2of42.bin", "group1-shard3of42.bin", "group1-shard4of42.bin", "group1-shard5of42.bin", "group1-shard6of42.bin", "group1-shard7of42.bin", "group1-shard8of42.bin", "group1-shard9of42.bin", "group1-shard10of42.bin", "group1-shard11of42.bin", "group1-shard12of42.bin", "group1-shard13of42.bin", "group1-shard14of42.bin", "group1-shard15of42.bin", "group1-shard16of42.bin", "group1-shard17of42.bin", "group1-shard18of42.bin", "group1-shard19of42.bin", "group1-shard20of42.bin", "group1-shard21of42.bin", "group1-shard22of42.bin", "group1-shard23of42.bin", "group1-shard24of42.bin", "group1-shard25of42.bin", "group1-shard26of42.bin", "group1-shard27of42.bin", "group1-shard28of42.bin", "group1-shard29of42.bin", "group1-shard30of42.bin", "group1-shard31of42.bin", "group1-shard32of42.bin", "group1-shard33of42.bin", "group1-shard34of42.bin", "group1-shard35of42.bin", "group1-shard36of42.bin", "group1-shard37of42.bin", "group1-shard38of42.bin", "group1-shard39of42.bin", "group1-shard40of42.bin", "group1-shard41of42.bin", "group1-shard42of42.bin"], "weights": [{"name": "ConstantFolding/model_27/tf.math.divide_1/truediv_recip", "shape": [], "dtype": "float32"}, {"name": "model_27/tf.strided_slice_39/ones_like/tensor", "shape": [3], "dtype": "int32"}, {"name": "model_27/tf.strided_slice_39/StridedSlice/end", "shape": [3], "dtype": "int32"}, {"name": "model_27/tf.strided_slice_39/ones_like", "shape": [3], "dtype": "int32"}, {"name": "model_27/tf.math.add_280/Add/y", "shape": [1, 2, 8400], "dtype": "float32"}, {"name": "model_27/45437", "shape": [1, 2, 8400], "dtype": "float32"}, {"name": "model_27/tf.strided_slice_36/StridedSlice/begin", "shape": [3], "dtype": "int32"}, {"name": "model_27/tf.strided_slice_36/StridedSlice/end", "shape": [3], "dtype": "int32"}, {"name": "model_27/tf.strided_slice_36/StridedSlice/strides", "shape": [3], "dtype": "int32"}, {"name": "model_27/tf.reshape_26/Reshape/shape", "shape": [4], "dtype": "int32"}, {"name": "model_27/tf.compat.v1.transpose_277/transpose/perm", "shape": [4], "dtype": "int32"}, {"name": "model_27/tf.compat.v1.transpose_278/transpose/perm", "shape": [4], "dtype": "int32"}, {"name": "model_27/tf.nn.convolution_207/convolution/filter", "shape": [1, 1, 16, 1], "dtype": "float32"}, {"name": "model_27/tf.compat.v1.transpose_283/transpose/perm", "shape": [4], "dtype": "int32"}, {"name": "model_27/tf.reshape_29/Reshape/shape", "shape": [3], "dtype": "int32"}, {"name": "model_27/tf.strided_slice_38/ones_like/tensor", "shape": [3], "dtype": "int32"}, {"name": "model_27/tf.strided_slice_38/StridedSlice/end", "shape": [3], "dtype": "int32"}, {"name": "model_27/tf.strided_slice_38/ones_like", "shape": [3], "dtype": "int32"}, {"name": "model_27/tf.concat_42/concat/axis", "shape": [], "dtype": "int32"}, {"name": "model_27/tf.math.multiply_873/Mul/y", "shape": [1, 1, 8400], "dtype": "float32"}, {"name": "model_27/tf.nn.convolution_172/convolution/filter", "shape": [3, 3, 256, 64], "dtype": "float32"}, {"name": "model_27/tf.math.add_245/Add/y", "shape": [64], "dtype": "float32"}, {"name": "model_27/tf.nn.convolution_174/convolution/filter", "shape": [3, 3, 64, 64], "dtype": "float32"}, {"name": "model_27/tf.math.add_247/Add/y", "shape": [64], "dtype": "float32"}, {"name": "model_27/tf.nn.convolution_177/convolution/filter", "shape": [1, 1, 64, 64], "dtype": "float32"}, {"name": "model_27/tf.math.add_250/Add/y", "shape": [64], "dtype": "float32"}, {"name": "model_27/tf.nn.convolution_173/convolution/filter", "shape": [3, 3, 256, 256], "dtype": "float32"}, {"name": "model_27/tf.math.add_246/Add/y", "shape": [256], "dtype": "float32"}, {"name": "model_27/tf.nn.convolution_175/convolution/filter", "shape": [3, 3, 256, 256], "dtype": "float32"}, {"name": "model_27/tf.math.add_248/Add/y", "shape": [256], "dtype": "float32"}, {"name": "model_27/tf.nn.convolution_178/convolution/filter", "shape": [1, 1, 256, 32], "dtype": "float32"}, {"name": "model_27/tf.math.add_251/Add/y", "shape": [32], "dtype": "float32"}, {"name": "model_27/tf.concat_32/concat/axis", "shape": [], "dtype": "int32"}, {"name": "model_27/tf.compat.v1.transpose_236/transpose/perm", "shape": [4], "dtype": "int32"}, {"name": "model_27/tf.reshape_17/Reshape/shape", "shape": [3], "dtype": "int32"}, {"name": "model_27/tf.nn.convolution_187/convolution/filter", "shape": [3, 3, 512, 64], "dtype": "float32"}, {"name": "model_27/tf.math.add_260/Add/y", "shape": [64], "dtype": "float32"}, {"name": "model_27/tf.nn.convolution_189/convolution/filter", "shape": [3, 3, 64, 64], "dtype": "float32"}, {"name": "model_27/tf.math.add_262/Add/y", "shape": [64], "dtype": "float32"}, {"name": "model_27/tf.nn.convolution_192/convolution/filter", "shape": [1, 1, 64, 64], "dtype": "float32"}, {"name": "model_27/tf.math.add_265/Add/y", "shape": [64], "dtype": "float32"}, {"name": "model_27/tf.nn.convolution_188/convolution/filter", "shape": [3, 3, 512, 256], "dtype": "float32"}, {"name": "model_27/tf.math.add_261/Add/y", "shape": [256], "dtype": "float32"}, {"name": "model_27/tf.nn.convolution_190/convolution/filter", "shape": [3, 3, 256, 256], "dtype": "float32"}, {"name": "model_27/tf.math.add_263/Add/y", "shape": [256], "dtype": "float32"}, {"name": "model_27/tf.nn.convolution_193/convolution/filter", "shape": [1, 1, 256, 32], "dtype": "float32"}, {"name": "model_27/tf.math.add_266/Add/y", "shape": [32], "dtype": "float32"}, {"name": "model_27/tf.concat_35/concat/axis", "shape": [], "dtype": "int32"}, {"name": "model_27/tf.compat.v1.transpose_254/transpose/perm", "shape": [4], "dtype": "int32"}, {"name": "model_27/tf.reshape_20/Reshape/shape", "shape": [3], "dtype": "int32"}, {"name": "model_27/tf.nn.convolution_201/convolution/filter", "shape": [3, 3, 512, 64], "dtype": "float32"}, {"name": "model_27/tf.math.add_274/Add/y", "shape": [64], "dtype": "float32"}, {"name": "model_27/tf.nn.convolution_203/convolution/filter", "shape": [3, 3, 64, 64], "dtype": "float32"}, {"name": "model_27/tf.math.add_276/Add/y", "shape": [64], "dtype": "float32"}, {"name": "model_27/tf.nn.convolution_205/convolution/filter", "shape": [1, 1, 64, 64], "dtype": "float32"}, {"name": "model_27/tf.math.add_278/Add/y", "shape": [64], "dtype": "float32"}, {"name": "model_27/tf.strided_slice_34/ones_like/tensor", "shape": [4], "dtype": "int32"}, {"name": "model_27/tf.strided_slice_34/StridedSlice/end", "shape": [4], "dtype": "int32"}, {"name": "model_27/tf.strided_slice_34/ones_like", "shape": [4], "dtype": "int32"}, {"name": "model_27/tf.strided_slice_32/ones_like/tensor", "shape": [4], "dtype": "int32"}, {"name": "model_27/tf.strided_slice_32/StridedSlice/end", "shape": [4], "dtype": "int32"}, {"name": "model_27/tf.strided_slice_32/ones_like", "shape": [4], "dtype": "int32"}, {"name": "model_27/tf.strided_slice_30/ones_like/tensor", "shape": [4], "dtype": "int32"}, {"name": "model_27/tf.strided_slice_30/StridedSlice/end", "shape": [4], "dtype": "int32"}, {"name": "model_27/tf.strided_slice_30/ones_like", "shape": [4], "dtype": "int32"}, {"name": "model_27/tf.compat.v1.image.resize_nearest_neighbor_3/ResizeNearestNeighbor/size", "shape": [2], "dtype": "int32"}, {"name": "model_27/tf.concat_29/concat/axis", "shape": [], "dtype": "int32"}, {"name": "model_27/tf.nn.convolution_163/convolution/filter", "shape": [1, 1, 768, 256], "dtype": "float32"}, {"name": "model_27/tf.math.add_236/Add/y", "shape": [256], "dtype": "float32"}, {"name": "model_27/tf.strided_slice_31/ones_like/tensor", "shape": [4], "dtype": "int32"}, {"name": "model_27/tf.strided_slice_31/StridedSlice/end", "shape": [4], "dtype": "int32"}, {"name": "model_27/tf.strided_slice_31/ones_like", "shape": [4], "dtype": "int32"}, {"name": "model_27/tf.nn.convolution_164/convolution/filter", "shape": [3, 3, 128, 128], "dtype": "float32"}, {"name": "model_27/tf.math.add_237/Add/y", "shape": [128], "dtype": "float32"}, {"name": "model_27/tf.nn.convolution_165/convolution/filter", "shape": [3, 3, 128, 128], "dtype": "float32"}, {"name": "model_27/tf.math.add_238/Add/y", "shape": [128], "dtype": "float32"}, {"name": "model_27/tf.nn.convolution_166/convolution/filter", "shape": [3, 3, 128, 128], "dtype": "float32"}, {"name": "model_27/tf.math.add_239/Add/y", "shape": [128], "dtype": "float32"}, {"name": "model_27/tf.nn.convolution_167/convolution/filter", "shape": [3, 3, 128, 128], "dtype": "float32"}, {"name": "model_27/tf.math.add_240/Add/y", "shape": [128], "dtype": "float32"}, {"name": "model_27/tf.nn.convolution_168/convolution/filter", "shape": [3, 3, 128, 128], "dtype": "float32"}, {"name": "model_27/tf.math.add_241/Add/y", "shape": [128], "dtype": "float32"}, {"name": "model_27/tf.nn.convolution_169/convolution/filter", "shape": [3, 3, 128, 128], "dtype": "float32"}, {"name": "model_27/tf.math.add_242/Add/y", "shape": [128], "dtype": "float32"}, {"name": "model_27/tf.concat_30/concat/axis", "shape": [], "dtype": "int32"}, {"name": "model_27/tf.nn.convolution_170/convolution/filter", "shape": [1, 1, 640, 256], "dtype": "float32"}, {"name": "model_27/tf.math.add_243/Add/y", "shape": [256], "dtype": "float32"}, {"name": "model_27/tf.compat.v1.pad_12/Pad/paddings", "shape": [4, 2], "dtype": "int32"}, {"name": "model_27/tf.nn.convolution_171/convolution/filter", "shape": [3, 3, 256, 256], "dtype": "float32"}, {"name": "model_27/tf.math.add_244/Add/y", "shape": [256], "dtype": "float32"}, {"name": "model_27/tf.strided_slice_28/ones_like/tensor", "shape": [4], "dtype": "int32"}, {"name": "model_27/tf.strided_slice_28/StridedSlice/end", "shape": [4], "dtype": "int32"}, {"name": "model_27/tf.strided_slice_28/ones_like", "shape": [4], "dtype": "int32"}, {"name": "model_27/tf.compat.v1.image.resize_nearest_neighbor_2/ResizeNearestNeighbor/size", "shape": [2], "dtype": "int32"}, {"name": "model_27/tf.concat_27/concat/axis", "shape": [], "dtype": "int32"}, {"name": "model_27/tf.nn.convolution_155/convolution/filter", "shape": [1, 1, 1024, 512], "dtype": "float32"}, {"name": "model_27/tf.math.add_228/Add/y", "shape": [512], "dtype": "float32"}, {"name": "model_27/tf.strided_slice_29/ones_like/tensor", "shape": [4], "dtype": "int32"}, {"name": "model_27/tf.strided_slice_29/StridedSlice/end", "shape": [4], "dtype": "int32"}, {"name": "model_27/tf.strided_slice_29/ones_like", "shape": [4], "dtype": "int32"}, {"name": "model_27/tf.nn.convolution_156/convolution/filter", "shape": [3, 3, 256, 256], "dtype": "float32"}, {"name": "model_27/tf.math.add_229/Add/y", "shape": [256], "dtype": "float32"}, {"name": "model_27/tf.nn.convolution_157/convolution/filter", "shape": [3, 3, 256, 256], "dtype": "float32"}, {"name": "model_27/tf.math.add_230/Add/y", "shape": [256], "dtype": "float32"}, {"name": "model_27/tf.nn.convolution_158/convolution/filter", "shape": [3, 3, 256, 256], "dtype": "float32"}, {"name": "model_27/tf.math.add_231/Add/y", "shape": [256], "dtype": "float32"}, {"name": "model_27/tf.nn.convolution_159/convolution/filter", "shape": [3, 3, 256, 256], "dtype": "float32"}, {"name": "model_27/tf.math.add_232/Add/y", "shape": [256], "dtype": "float32"}, {"name": "model_27/tf.nn.convolution_160/convolution/filter", "shape": [3, 3, 256, 256], "dtype": "float32"}, {"name": "model_27/tf.math.add_233/Add/y", "shape": [256], "dtype": "float32"}, {"name": "model_27/tf.nn.convolution_161/convolution/filter", "shape": [3, 3, 256, 256], "dtype": "float32"}, {"name": "model_27/tf.math.add_234/Add/y", "shape": [256], "dtype": "float32"}, {"name": "model_27/tf.concat_28/concat/axis", "shape": [], "dtype": "int32"}, {"name": "model_27/tf.nn.convolution_162/convolution/filter", "shape": [1, 1, 1280, 512], "dtype": "float32"}, {"name": "model_27/tf.math.add_235/Add/y", "shape": [512], "dtype": "float32"}, {"name": "model_27/tf.concat_31/concat/axis", "shape": [], "dtype": "int32"}, {"name": "model_27/tf.nn.convolution_176/convolution/filter", "shape": [1, 1, 768, 512], "dtype": "float32"}, {"name": "model_27/tf.math.add_249/Add/y", "shape": [512], "dtype": "float32"}, {"name": "model_27/tf.strided_slice_33/ones_like/tensor", "shape": [4], "dtype": "int32"}, {"name": "model_27/tf.strided_slice_33/StridedSlice/end", "shape": [4], "dtype": "int32"}, {"name": "model_27/tf.strided_slice_33/ones_like", "shape": [4], "dtype": "int32"}, {"name": "model_27/tf.nn.convolution_179/convolution/filter", "shape": [3, 3, 256, 256], "dtype": "float32"}, {"name": "model_27/tf.math.add_252/Add/y", "shape": [256], "dtype": "float32"}, {"name": "model_27/tf.nn.convolution_180/convolution/filter", "shape": [3, 3, 256, 256], "dtype": "float32"}, {"name": "model_27/tf.math.add_253/Add/y", "shape": [256], "dtype": "float32"}, {"name": "model_27/tf.nn.convolution_181/convolution/filter", "shape": [3, 3, 256, 256], "dtype": "float32"}, {"name": "model_27/tf.math.add_254/Add/y", "shape": [256], "dtype": "float32"}, {"name": "model_27/tf.nn.convolution_182/convolution/filter", "shape": [3, 3, 256, 256], "dtype": "float32"}, {"name": "model_27/tf.math.add_255/Add/y", "shape": [256], "dtype": "float32"}, {"name": "model_27/tf.nn.convolution_183/convolution/filter", "shape": [3, 3, 256, 256], "dtype": "float32"}, {"name": "model_27/tf.math.add_256/Add/y", "shape": [256], "dtype": "float32"}, {"name": "model_27/tf.nn.convolution_184/convolution/filter", "shape": [3, 3, 256, 256], "dtype": "float32"}, {"name": "model_27/tf.math.add_257/Add/y", "shape": [256], "dtype": "float32"}, {"name": "model_27/tf.concat_33/concat/axis", "shape": [], "dtype": "int32"}, {"name": "model_27/tf.nn.convolution_185/convolution/filter", "shape": [1, 1, 1280, 512], "dtype": "float32"}, {"name": "model_27/tf.math.add_258/Add/y", "shape": [512], "dtype": "float32"}, {"name": "model_27/tf.compat.v1.pad_13/Pad/paddings", "shape": [4, 2], "dtype": "int32"}, {"name": "model_27/tf.nn.convolution_186/convolution/filter", "shape": [3, 3, 512, 512], "dtype": "float32"}, {"name": "model_27/tf.math.add_259/Add/y", "shape": [512], "dtype": "float32"}, {"name": "model_27/tf.strided_slice_26/ones_like/tensor", "shape": [4], "dtype": "int32"}, {"name": "model_27/tf.strided_slice_26/StridedSlice/end", "shape": [4], "dtype": "int32"}, {"name": "model_27/tf.strided_slice_26/ones_like", "shape": [4], "dtype": "int32"}, {"name": "model_27/tf.strided_slice_24/ones_like/tensor", "shape": [4], "dtype": "int32"}, {"name": "model_27/tf.strided_slice_24/StridedSlice/end", "shape": [4], "dtype": "int32"}, {"name": "model_27/tf.strided_slice_24/ones_like", "shape": [4], "dtype": "int32"}, {"name": "model_27/tf.strided_slice_22/ones_like/tensor", "shape": [4], "dtype": "int32"}, {"name": "model_27/tf.strided_slice_22/StridedSlice/end", "shape": [4], "dtype": "int32"}, {"name": "model_27/tf.strided_slice_22/ones_like", "shape": [4], "dtype": "int32"}, {"name": "model_27/tf.strided_slice_20/ones_like/tensor", "shape": [4], "dtype": "int32"}, {"name": "model_27/tf.strided_slice_20/StridedSlice/end", "shape": [4], "dtype": "int32"}, {"name": "model_27/tf.strided_slice_20/ones_like", "shape": [4], "dtype": "int32"}, {"name": "model_27/tf.compat.v1.pad_7/Pad/paddings", "shape": [4, 2], "dtype": "int32"}, {"name": "model_27/tf.nn.convolution_104/convolution/filter", "shape": [3, 3, 3, 64], "dtype": "float32"}, {"name": "model_27/tf.math.add_141/Add/y", "shape": [64], "dtype": "float32"}, {"name": "model_27/tf.compat.v1.pad_8/Pad/paddings", "shape": [4, 2], "dtype": "int32"}, {"name": "model_27/tf.nn.convolution_105/convolution/filter", "shape": [3, 3, 64, 128], "dtype": "float32"}, {"name": "model_27/tf.math.add_142/Add/y", "shape": [128], "dtype": "float32"}, {"name": "model_27/tf.nn.convolution_106/convolution/filter", "shape": [1, 1, 128, 128], "dtype": "float32"}, {"name": "model_27/tf.math.add_143/Add/y", "shape": [128], "dtype": "float32"}, {"name": "model_27/tf.strided_slice_21/ones_like/tensor", "shape": [4], "dtype": "int32"}, {"name": "model_27/tf.strided_slice_21/StridedSlice/end", "shape": [4], "dtype": "int32"}, {"name": "model_27/tf.strided_slice_21/ones_like", "shape": [4], "dtype": "int32"}, {"name": "model_27/tf.nn.convolution_107/convolution/filter", "shape": [3, 3, 64, 64], "dtype": "float32"}, {"name": "model_27/tf.math.add_144/Add/y", "shape": [64], "dtype": "float32"}, {"name": "model_27/tf.nn.convolution_108/convolution/filter", "shape": [3, 3, 64, 64], "dtype": "float32"}, {"name": "model_27/tf.math.add_145/Add/y", "shape": [64], "dtype": "float32"}, {"name": "model_27/tf.nn.convolution_109/convolution/filter", "shape": [3, 3, 64, 64], "dtype": "float32"}, {"name": "model_27/tf.math.add_148/Add/y", "shape": [64], "dtype": "float32"}, {"name": "model_27/tf.nn.convolution_110/convolution/filter", "shape": [3, 3, 64, 64], "dtype": "float32"}, {"name": "model_27/tf.math.add_149/Add/y", "shape": [64], "dtype": "float32"}, {"name": "model_27/tf.nn.convolution_111/convolution/filter", "shape": [3, 3, 64, 64], "dtype": "float32"}, {"name": "model_27/tf.math.add_152/Add/y", "shape": [64], "dtype": "float32"}, {"name": "model_27/tf.nn.convolution_112/convolution/filter", "shape": [3, 3, 64, 64], "dtype": "float32"}, {"name": "model_27/tf.math.add_153/Add/y", "shape": [64], "dtype": "float32"}, {"name": "model_27/tf.concat_22/concat/axis", "shape": [], "dtype": "int32"}, {"name": "model_27/tf.nn.convolution_113/convolution/filter", "shape": [1, 1, 320, 128], "dtype": "float32"}, {"name": "model_27/tf.math.add_156/Add/y", "shape": [128], "dtype": "float32"}, {"name": "model_27/tf.compat.v1.pad_9/Pad/paddings", "shape": [4, 2], "dtype": "int32"}, {"name": "model_27/tf.nn.convolution_114/convolution/filter", "shape": [3, 3, 128, 256], "dtype": "float32"}, {"name": "model_27/tf.math.add_157/Add/y", "shape": [256], "dtype": "float32"}, {"name": "model_27/tf.nn.convolution_115/convolution/filter", "shape": [1, 1, 256, 256], "dtype": "float32"}, {"name": "model_27/tf.math.add_158/Add/y", "shape": [256], "dtype": "float32"}, {"name": "model_27/tf.strided_slice_23/ones_like/tensor", "shape": [4], "dtype": "int32"}, {"name": "model_27/tf.strided_slice_23/StridedSlice/end", "shape": [4], "dtype": "int32"}, {"name": "model_27/tf.strided_slice_23/ones_like", "shape": [4], "dtype": "int32"}, {"name": "model_27/tf.nn.convolution_116/convolution/filter", "shape": [3, 3, 128, 128], "dtype": "float32"}, {"name": "model_27/tf.math.add_159/Add/y", "shape": [128], "dtype": "float32"}, {"name": "model_27/tf.nn.convolution_117/convolution/filter", "shape": [3, 3, 128, 128], "dtype": "float32"}, {"name": "model_27/tf.math.add_160/Add/y", "shape": [128], "dtype": "float32"}, {"name": "model_27/tf.nn.convolution_118/convolution/filter", "shape": [3, 3, 128, 128], "dtype": "float32"}, {"name": "model_27/tf.math.add_163/Add/y", "shape": [128], "dtype": "float32"}, {"name": "model_27/tf.nn.convolution_119/convolution/filter", "shape": [3, 3, 128, 128], "dtype": "float32"}, {"name": "model_27/tf.math.add_164/Add/y", "shape": [128], "dtype": "float32"}, {"name": "model_27/tf.nn.convolution_120/convolution/filter", "shape": [3, 3, 128, 128], "dtype": "float32"}, {"name": "model_27/tf.math.add_167/Add/y", "shape": [128], "dtype": "float32"}, {"name": "model_27/tf.nn.convolution_121/convolution/filter", "shape": [3, 3, 128, 128], "dtype": "float32"}, {"name": "model_27/tf.math.add_168/Add/y", "shape": [128], "dtype": "float32"}, {"name": "model_27/tf.nn.convolution_122/convolution/filter", "shape": [3, 3, 128, 128], "dtype": "float32"}, {"name": "model_27/tf.math.add_171/Add/y", "shape": [128], "dtype": "float32"}, {"name": "model_27/tf.nn.convolution_123/convolution/filter", "shape": [3, 3, 128, 128], "dtype": "float32"}, {"name": "model_27/tf.math.add_172/Add/y", "shape": [128], "dtype": "float32"}, {"name": "model_27/tf.nn.convolution_124/convolution/filter", "shape": [3, 3, 128, 128], "dtype": "float32"}, {"name": "model_27/tf.math.add_175/Add/y", "shape": [128], "dtype": "float32"}, {"name": "model_27/tf.nn.convolution_125/convolution/filter", "shape": [3, 3, 128, 128], "dtype": "float32"}, {"name": "model_27/tf.math.add_176/Add/y", "shape": [128], "dtype": "float32"}, {"name": "model_27/tf.nn.convolution_126/convolution/filter", "shape": [3, 3, 128, 128], "dtype": "float32"}, {"name": "model_27/tf.math.add_179/Add/y", "shape": [128], "dtype": "float32"}, {"name": "model_27/tf.nn.convolution_127/convolution/filter", "shape": [3, 3, 128, 128], "dtype": "float32"}, {"name": "model_27/tf.math.add_180/Add/y", "shape": [128], "dtype": "float32"}, {"name": "model_27/tf.concat_23/concat/axis", "shape": [], "dtype": "int32"}, {"name": "model_27/tf.nn.convolution_128/convolution/filter", "shape": [1, 1, 1024, 256], "dtype": "float32"}, {"name": "model_27/tf.math.add_183/Add/y", "shape": [256], "dtype": "float32"}, {"name": "model_27/tf.compat.v1.pad_10/Pad/paddings", "shape": [4, 2], "dtype": "int32"}, {"name": "model_27/tf.nn.convolution_129/convolution/filter", "shape": [3, 3, 256, 512], "dtype": "float32"}, {"name": "model_27/tf.math.add_184/Add/y", "shape": [512], "dtype": "float32"}, {"name": "model_27/tf.nn.convolution_130/convolution/filter", "shape": [1, 1, 512, 512], "dtype": "float32"}, {"name": "model_27/tf.math.add_185/Add/y", "shape": [512], "dtype": "float32"}, {"name": "model_27/tf.strided_slice_25/ones_like/tensor", "shape": [4], "dtype": "int32"}, {"name": "model_27/tf.strided_slice_25/StridedSlice/end", "shape": [4], "dtype": "int32"}, {"name": "model_27/tf.strided_slice_25/ones_like", "shape": [4], "dtype": "int32"}, {"name": "model_27/tf.nn.convolution_131/convolution/filter", "shape": [3, 3, 256, 256], "dtype": "float32"}, {"name": "model_27/tf.math.add_186/Add/y", "shape": [256], "dtype": "float32"}, {"name": "model_27/tf.nn.convolution_132/convolution/filter", "shape": [3, 3, 256, 256], "dtype": "float32"}, {"name": "model_27/tf.math.add_187/Add/y", "shape": [256], "dtype": "float32"}, {"name": "model_27/tf.nn.convolution_133/convolution/filter", "shape": [3, 3, 256, 256], "dtype": "float32"}, {"name": "model_27/tf.math.add_190/Add/y", "shape": [256], "dtype": "float32"}, {"name": "model_27/tf.nn.convolution_134/convolution/filter", "shape": [3, 3, 256, 256], "dtype": "float32"}, {"name": "model_27/tf.math.add_191/Add/y", "shape": [256], "dtype": "float32"}, {"name": "model_27/tf.nn.convolution_135/convolution/filter", "shape": [3, 3, 256, 256], "dtype": "float32"}, {"name": "model_27/tf.math.add_194/Add/y", "shape": [256], "dtype": "float32"}, {"name": "model_27/tf.nn.convolution_136/convolution/filter", "shape": [3, 3, 256, 256], "dtype": "float32"}, {"name": "model_27/tf.math.add_195/Add/y", "shape": [256], "dtype": "float32"}, {"name": "model_27/tf.nn.convolution_137/convolution/filter", "shape": [3, 3, 256, 256], "dtype": "float32"}, {"name": "model_27/tf.math.add_198/Add/y", "shape": [256], "dtype": "float32"}, {"name": "model_27/tf.nn.convolution_138/convolution/filter", "shape": [3, 3, 256, 256], "dtype": "float32"}, {"name": "model_27/tf.math.add_199/Add/y", "shape": [256], "dtype": "float32"}, {"name": "model_27/tf.nn.convolution_139/convolution/filter", "shape": [3, 3, 256, 256], "dtype": "float32"}, {"name": "model_27/tf.math.add_202/Add/y", "shape": [256], "dtype": "float32"}, {"name": "model_27/tf.nn.convolution_140/convolution/filter", "shape": [3, 3, 256, 256], "dtype": "float32"}, {"name": "model_27/tf.math.add_203/Add/y", "shape": [256], "dtype": "float32"}, {"name": "model_27/tf.nn.convolution_141/convolution/filter", "shape": [3, 3, 256, 256], "dtype": "float32"}, {"name": "model_27/tf.math.add_206/Add/y", "shape": [256], "dtype": "float32"}, {"name": "model_27/tf.nn.convolution_142/convolution/filter", "shape": [3, 3, 256, 256], "dtype": "float32"}, {"name": "model_27/tf.math.add_207/Add/y", "shape": [256], "dtype": "float32"}, {"name": "model_27/tf.concat_24/concat/axis", "shape": [], "dtype": "int32"}, {"name": "model_27/tf.nn.convolution_143/convolution/filter", "shape": [1, 1, 2048, 512], "dtype": "float32"}, {"name": "model_27/tf.math.add_210/Add/y", "shape": [512], "dtype": "float32"}, {"name": "model_27/tf.compat.v1.pad_11/Pad/paddings", "shape": [4, 2], "dtype": "int32"}, {"name": "model_27/tf.nn.convolution_144/convolution/filter", "shape": [3, 3, 512, 512], "dtype": "float32"}, {"name": "model_27/tf.math.add_211/Add/y", "shape": [512], "dtype": "float32"}, {"name": "model_27/tf.nn.convolution_145/convolution/filter", "shape": [1, 1, 512, 512], "dtype": "float32"}, {"name": "model_27/tf.math.add_212/Add/y", "shape": [512], "dtype": "float32"}, {"name": "model_27/tf.strided_slice_27/ones_like/tensor", "shape": [4], "dtype": "int32"}, {"name": "model_27/tf.strided_slice_27/StridedSlice/end", "shape": [4], "dtype": "int32"}, {"name": "model_27/tf.strided_slice_27/ones_like", "shape": [4], "dtype": "int32"}, {"name": "model_27/tf.nn.convolution_146/convolution/filter", "shape": [3, 3, 256, 256], "dtype": "float32"}, {"name": "model_27/tf.math.add_213/Add/y", "shape": [256], "dtype": "float32"}, {"name": "model_27/tf.nn.convolution_147/convolution/filter", "shape": [3, 3, 256, 256], "dtype": "float32"}, {"name": "model_27/tf.math.add_214/Add/y", "shape": [256], "dtype": "float32"}, {"name": "model_27/tf.nn.convolution_148/convolution/filter", "shape": [3, 3, 256, 256], "dtype": "float32"}, {"name": "model_27/tf.math.add_217/Add/y", "shape": [256], "dtype": "float32"}, {"name": "model_27/tf.nn.convolution_149/convolution/filter", "shape": [3, 3, 256, 256], "dtype": "float32"}, {"name": "model_27/tf.math.add_218/Add/y", "shape": [256], "dtype": "float32"}, {"name": "model_27/tf.nn.convolution_150/convolution/filter", "shape": [3, 3, 256, 256], "dtype": "float32"}, {"name": "model_27/tf.math.add_221/Add/y", "shape": [256], "dtype": "float32"}, {"name": "model_27/tf.nn.convolution_151/convolution/filter", "shape": [3, 3, 256, 256], "dtype": "float32"}, {"name": "model_27/tf.math.add_222/Add/y", "shape": [256], "dtype": "float32"}, {"name": "model_27/tf.concat_25/concat/axis", "shape": [], "dtype": "int32"}, {"name": "model_27/tf.nn.convolution_152/convolution/filter", "shape": [1, 1, 1280, 512], "dtype": "float32"}, {"name": "model_27/tf.math.add_225/Add/y", "shape": [512], "dtype": "float32"}, {"name": "model_27/tf.nn.convolution_153/convolution/filter", "shape": [1, 1, 512, 256], "dtype": "float32"}, {"name": "model_27/tf.math.add_226/Add/y", "shape": [256], "dtype": "float32"}, {"name": "model_27/tf.concat_26/concat/axis", "shape": [], "dtype": "int32"}, {"name": "model_27/tf.nn.convolution_154/convolution/filter", "shape": [1, 1, 1024, 512], "dtype": "float32"}, {"name": "model_27/tf.math.add_227/Add/y", "shape": [512], "dtype": "float32"}, {"name": "model_27/tf.concat_34/concat/axis", "shape": [], "dtype": "int32"}, {"name": "model_27/tf.nn.convolution_191/convolution/filter", "shape": [1, 1, 1024, 512], "dtype": "float32"}, {"name": "model_27/tf.math.add_264/Add/y", "shape": [512], "dtype": "float32"}, {"name": "model_27/tf.strided_slice_35/ones_like/tensor", "shape": [4], "dtype": "int32"}, {"name": "model_27/tf.strided_slice_35/StridedSlice/end", "shape": [4], "dtype": "int32"}, {"name": "model_27/tf.strided_slice_35/ones_like", "shape": [4], "dtype": "int32"}, {"name": "model_27/tf.nn.convolution_194/convolution/filter", "shape": [3, 3, 256, 256], "dtype": "float32"}, {"name": "model_27/tf.math.add_267/Add/y", "shape": [256], "dtype": "float32"}, {"name": "model_27/tf.nn.convolution_195/convolution/filter", "shape": [3, 3, 256, 256], "dtype": "float32"}, {"name": "model_27/tf.math.add_268/Add/y", "shape": [256], "dtype": "float32"}, {"name": "model_27/tf.nn.convolution_196/convolution/filter", "shape": [3, 3, 256, 256], "dtype": "float32"}, {"name": "model_27/tf.math.add_269/Add/y", "shape": [256], "dtype": "float32"}, {"name": "model_27/tf.nn.convolution_197/convolution/filter", "shape": [3, 3, 256, 256], "dtype": "float32"}, {"name": "model_27/tf.math.add_270/Add/y", "shape": [256], "dtype": "float32"}, {"name": "model_27/tf.nn.convolution_198/convolution/filter", "shape": [3, 3, 256, 256], "dtype": "float32"}, {"name": "model_27/tf.math.add_271/Add/y", "shape": [256], "dtype": "float32"}, {"name": "model_27/tf.nn.convolution_199/convolution/filter", "shape": [3, 3, 256, 256], "dtype": "float32"}, {"name": "model_27/tf.math.add_272/Add/y", "shape": [256], "dtype": "float32"}, {"name": "model_27/tf.concat_36/concat/axis", "shape": [], "dtype": "int32"}, {"name": "model_27/tf.nn.convolution_200/convolution/filter", "shape": [1, 1, 1280, 512], "dtype": "float32"}, {"name": "model_27/tf.math.add_273/Add/y", "shape": [512], "dtype": "float32"}, {"name": "model_27/tf.nn.convolution_202/convolution/filter", "shape": [3, 3, 512, 256], "dtype": "float32"}, {"name": "model_27/tf.math.add_275/Add/y", "shape": [256], "dtype": "float32"}, {"name": "model_27/tf.nn.convolution_204/convolution/filter", "shape": [3, 3, 256, 256], "dtype": "float32"}, {"name": "model_27/tf.math.add_277/Add/y", "shape": [256], "dtype": "float32"}, {"name": "model_27/tf.nn.convolution_206/convolution/filter", "shape": [1, 1, 256, 32], "dtype": "float32"}, {"name": "model_27/tf.math.add_279/Add/y", "shape": [32], "dtype": "float32"}, {"name": "model_27/tf.concat_37/concat/axis", "shape": [], "dtype": "int32"}, {"name": "model_27/tf.compat.v1.transpose_270/transpose/perm", "shape": [4], "dtype": "int32"}, {"name": "model_27/tf.reshape_23/Reshape/shape", "shape": [3], "dtype": "int32"}, {"name": "model_27/tf.concat_38/concat/axis", "shape": [], "dtype": "int32"}, {"name": "model_27/tf.strided_slice_37/StridedSlice/begin", "shape": [3], "dtype": "int32"}, {"name": "model_27/tf.strided_slice_37/StridedSlice/end", "shape": [3], "dtype": "int32"}, {"name": "model_27/tf.strided_slice_37/StridedSlice/strides", "shape": [3], "dtype": "int32"}, {"name": "model_27/output0/concat/axis", "shape": [], "dtype": "int32"}]}]}